environments/obstacle_estimator/lstm/direct_simple/model.pth (torch, 800079 bytes, 42 tensors)

lstm.weight_ih_l0 f4 [200, 16]
0	0x006a5af6	9.767193e-39
1	0x003ac518	5.397163e-39
2	0x81ba843f	-6.8515373e-38
3	0x0113831c	2.7093702e-38
4	0x80bed784	-1.7526057e-38
5	0x01b55c2b	6.6621154e-38
6	0x8182b344	-4.801169e-38
7	0x0142cf99	3.5781117e-38
8	0x81a0d6ad	-5.908276e-38
9	0x0166af70	4.2370198e-38
10	0x818ff4e8	-5.2881327e-38
11	0x815de45a	-4.0755124e-38
12	0x0168226a	4.263636e-38
13	0x805fd084	-8.799173e-39
14	0x81a9d6fe	-6.2389294e-38
15	0x81961ee0	-5.51456e-38
16	0x81a5021b	-6.061445e-38
17	0x819058a0	-5.3024416e-38
18	0x01122b89	2.68472e-38
19	0x01942bfb	5.442972e-38
20	0x010aae30	2.547157e-38
21	0x00f26a00	2.2262216e-38
22	0x01afd5ef	6.4591827e-38
23	0x0097202c	1.3878701e-38
24	0x01b8b0b0	6.784446e-38
25	0x8076e5ef	-1.0919073e-38
26	0x8007b564	-7.07919e-40
27	0x00c2eae0	1.7900344e-38
28	0x81ab253c	-6.286891e-38
29	0x01b3c2ef	6.603393e-38
30	0x012e29ec	3.198883e-38
31	0x002a902c	3.90881e-39
32	0x009d2686	1.4431993e-38
33	0x818ce308	-5.175365e-38
34	0x81982a9c	-5.5897123e-38
35	0x80a7a8ed	-1.5397127e-38
36	0x0166d7b8	4.23991e-38
37	0x00d0a77f	1.916187e-38
38	0x8128c7a8	-3.0999973e-38
39	0x00b6ee72	1.6799598e-38
40	0x00e778f8	2.1257395e-38
41	0x8130a6ac	-3.2445676e-38
42	0x001c5b12	2.604064e-39
43	0x01717ce0	4.4354303e-38
44	0x810b87d4	-2.562772e-38
45	0x811c90b4	-2.8756494e-38
46	0x0007a76d	7.0291e-40
47	0x01978f07	5.5673874e-38
48	0x8079dab3	-1.119055e-38
49	0x015aa8dd	4.016143e-38
50	0x809da266	-1.447643e-38
51	0x01b7501c	6.7338535e-38
52	0x81a54fe4	-6.0726065e-38
53	0x815c7294	-4.0489824e-38
54	0x8104bb0a	-2.4378765e-38
55	0x8127c0e4	-3.0811448e-38
56	0x802c117e	-4.047037e-39
57	0x81c03947	-7.061185e-38
58	0x81147583	-2.7267617e-38
59	0x81bc84ce	-6.925086e-38
60	0x81627a17	-4.159724e-38
61	0x01146530	2.7255905e-38
62	0x0196ccae	5.5395e-38
63	0x8112b77e	-2.6947614e-38
64	0x80e4fe40	-2.1029701e-38
65	0x009472bc	1.3632812e-38
66	0x815543fc	-3.9170698e-38
67	0x0116bddf	2.7686875e-38
68	0x0008204c	7.4627e-40
69	0x00ac0cd8	1.5800313e-38
70	0x81749f55	-4.4930037e-38
71	0x011371a4	2.708117e-38
72	0x810e6241	-2.6151775e-38
73	0x81aafc69	-6.281033e-38
74	0x804b495e	-6.913981e-39
75	0x01839247	4.83317e-38
76	0x0187f167	4.9937563e-38
77	0x8189367e	-5.0404044e-38
78	0x00f6ca18	2.266403e-38
79	0x8034bd74	-4.843409e-39
80	0x016e7392	4.3796614e-38
81	0x0191b652	5.3526205e-38
82	0x00f3b82c	2.2382094e-38
83	0x018a0cbc	5.0711467e-38
84	0x00271a24	3.590962e-39
85	0x81560451	-3.930869e-38
86	0x006c4be1	9.945454e-39
87	0x81463260	-3.6403e-38
88	0x811c79ba	-2.874001e-38
89	0x819ef130	-5.838612e-38
90	0x8123ae4a	-3.0063418e-38
91	0x010cd34c	2.5865537e-38
92	0x0112548a	2.687662e-38
93	0x0189d45a	5.063056e-38
94	0x810bc1a1	-2.566919e-38
95	0x80894ae7	-1.2608333e-38
96	0x01b82a11	6.765129e-38
97	0x01ac1aff	6.322156e-38
98	0x817570ac	-4.508023e-38
99	0x0042c300	6.131096e-39
100	0x8096f894	-1.3864497e-38
101	0x809920c4	-1.4062585e-38
102	0x0100880a	2.360749e-38
103	0x009a795e	1.4186205e-38
104	0x004e3900	7.183616e-39
105	0x80c320e6	-1.7919723e-38
106	0x01aebce1	6.4188533e-38
107	0x013628d4	3.3457413e-38
108	0x0068f544	9.638876e-39
109	0x804a0eb5	-6.801103e-39
110	0x80fc37c5	-2.3162551e-38
111	0x81629482	-4.1616193e-38
112	0x00082b18	7.50143e-40
113	0x00039b6b	3.3126e-40
114	0x01555710	3.9184386e-38
115	0x813c78ec	-3.4616904e-38
116	0x01040ae4	2.4252385e-38
117	0x81a09bec	-5.8998454e-38
118	0x00a8133a	1.543526e-38
119	0x818b51f1	-5.1178116e-38
120	0x01a0bc3c	5.904482e-38
121	0x002281fa	3.169034e-39
122	0x817188b8	-4.43628e-38
123	0x0189f00d	5.067031e-38
124	0x012ed2a8	3.210989e-38
125	0x81490300	-3.6920022e-38
126	0x00384944	5.16907e-39
127	0x000badb0	1.072498e-39
128	0x8044ba5c	-6.311667e-39
129	0x01734484	4.468121e-38
130	0x8133eab0	-3.3045488e-38
131	0x016f8f9b	4.40004e-38
132	0x80b7b07e	-1.6869209e-38
133	0x81bc40fc	-6.915354e-38
134	0x000db464	1.258573e-39
135	0x80ea5c34	-2.1522582e-38
136	0x00d3c048	1.9446267e-38
137	0x012eaaac	3.2081204e-38
138	0x00544f84	7.742707e-39
139	0x8115e92c	-2.753427e-38
140	0x013a0431	3.4165812e-38
141	0x81b255e8	-6.551014e-38
142	0x80b861ec	-1.6932859e-38
143	0x0009acbc	8.88485e-40
144	0x01ad2fdb	6.361883e-38
145	0x81122889	-2.6845047e-38
146	0x81953638	-5.4811756e-38
147	0x810975c8	-2.524743e-38
148	0x0188fede	5.0324226e-38
149	0x81a52082	-6.0658074e-38
150	0x0152c293	3.8710509e-38
151	0x8044d03c	-6.319514e-39
152	0x814eff74	-3.8019503e-38
153	0x811823c4	-2.7943651e-38
154	0x8141ae58	-3.5573587e-38
155	0x0194816e	5.4552336e-38
156	0x010359a8	2.4125225e-38
157	0x002e1e1c	4.235234e-39
158	0x815fa1e5	-4.1074785e-38
159	0x00fea4ca	2.3385331e-38
160	0x8109e29c	-2.532551e-38
161	0x80472fea	-6.537509e-39
162	0x0131e958	3.2677182e-38
163	0x0123d8e6	3.009399e-38
164	0x013e9bb4	3.50092e-38
165	0x8181f472	-4.773788e-38
166	0x80874e60	-1.2425908e-38
167	0x817e862e	-4.67487e-38
168	0x81451e9a	-3.620514e-38
169	0x0038ca10	5.215274e-39
170	0x81095553	-2.5224143e-38
171	0x81603109	-4.1177483e-38
172	0x00b12a10	1.6269972e-38
173	0x8015b76b	-1.994343e-39
174	0x81966b1b	-5.5254987e-38
175	0x80b2c710	-1.6418128e-38
176	0x017b9332	4.6207027e-38
177	0x81938644	-5.4191933e-38
178	0x0054bd35	7.782056e-39
179	0x80063014	-5.6826e-40
180	0x008e7836	1.3083764e-38
181	0x00b3edc8	1.6523854e-38
182	0x81bf8796	-7.0356875e-38
183	0x8130d000	-3.2475327e-38
184	0x00da62c1	2.0055564e-38
185	0x01a094cc	5.898823e-38
186	0x80182a40	-2.219208e-39
187	0x819d2acc	-5.77341e-38
188	0x009f36df	1.4621528e-38
189	0x0159c1b2	3.9995575e-38
190	0x0125bb5a	3.0440132e-38
191	0x0168e3a9	4.2775008e-38
192	0x015992f2	3.9962033e-38
193	0x800dc265	-1.263597e-39
194	0x01a4c18a	6.05218e-38
195	0x812974e0	-3.1124251e-38
196	0x01651f4a	4.2083106e-38
197	0x01afa380	6.451946e-38
198	0x8147ab2a	-3.6673332e-38
199	0x00a1f2e8	1.4872653e-38
200	0x0094032c	1.3592791e-38
201	0x014c293b	3.7498464e-38
202	0x00534e9a	7.650543e-39
203	0x80f6b1ec	-2.2655358e-38
204	0x8078ca55	-1.1092843e-38
205	0x00767cd8	1.0881374e-38
206	0x80443fa6	-6.267646e-39
207	0x8194f382	-5.471603e-38
208	0x81922720	-5.368807e-38
209	0x81a17d8a	-5.93222e-38
210	0x017586d2	4.5096122e-38
211	0x81bd60f6	-6.956677e-38
212	0x80fe357c	-2.3345403e-38
213	0x004ce1f8	7.06056e-39
214	0x80bb0a2d	-1.7176888e-38
215	0x8089565d	-1.2612444e-38
216	0x01756fa5	4.5079494e-38
217	0x81559392	-3.9227798e-38
218	0x010c6d88	2.5792524e-38
219	0x015ff0cb	4.1131392e-38
220	0x808f2e26	-1.3149031e-38
221	0x80eb141c	-2.1588555e-38
222	0x002c0ab0	4.044596e-39
223	0x0033cae9	4.756401e-39
224	0x011002d4	2.6450652e-38
225	0x80031cc4	-2.85826e-40
226	0x81099339	-2.5268553e-38
227	0x0161c794	4.1469164e-38
228	0x0062c57e	9.070725e-39
229	0x00d1aebe	1.9256304e-38
230	0x0114def8	2.734328e-38
231	0x81217d26	-2.966082e-38
232	0x80b62244	-1.6726352e-38
233	0x81acd6a2	-6.3490804e-38
234	0x80cd4dce	-1.8854188e-38
235	0x00ad1c7b	1.5897758e-38
236	0x00d15f50	1.922781e-38
237	0x019ab3bf	5.682859e-38
238	0x801fbeb8	-2.915317e-39
239	0x80f70d4c	-2.2688138e-38
240	0x0184ed74	4.882987e-38
241	0x00abf222	1.5790731e-38
242	0x019237c0	5.3711927e-38
243	0x01823b0c	4.7839186e-38
244	0x815fdb0b	-4.1115787e-38
245	0x01466068	3.6436025e-38
246	0x012ee654	3.2124005e-38
247	0x817f1f59	-4.6858594e-38
248	0x81244651	-3.0172492e-38
249	0x00cfc030	1.9078892e-38
250	0x805daac0	-8.601955e-39
251	0x81a4a746	-6.048411e-38
252	0x017d1b3e	4.6488306e-38
253	0x815c4093	-4.0453948e-38
254	0x81866f6e	-4.938372e-38
255	0x0017c7c1	2.183875e-39

lstm.weight_hh_l0 f4 [200, 50]
0	0x00bde1a8	1.7437859e-38
1	0x012a812a	3.131674e-38
2	0x81880f84	-4.9980774e-38
3	0x81987451	-5.600289e-38
4	0x008900b4	1.2581715e-38
5	0x819af300	-5.6919354e-38
6	0x8008db30	-8.13314e-40
7	0x002f31c3	4.33412e-39
8	0x803c9570	-5.563738e-39
9	0x81201300	-2.940099e-38
10	0x00cda1d1	1.8884326e-38
11	0x80ac1c64	-1.580589e-38
12	0x0192426c	5.372724e-38
13	0x809b0b2e	-1.4238512e-38
14	0x80b215b9	-1.6354511e-38
15	0x806b3f31	-9.849067e-39
16	0x00149c4e	1.892781e-39
17	0x012387ae	3.0035717e-38
18	0x014064f0	3.533725e-38
19	0x00a6f626	1.5332994e-38
20	0x81ba21f8	-6.837435e-38
21	0x0176669c	4.5256683e-38
22	0x0053d608	7.699126e-39
23	0x808c38c3	-1.2877332e-38
24	0x013e3fee	3.4943356e-38
25	0x004ca4a4	7.03856e-39
26	0x00f4b3a4	2.2472304e-38
27	0x80b9cd7e	-1.7063283e-38
28	0x00fbaf38	2.3113566e-38
29	0x013d139e	3.4727892e-38
30	0x81973842	-5.5549366e-38
31	0x80cf1907	-1.9018926e-38
32	0x81ba9a22	-6.854678e-38
33	0x81818d68	-4.7590024e-38
34	0x8195adc7	-5.4983314e-38
35	0x8011d44c	-1.637361e-39
36	0x00e92355	2.1410345e-38
37	0x80b95e9d	-1.7023508e-38
38	0x80a8eb66	-1.5512808e-38
39	0x81b00ba0	-6.466887e-38
40	0x00df334c	2.0497717e-38
41	0x80d91118	-1.9934435e-38
42	0x80b36838	-1.647594e-38
43	0x01b9814a	6.814379e-38
44	0x80402dba	-5.893875e-39
45	0x01a4ffa9	6.061094e-38
46	0x81ade100	-6.387302e-38
47	0x80b4f69d	-1.6618857e-38
48	0x0121af84	2.9696956e-38
49	0x80fd3ff8	-2.3257328e-38
50	0x81a30a77	-5.989176e-38
51	0x81b2eb4c	-6.572451e-38
52	0x8010d03d	-1.54407e-39
53	0x016e0395	4.3716266e-38
54	0x80196190	-2.330886e-39
55	0x017d0507	4.6472368e-38
56	0x01121f0f	2.6838248e-38
57	0x8019af3c	-2.35875e-39
58	0x001b7126	2.520148e-39
59	0x808c07d5	-1.2859779e-38
60	0x011153d6	2.6692443e-38
61	0x801ab41b	-2.452333e-39
62	0x80ab6640	-1.574055e-38
63	0x01b5fbc6	6.6850176e-38
64	0x012a22ca	3.124903e-38
65	0x018eec16	5.250133e-38
66	0x81bd99f2	-6.9648536e-38
67	0x0190da3e	5.321041e-38
68	0x00b8d609	1.6974513e-38
69	0x8014839a	-1.88392e-39
70	0x01a53fcd	6.0702977e-38
71	0x0151372b	3.8426818e-38
72	0x0102ebef	2.4046503e-38
73	0x810907b2	-2.5168447e-38
74	0x81911e48	-5.330804e-38
75	0x81239d9b	-3.0051448e-38
76	0x01b732ad	6.72963e-38
77	0x817f322a	-4.6872094e-38
78	0x81aecd6a	-6.421226e-38
79	0x803ff2c0	-5.872719e-39
80	0x805bf3e4	-8.444522e-39
81	0x80f71ddd	-2.269408e-38
82	0x814c5d8c	-3.7536e-38
83	0x01b48d79	6.632456e-38
84	0x80940616	-1.3593837e-38
85	0x80b153b4	-1.628491e-38
86	0x8162c5c9	-4.1651548e-38
87	0x00f9f566	2.2955071e-38
88	0x803fcadc	-5.858408e-39
89	0x016843bd	4.266027e-38
90	0x01a77952	6.15202e-38
91	0x81246732	-3.0196082e-38
92	0x815fae7a	-4.1083812e-38
93	0x818596ba	-4.9072766e-38
94	0x8119f594	-2.8277855e-38
95	0x0038fc0a	5.233202e-39
96	0x81aa618a	-6.25881e-38
97	0x01630e4f	4.170358e-38
98	0x80b65544	-1.6744648e-38
99	0x81b65229	-6.6974135e-38
100	0x814853c2	-3.6794292e-38
101	0x01976833	5.561816e-38
102	0x81842e9c	-4.8556023e-38
103	0x01217afa	2.965926e-38
104	0x81bc6248	-6.920132e-38
105	0x00f5e676	2.258237e-38
106	0x000627ff	5.65361e-40
107	0x00698921	9.69192e-39
108	0x00ff543f	2.3448273e-38
109	0x80ae8cdd	-1.6029909e-38
110	0x804198a0	-6.024059e-39
111	0x01838009	4.830552e-38
112	0x011421f4	2.7207667e-38
113	0x0126134f	3.0503238e-38
114	0x003d0114	5.602352e-39
115	0x0198f68e	5.618977e-38
116	0x011d5854	2.8899718e-38
117	0x80a6b1b7	-1.5308444e-38
118	0x01b7a5d5	6.746154e-38
119	0x8153f770	-3.8932107e-38
120	0x813ef082	-3.5070044e-38
121	0x00c2891c	1.7865272e-38
122	0x011589e3	2.7465907e-38
123	0x0042cf48	6.135501e-39
124	0x00d1264c	1.9207357e-38
125	0x01a8c010	6.198905e-38
126	0x80689ec6	-9.607849e-39
127	0x810edec8	-2.624112e-38
128	0x81b7bef7	-6.7497604e-38
129	0x00fe7c09	2.3370711e-38
130	0x81628962	-4.1608212e-38
131	0x004ea1ee	7.221258e-39
132	0x016ebc10	4.3848624e-38
133	0x00c15ccf	1.7757544e-38
134	0x0125164c	3.032171e-38
135	0x000fddfa	1.457163e-39
136	0x00089ee8	7.91689e-40
137	0x00c7dcb4	1.8354437e-38
138	0x00ac11c7	1.5802083e-38
139	0x815923e8	-3.9882367e-38
140	0x007e9688	1.1625273e-38
141	0x811a6c2e	-2.8362948e-38
142	0x81499eb0	-3.7031722e-38
143	0x01750858	4.500538e-38
144	0x816701cc	-4.2429288e-38
145	0x01948000	5.4550285e-38
146	0x0136f51e	3.3603984e-38
147	0x0116647f	2.762275e-38
148	0x818a4253	-5.0788364e-38
149	0x00efb633	2.2014044e-38
150	0x0183f6b3	4.8475796e-38
151	0x81a3dde4	-6.019514e-38
152	0x01b1a104	6.525058e-38
153	0x81826576	-4.790005e-38
154	0x813d9a4e	-3.4824526e-38
155	0x0167de52	4.2587506e-38
156	0x814144e6	-3.5497934e-38
157	0x809e1019	-1.4515783e-38
158	0x000a0084	9.1854e-40
159	0x016d97dc	4.363898e-38
160	0x0186bbb0	4.9493144e-38
161	0x81869347	-4.943516e-38
162	0x01477f52	3.6641875e-38
163	0x80d98620	-1.9976418e-38
164	0x00eeef10	2.1942608e-38
165	0x019c9df8	5.7532024e-38
166	0x81adda53	-6.3863443e-38
167	0x014b8c4a	3.7385864e-38
168	0x0183cfc0	4.8419907e-38
169	0x0139f270	3.4153074e-38
170	0x00cd3703	1.8846011e-38
171	0x812acedd	-3.1372486e-38
172	0x811451c8	-2.7241982e-38
173	0x010402f4	2.424669e-38
174	0x8185c46f	-4.913835e-38
175	0x80627c57	-9.044483e-39
176	0x01604d2d	4.1197673e-38
177	0x0033861a	4.731717e-39
178	0x0172fc4f	4.4629403e-38
179	0x81b69d4e	-6.708196e-38
180	0x819c80d8	-5.749023e-38
181	0x81aaa46e	-6.268408e-38
182	0x01bc42c5	6.91561e-38
183	0x008050c4	1.1783917e-38
184	0x8159afb2	-3.998266e-38
185	0x01a780be	6.153085e-38
186	0x818354ec	-4.8243657e-38
187	0x018336aa	4.820024e-38
188	0x80c51723	-1.8099893e-38
189	0x00c03345	1.7650807e-38
190	0x805f8bfa	-8.774586e-39
191	0x013a1be7	3.4182824e-38
192	0x81000b33	-2.3517922e-38
193	0x01a9f420	6.24311e-38
194	0x0195a88e	5.497582e-38
195	0x0181fcd6	4.774992e-38
196	0x010623b0	2.4637517e-38
197	0x80aac6a7	-1.5683297e-38
198	0x00ea31b8	2.1507342e-38
199	0x81694b72	-4.284947e-38
200	0x8144b93a	-3.6132408e-38
201	0x00a4b6e6	1.5126633e-38
202	0x8160c328	-4.128232e-38
203	0x013e56b4	3.4959695e-38
204	0x00d9e154	2.0009135e-38
205	0x81adc2de	-6.3829784e-38
206	0x0112679a	2.6890295e-38
207	0x01ba2b34	6.83876e-38
208	0x814cb2aa	-3.7597068e-38
209	0x80c6da7d	-1.8261807e-38
210	0x01231c7f	2.9958817e-38
211	0x00c71d80	1.8285846e-38
212	0x0149ab8c	3.7040948e-38
213	0x802538f4	-3.418344e-39
214	0x80789ea2	-1.1077166e-38
215	0x0186a6e0	4.946328e-38
216	0x815c4dbc	-4.046339e-38
217	0x01ababd8	6.3062063e-38
218	0x0058bfc0	8.15031e-39
219	0x807aa740	-1.1263929e-38
220	0x80a61046	-1.525053e-38
221	0x01aff428	6.4635194e-38
222	0x013c595a	3.4594253e-38
223	0x00aa85d9	1.566005e-38
224	0x00a6a328	1.5303222e-38
225	0x0197dd0f	5.5785843e-38
226	0x0137f272	3.3785738e-38
227	0x003a2998	5.34138e-39
228	0x8183b082	-4.8375076e-38
229	0x8137c466	-3.37527e-38
230	0x81750149	-4.5000315e-38
231	0x00d96ece	1.9968052e-38
232	0x81a766ae	-6.149345e-38
233	0x014d34d7	3.7690464e-38
234	0x80fb3ec2	-2.3073223e-38
235	0x81a97388	-6.2246575e-38
236	0x018513be	4.888481e-38
237	0x01a4c5c2	6.0527854e-38
238	0x014a372c	3.7141124e-38
239	0x00c6df5a	1.8263552e-38
240	0x80203932	-2.959254e-39
241	0x01942563	5.442026e-38
242	0x017353f0	4.4692273e-38
243	0x81bcb302	-6.9317157e-38
244	0x0146ba06	3.6500322e-38
245	0x0184cd10	4.878339e-38
246	0x014f275c	3.8048134e-38
247	0x81a26aaa	-5.9662457e-38
248	0x81aca2d6	-6.341648e-38
249	0x01ad8212	6.3736805e-38
250	0x81283dca	-3.0901058e-38
251	0x8183069d	-4.813129e-38
252	0x0096ad41	1.3837476e-38
253	0x80e45264	-2.096805e-38
254	0x81af557d	-6.4407517e-38
255	0x81957ee6	-5.4916046e-38

lstm.bias_ih_l0 f4 [200]
0	0x0021d1ee	3.10588e-39
1	0x805a5f39	-8.299354e-39
2	0x812935e6	-3.1079068e-38
3	0x81bf7b8e	-7.033961e-38
4	0x80efc4c4	-2.201927e-38
5	0x8196e179	-5.5424835e-38
6	0x005bcdba	8.430831e-39
7	0x8184a600	-4.872734e-38
8	0x0170db06	4.423818e-38
9	0x81b7756e	-6.7392087e-38
10	0x01897d11	5.0505313e-38
11	0x015df748	4.0768705e-38
12	0x80d111a1	-1.9199943e-38
13	0x81b82c94	-6.765489e-38
14	0x000a8f61	9.6979e-40
15	0x00ec4068	2.1696282e-38
16	0x016e99a8	4.382394e-38
17	0x818eaf46	-5.2414067e-38
18	0x000240b4	2.06882e-40
19	0x81951af7	-5.477265e-38
20	0x013d2dba	3.4746625e-38
21	0x004dae63	7.133891e-39
22	0x8081f2cc	-1.1933878e-38
23	0x81ac0b4c	-6.319903e-38
24	0x81a980a0	-6.2265363e-38
25	0x810a7af4	-2.5434811e-38
26	0x018ddb9e	5.2110355e-38
27	0x01a268f9	5.966003e-38
28	0x006b7114	9.866963e-39
29	0x80e61fb4	-2.1133537e-38
30	0x80003fd0	-2.2892e-41
31	0x81324fde	-3.2750739e-38
32	0x01a5e436	6.0938894e-38
33	0x01398810	3.4076754e-38
34	0x011f90da	2.9307614e-38
35	0x016ec0cd	4.3852024e-38
36	0x8033b8e8	-4.749942e-39
37	0x814abe00	-3.723786e-38
38	0x806a6ec0	-9.774292e-39
39	0x8076a5e0	-1.0896093e-38
40	0x010cd980	2.5869988e-38
41	0x819cc136	-5.7582594e-38
42	0x0161c348	4.146608e-38
43	0x0154a3e9	3.905585e-38
44	0x819e5da0	-5.817438e-38
45	0x816592c4	-4.2165956e-38
46	0x80429600	-6.114953e-39
47	0x013778c4	3.3698437e-38
48	0x007fbce8	1.1730875e-38
49	0x018005c8	4.702807e-38
50	0x8191f4cc	-5.3615854e-38
51	0x011e6754	2.909415e-38
52	0x00e532cc	2.1048551e-38
53	0x80952682	-1.3697303e-38
54	0x0189a9e8	5.0569655e-38
55	0x016bf5ae	4.333895e-38
56	0x8057cf8c	-8.064142e-39
57	0x80264f7c	-3.518262e-39
58	0x011aeef6	2.845678e-38
59	0x8128730e	-3.0939274e-38
60	0x80d6740c	-1.9694426e-38
61	0x81a75871	-6.147302e-38
62	0x0033b4c5	4.748458e-39
63	0x018bfeff	5.142644e-38
64	0x00d3916b	1.9429456e-38
65	0x8158397c	-3.9714177e-38
66	0x819cabee	-5.7552057e-38
67	0x81a17472	-5.930915e-38
68	0x814ba03f	-3.7400182e-38
69	0x012d9540	3.1882163e-38
70	0x815b7e24	-4.031445e-38
71	0x015c0339	4.040993e-38
72	0x80e3dbd0	-2.0925511e-38
73	0x81207f0e	-2.9478516e-38
74	0x818fd7dd	-5.283965e-38
75	0x81284a9d	-3.091026e-38
76	0x0063eb86	9.176204e-39
77	0x00cf6594	1.9046387e-38
78	0x81620fb7	-4.152092e-38
79	0x009133dc	1.333475e-38
80	0x00cd0939	1.8829585e-38
81	0x81bac151	-6.8603005e-38
82	0x014bcdb2	3.743279e-38
83	0x00399a44	5.289963e-39
84	0x0191701c	5.3425457e-38
85	0x01182c2e	2.7949688e-38
86	0x00316d25	4.539093e-39
87	0x0101b070	2.3820146e-38
88	0x015f2eff	4.099235e-38
89	0x816dc220	-4.3669303e-38
90	0x8106587a	-2.4675392e-38
91	0x81999a0e	-5.642438e-38
92	0x014dc832	3.7796187e-38
93	0x81375f43	-3.3680139e-38
94	0x0066f939	9.456625e-39
95	0x017c5a9f	4.6350108e-38
96	0x81357dbc	-3.333466e-38
97	0x8131e9ec	-3.2677596e-38
98	0x0140828b	3.535849e-38
99	0x814af280	-3.7275526e-38
100	0x815f25c4	-4.0985727e-38
101	0x81572554	-3.9516045e-38
102	0x01129fc0	2.693058e-38
103	0x816711c0	-4.2440734e-38
104	0x81b424df	-6.6174465e-38
105	0x01227417	2.983799e-38
106	0x811be41a	-2.863266e-38
107	0x808a5d4c	-1.2706767e-38
108	0x016a039c	4.2981602e-38
109	0x811de24e	-2.8998711e-38
110	0x017c3126	4.6320352e-38
111	0x019ff6af	5.876135e-38
112	0x00dd3bc8	2.031709e-38
113	0x8155d57e	-3.9275094e-38
114	0x8189cc00	-5.061858e-38
115	0x005b5889	8.38879e-39
116	0x00029157	2.35809e-40
117	0x80afd6e0	-1.6148294e-38
118	0x81a572b8	-6.077604e-38
119	0x016e7ac2	4.380177e-38
120	0x80c94375	-1.8483134e-38
121	0x01243d4e	3.0166027e-38
122	0x01421a76	3.5651157e-38
123	0x008264e3	1.1974806e-38
124	0x8119eb40	-2.8270445e-38
125	0x0192b6d1	5.389426e-38
126	0x0029eca0	3.85014e-39
127	0x81703ca6	-4.412455e-38
128	0x807d0258	-1.1480278e-38
129	0x0172509c	4.4506215e-38
130	0x01a7ec47	6.168515e-38
131	0x0040bb50	5.944667e-39
132	0x81b60a7c	-6.6871286e-38
133	0x011bf93e	2.8647826e-38
134	0x807c3a15	-1.1408437e-38
135	0x01b8ccfc	6.7885063e-38
136	0x81a6aa22	-6.12229e-38
137	0x80ac576c	-1.5827066e-38
138	0x81a1c3d6	-5.942307e-38
139	0x8122dd7c	-2.9913608e-38
140	0x80c0ac5f	-1.769425e-38
141	0x01a21c50	5.955003e-38
142	0x819633e0	-5.5175735e-38
143	0x01244f92	3.0179132e-38
144	0x0137ad9b	3.3736347e-38
145	0x018679f8	4.939884e-38
146	0x011e97d8	2.912896e-38
147	0x81199b1c	-2.8212947e-38
148	0x01684c84	4.2666567e-38
149	0x01944b01	5.447424e-38
150	0x80c56c62	-1.8130473e-38
151	0x801e3402	-2.773722e-39
152	0x001a4b70	2.414785e-39
153	0x81715278	-4.4323878e-38
154	0x0108014d	2.4980188e-38
155	0x810012f6	-2.352349e-38
156	0x816eefc6	-4.3885725e-38
157	0x0165fee6	4.2243538e-38
158	0x018c93ec	5.1640135e-38
159	0x00c490bf	1.8051682e-38
160	0x019c41ae	5.7399595e-38
161	0x00c3be08	1.7976092e-38
162	0x0149e456	3.7081692e-38
163	0x80e59eba	-2.1087269e-38
164	0x800bdfab	-1.090427e-39
165	0x0180b37c	4.727732e-38
166	0x8163c14d	-4.1832002e-38
167	0x80b14870	-1.6280868e-38
168	0x005865c8	8.118036e-39
169	0x8067ad1c	-9.521156e-39
170	0x813763b8	-3.3683336e-38
171	0x81860976	-4.92374e-38
172	0x00bb39ff	1.7194043e-38
173	0x803493e7	-4.828503e-39
174	0x01a07724	5.8945676e-38
175	0x011f78e6	2.9290428e-38
176	0x0141eaf2	3.5617067e-38
177	0x81077572	-2.4879847e-38
178	0x019035ad	5.2974267e-38
179	0x806792a9	-9.511668e-39
180	0x01ab480e	6.291887e-38
181	0x0184cfaa	4.8787125e-38
182	0x019963a0	5.634628e-38
183	0x81212542	-2.959776e-38
184	0x81ad5ea2	-6.3685955e-38
185	0x81bbabfd	-6.893974e-38
186	0x815d5eb4	-4.0659235e-38
187	0x0049b978	6.770525e-39
188	0x80d294ac	-1.9338788e-38
189	0x00c288d8	1.7865177e-38
190	0x00911fa0	1.3327492e-38
191	0x81043813	-2.4284802e-38
192	0x8112ebdb	-2.6985183e-38
193	0x0192d200	5.3933265e-38
194	0x012b013f	3.1408634e-38
195	0x017dff88	4.6652096e-38
196	0x81016b26	-2.3770433e-38
197	0x818cb78b	-5.169125e-38
198	0x01460514	3.63705e-38
199	0x0071298c	1.0392315e-38

lstm.bias_hh_l0 f4 [200]
0	0x0071ab10	1.0438777e-38
1	0x8172ea16	-4.4616329e-38
2	0x81a65494	-6.1100133e-38
3	0x8124faf8	-3.0302104e-38
4	0x000fc836	1.449355e-39
5	0x00b7dc29	1.6884874e-38
6	0x80a2e3e6	-1.4959105e-38
7	0x018b5c7e	5.1193256e-38
8	0x811e80fe	-2.9112564e-38
9	0x00694c30	9.670058e-39
10	0x00dae2af	2.0101457e-38
11	0x00bdfb02	1.7446953e-38
12	0x0127114b	3.0685463e-38
13	0x80865664	-1.2336948e-38
14	0x0157eae3	3.9657786e-38
15	0x81bd9101	-6.9635705e-38
16	0x0044b5b6	6.31e-39
17	0x815536e1	-3.9161295e-38
18	0x01a2cfe5	5.9807716e-38
19	0x80fa4340	-2.2982999e-38
20	0x80fcf098	-2.3228854e-38
21	0x81a3cae4	-6.016788e-38
22	0x818151ce	-4.75045e-38
23	0x0110d32c	2.660013e-38
24	0x818a2b0c	-5.0754963e-38
25	0x01ae4814	6.402093e-38
26	0x001b6178	2.514524e-39
27	0x00aa5ff8	1.5646461e-38
28	0x80957a26	-1.3727308e-38
29	0x006a91a4	9.786809e-39
30	0x802996d2	-3.81936e-39
31	0x019aeab4	5.690745e-38
32	0x8097daf8	-1.3945711e-38
33	0x8020c703	-3.010128e-39
34	0x807feefc	-1.174884e-38
35	0x01a69272	6.118891e-38
36	0x00a838ac	1.5448693e-38
37	0x0037e7d0	5.134111e-39
38	0x818a0179	-5.0695307e-38
39	0x81ad1148	-6.357496e-38
40	0x814bfd19	-3.74668e-38
41	0x81b36833	-6.5903734e-38
42	0x80821380	-1.194561e-38
43	0x801895e4	-2.257823e-39
44	0x8075695d	-1.078255e-38
45	0x81a731c3	-6.1417516e-38
46	0x012e0a98	3.1966353e-38
47	0x818d5c00	-5.1927233e-38
48	0x01298d56	3.11418e-38
49	0x012306ad	2.994316e-38
50	0x809c5d51	-1.4359813e-38
51	0x01325463	3.275398e-38
52	0x8094c550	-1.3662436e-38
53	0x81349a76	-3.31716e-38
54	0x81a0bad6	-5.9042814e-38
55	0x81a5972c	-6.082835e-38
56	0x0194384a	5.4447385e-38
57	0x019f6c7f	5.856306e-38
58	0x8146bb3a	-3.6501185e-38
59	0x00994628	1.4075998e-38
60	0x0153e297	3.891715e-38
61	0x01049444	2.4350946e-38
62	0x8006e131	-6.31796e-40
63	0x0196c886	5.5389035e-38
64	0x80b88a1c	-1.6947276e-38
65	0x8136f587	-3.3604278e-38
66	0x8195c558	-5.501713e-38
67	0x81a8880d	-6.1908677e-38
68	0x011a8647	2.8381672e-38
69	0x01886690	5.010568e-38
70	0x813f46a4	-3.5131842e-38
71	0x810b85de	-2.5626313e-38
72	0x01abb1c7	6.307058e-38
73	0x01938675	5.419221e-38
74	0x005d2f75	8.557726e-39
75	0x819c3a56	-5.738906e-38
76	0x800d7935	-1.237342e-39
77	0x813d427e	-3.4761523e-38
78	0x019a8f84	5.67766e-38
79	0x00c0a15b	1.7690299e-38
80	0x00ebebd4	2.1665941e-38
81	0x010ea822	2.620191e-38
82	0x01809f58	4.724842e-38
83	0x019a50f2	5.6686816e-38
84	0x80382c1a	-5.158608e-39
85	0x81a83a4a	-6.1797094e-38
86	0x818b8d89	-5.126363e-38
87	0x010835be	2.5017813e-38
88	0x00f72604	2.2697005e-38
89	0x80811060	-1.1852653e-38
90	0x005b26ad	8.370904e-39
91	0x01bbbf04	6.8967045e-38
92	0x00486f1e	6.652017e-39
93	0x010ac625	2.548876e-38
94	0x01ace90a	6.3517216e-38
95	0x018409cf	4.8503217e-38
96	0x00c205bc	1.7818143e-38
97	0x8183603e	-4.82599e-38
98	0x00914382	1.3340364e-38
99	0x0027ff50	3.673173e-39
100	0x0164030c	4.1879172e-38
101	0x81073724	-2.4835145e-38
102	0x8111dc66	-2.6790422e-38
103	0x000efa7d	1.375555e-39
104	0x80bf807f	-1.7586675e-38
105	0x817059fe	-4.4145604e-38
106	0x8192f82f	-5.3988056e-38
107	0x81160471	-2.7553835e-38
108	0x81a793c1	-6.155813e-38
109	0x01afc038	6.456067e-38
110	0x019c2bad	5.736802e-38
111	0x81371c1e	-3.3631965e-38
112	0x80ff3e13	-2.344032e-38
113	0x81b0a60a	-6.4890444e-38
114	0x0186b970	4.9489916e-38
115	0x0022f0fa	3.208853e-39
116	0x0044fa08	6.334508e-39
117	0x81b70b7d	-6.724007e-38
118	0x80c3a3fc	-1.7966748e-38
119	0x810a6cd4	-2.5424677e-38
120	0x017a8c47	4.6018392e-38
121	0x81120404	-2.6818846e-38
122	0x819d772e	-5.7843706e-38
123	0x01b65d08	6.6989734e-38
124	0x00803988	1.1775582e-38
125	0x80349ac4	-4.830965e-39
126	0x0106525a	2.4670997e-38
127	0x80c0f23e	-1.7719315e-38
128	0x81767e54	-4.52737e-38
129	0x00d29551	1.9339019e-38
130	0x815d7889	-4.067777e-38
131	0x0126d255	3.064029e-38
132	0x81007c9c	-2.359929e-38
133	0x8051785f	-7.481856e-39
134	0x81725518	-4.4509432e-38
135	0x813eb366	-3.50262e-38
136	0x015c936c	4.0513388e-38
137	0x00b9c4d6	1.7060178e-38
138	0x005fd441	8.800514e-39
139	0x8172d7e0	-4.4603263e-38
140	0x8068a1aa	-9.608886e-39
141	0x81142864	-2.7212286e-38
142	0x0082eff0	1.2024688e-38
143	0x818d21d8	-5.1843783e-38
144	0x019885e4	5.6028105e-38
145	0x8173bcba	-4.4767456e-38
146	0x81a650b5	-6.109458e-38
147	0x80a47d63	-1.5106002e-38
148	0x01a7631e	6.148834e-38
149	0x01aae77f	6.278032e-38
150	0x019eadde	5.828952e-38
151	0x8044a76f	-6.304878e-39
152	0x81b5760f	-6.6658305e-38
153	0x00ae29c2	1.5994356e-38
154	0x81b9784e	-6.8130896e-38
155	0x01b77cc4	6.7402613e-38
156	0x80ce75a1	-1.896031e-38
157	0x80f698fc	-2.2646413e-38
158	0x807cf2f0	-1.1474751e-38
159	0x8142879a	-3.5729462e-38
160	0x816683a6	-4.233878e-38
161	0x812616b8	-3.0505685e-38
162	0x8046c3b9	-6.498697e-39
163	0x81bde144	-6.9750875e-38
164	0x81a0a69a	-5.901378e-38
165	0x014e54ac	3.7896974e-38
166	0x01a6e40f	6.130602e-38
167	0x80b75bdb	-1.6838847e-38
168	0x80d35d44	-1.9410747e-38
169	0x000893ac	7.87659e-40
170	0x018ddd70	5.2112967e-38
171	0x001bb5a8	2.544724e-39
172	0x818d2a94	-5.1856316e-38
173	0x80f9c9e8	-2.2939469e-38
174	0x8170d720	-4.4235383e-38
175	0x016cbf17	4.3483454e-38
176	0x8166e986	-4.2411873e-38
177	0x0150562e	3.8265397e-38
178	0x01787408	4.5633654e-38
179	0x81a7c6dd	-6.1631466e-38
180	0x817d2824	-4.649756e-38
181	0x803b5a78	-5.450748e-39
182	0x00b8194c	1.6906806e-38
183	0x010f97b4	2.6373794e-38
184	0x816607a2	-4.2249805e-38
185	0x808dde74	-1.3028606e-38
186	0x81a37bcd	-6.005439e-38
187	0x001bd24c	2.554999e-39
188	0x01402fe4	3.529919e-38
189	0x00cbb940	1.8709061e-38
190	0x00dfd798	2.0556656e-38
191	0x000d8618	1.241965e-39
192	0x806515f5	-9.283262e-39
193	0x010bc6f4	2.567301e-38
194	0x0193e1b8	5.432316e-38
195	0x00da2c37	2.0036e-38
196	0x010c4068	2.5760148e-38
197	0x015d81e8	4.0684492e-38
198	0x81024f94	-2.3934324e-38
199	0x815932c4	-3.9893028e-38

lstm.weight_ih_l1 f4 [200, 50]
0	0x8153ab4f	-3.8877487e-38
1	0x008099b2	1.1810079e-38
2	0x018ec4c5	5.244491e-38
3	0x8073c354	-1.0631153e-38
4	0x01196758	2.8175807e-38
5	0x0144efd0	3.6171572e-38
6	0x00ea4b93	2.1516617e-38
7	0x80918d30	-1.3366795e-38
8	0x014fb63e	3.8150648e-38
9	0x81009cdb	-2.3622425e-38
10	0x0165e60c	4.2225708e-38
11	0x8185cc91	-4.915002e-38
12	0x0040a3b6	5.9362e-39
13	0x0123df60	3.0098635e-38
14	0x8152f124	-3.8743918e-38
15	0x017c7cad	4.637454e-38
16	0x81bfdffb	-7.0483715e-38
17	0x8186ed4c	-4.956433e-38
18	0x81b53ec9	-6.657899e-38
19	0x81601882	-4.1159886e-38
20	0x005a2a5e	8.280393e-39
21	0x014dd073	3.7802108e-38
22	0x819b8b76	-5.7138124e-38
23	0x01a60acc	6.099426e-38
24	0x00be9552	1.750231e-38
25	0x80480ca8	-6.616696e-39
26	0x002a3ade	3.878208e-39
27	0x81a6e4ad	-6.1306903e-38
28	0x01163b86	2.7593355e-38
29	0x0123b31a	3.006687e-38
30	0x80ff43c8	-2.3442367e-38
31	0x01256fcf	3.0385932e-38
32	0x015b6626	4.0297235e-38
33	0x0199be1d	5.6476123e-38
34	0x8149399c	-3.6959202e-38
35	0x814923c1	-3.6943522e-38
36	0x01034d2e	2.4116274e-38
37	0x809d1a20	-1.4427545e-38
38	0x0033caa6	4.756307e-39
39	0x01599703	3.996495e-38
40	0x015483b1	3.9032734e-38
41	0x8026f650	-3.578109e-39
42	0x019ca804	5.754644e-38
43	0x01196337	2.8172845e-38
44	0x80bdbc33	-1.7424422e-38
45	0x811c8bd4	-2.8752997e-38
46	0x005d1190	8.547001e-39
47	0x01065f20	2.4680162e-38
48	0x0031047c	4.501548e-39
49	0x814955e9	-3.6979507e-38
50	0x016f78a0	4.398391e-38
51	0x81233ed0	-2.9983438e-38
52	0x801273d4	-1.69459e-39
53	0x0166a35e	4.2361538e-38
54	0x8041697e	-6.007151e-39
55	0x80c81802	-1.8375712e-38
56	0x81092398	-2.5188463e-38
57	0x818bfc3e	-5.1422486e-38
58	0x81af1ca2	-6.4325933e-38
59	0x006b2ae3	9.841783e-39
60	0x016250ba	4.1567563e-38
61	0x814829e2	-3.6764248e-38
62	0x81757c30	-4.5088493e-38
63	0x8029cf4f	-3.839624e-39
64	0x81a3db5f	-6.0191526e-38
65	0x8193116a	-5.402426e-38
66	0x81005f58	-2.3578293e-38
67	0x012c50f8	3.1649503e-38
68	0x80b928ec	-1.7004247e-38
69	0x000f968a	1.431536e-39
70	0x0162ef6a	4.1681415e-38
71	0x018e9d9e	5.238873e-38
72	0x00a69930	1.5299646e-38
73	0x011ee45a	2.918385e-38
74	0x00eda714	2.1824949e-38
75	0x0157eef6	3.966071e-38
76	0x810416df	-2.426098e-38
77	0x013f4878	3.5133153e-38
78	0x8147ca23	-3.6695553e-38
79	0x0156d840	3.9460744e-38
80	0x811dca1f	-2.898136e-38
81	0x80ea810a	-2.1535797e-38
82	0x80eccaff	-2.1745998e-38
83	0x81bf81dd	-7.0348664e-38
84	0x81a5d11f	-6.09115e-38
85	0x81a6d8a9	-6.128966e-38
86	0x810a4790	-2.539794e-38
87	0x00e9af9c	2.1460667e-38
88	0x01a22f04	5.9576866e-38
89	0x8123328f	-2.9974646e-38
90	0x00110ab7	1.565047e-39
91	0x01228dda	2.9856474e-38
92	0x811ba38a	-2.8586337e-38
93	0x8194f783	-5.4721776e-38
94	0x01a32cc2	5.994097e-38
95	0x813daa2b	-3.4835907e-38
96	0x80b43ea8	-1.6552866e-38
97	0x01993f0a	5.629378e-38
98	0x81491054	-3.6929584e-38
99	0x01918da9	5.346786e-38
100	0x818d0490	-5.1801767e-38
101	0x80939030	-1.3551543e-38
102	0x80a5d294	-1.5228398e-38
103	0x81a4ee2f	-6.058586e-38
104	0x8107dc52	-2.4953656e-38
105	0x80df37b4	-2.0499298e-38
106	0x81548d5a	-3.9039665e-38
107	0x804eed64	-7.248328e-39
108	0x810ce7ac	-2.5880155e-38
109	0x801277b8	-1.695986e-39
110	0x01283ae2	3.0898973e-38
111	0x00a7b8e0	1.5402849e-38
112	0x016bbf68	4.330001e-38
113	0x80b16f15	-1.6294732e-38
114	0x00c51890	1.8100404e-38
115	0x0169c071	4.293341e-38
116	0x016c3a4c	4.338818e-38
117	0x003e4aa4	5.720577e-39
118	0x0171e2d1	4.4427442e-38
119	0x81aa2a74	-6.2509055e-38
120	0x01891b28	5.036482e-38
121	0x00792c88	1.112807e-38
122	0x81219476	-2.9677545e-38
123	0x0061c6cc	8.979358e-39
124	0x81067380	-2.469478e-38
125	0x0102b878	2.400958e-38
126	0x00c7acdc	1.8337274e-38
127	0x0199d162	5.6503773e-38
128	0x0186e9c1	4.9559246e-38
129	0x819425fd	-5.4421124e-38
130	0x004643e3	6.452838e-39
131	0x0006a784	6.11106e-40
132	0x81827524	-4.7922547e-38
133	0x813e52fa	-3.495702e-38
134	0x01229156	2.9858974e-38
135	0x8176bf93	-4.5320512e-38
136	0x01503998	3.8244888e-38
137	0x00550b78	7.810131e-39
138	0x01133144	2.7034982e-38
139	0x01307d36	3.241593e-38
140	0x0191dbc2	5.3579925e-38
141	0x81be5b78	-6.992623e-38
142	0x80ca8322	-1.8597812e-38
143	0x014427be	3.6028028e-38
144	0x80fcc1d8	-2.3212083e-38
145	0x818a90c8	-5.0900945e-38
146	0x01a38f5e	6.0082465e-38
147	0x819593dc	-5.4946124e-38
148	0x0005db12	5.37765e-40
149	0x005c7aee	8.492965e-39
150	0x81679b9d	-4.2539646e-38
151	0x811cc6b8	-2.8795249e-38
152	0x00239d10	3.270586e-39
153	0x016c9910	4.345617e-38
154	0x80f61551	-2.2599179e-38
155	0x0165d47e	4.2213113e-38
156	0x01706d98	4.4159668e-38
157	0x0108b6ce	2.511041e-38
158	0x81429980	-3.5742303e-38
159	0x8171342e	-4.4302146e-38
160	0x001efe98	2.846396e-39
161	0x00b73768	1.6825772e-38
162	0x008daa80	1.3009969e-38
163	0x81ac5488	-6.330412e-38
164	0x81947dee	-5.4547314e-38
165	0x80b06658	-1.6199761e-38
166	0x81b6538f	-6.697614e-38
167	0x006b1efa	9.83751e-39
168	0x80bf6090	-1.757522e-38
169	0x8149c56e	-3.7059518e-38
170	0x812fccfe	-3.2289498e-38
171	0x0177ff02	4.5549694e-38
172	0x01148e36	2.7285338e-38
173	0x012a73b4	3.1307082e-38
174	0x015463be	3.9009812e-38
175	0x016b6248	4.3233197e-38
176	0x81a76a90	-6.149902e-38
177	0x009382aa	1.3546691e-38
178	0x002b8d28	3.999564e-39
179	0x81443810	-3.6039737e-38
180	0x819bd607	-5.724512e-38
181	0x01045914	2.4308481e-38
182	0x80b5c478	-1.6692705e-38
183	0x8149233a	-3.6943143e-38
184	0x8153a906	-3.8875848e-38
185	0x803b908e	-5.470151e-39
186	0x0123c3d0	3.007886e-38
187	0x0158e844	3.9839577e-38
188	0x000c6d2a	1.141187e-39
189	0x01797e53	4.582471e-38
190	0x80baf428	-1.7168989e-38
191	0x00bbca05	1.7245709e-38
192	0x017890cd	4.5654296e-38
193	0x805375b2	-7.664567e-39
194	0x81b0b669	-6.4913935e-38
195	0x00c9142d	1.8466172e-38
196	0x81a699b4	-6.119932e-38
197	0x01171344	2.7748142e-38
198	0x000fd9cc	1.455663e-39
199	0x01975af2	5.559914e-38
200	0x016598f4	4.2170396e-38
201	0x0130e354	3.2489195e-38
202	0x0081f492	1.1934514e-38
203	0x8059c5cc	-8.244315e-39
204	0x01a6c838	6.126607e-38
205	0x813ed174	-3.5047764e-38
206	0x811a8e9c	-2.838765e-38
207	0x018e729a	5.2327007e-38
208	0x80e304e0	-2.0848406e-38
209	0x80db850e	-2.0159705e-38
210	0x816622e0	-4.226935e-38
211	0x809fcf7d	-1.4676277e-38
212	0x00a72f0c	1.5353405e-38
213	0x0182fd1a	4.811764e-38
214	0x80a9d7e6	-1.5597649e-38
215	0x001a5509	2.418228e-39
216	0x810fc234	-2.6404286e-38
217	0x81b7e046	-6.75454e-38
218	0x011ffd49	2.938541e-38
219	0x014f47c0	3.8071374e-38
220	0x019433dc	5.444103e-38
221	0x818ed3a6	-5.246626e-38
222	0x002a49b0	3.883525e-39
223	0x80e4d5ac	-2.1015144e-38
224	0x014216d4	3.564855e-38
225	0x0196cd7a	5.539614e-38
226	0x01329849	3.2802696e-38
227	0x807c0172	-1.138812e-38
228	0x81abf273	-6.3163377e-38
229	0x01a7c615	6.1630345e-38
230	0x0191b95b	5.353056e-38
231	0x8136bdea	-3.3564377e-38
232	0x004a8714	6.844284e-39
233	0x8111ba14	-2.6765798e-38
234	0x017136a9	4.4303926e-38
235	0x013dba7e	3.484762e-38
236	0x0181552d	4.750934e-38
237	0x009b6bd4	1.4273183e-38
238	0x017f055e	4.6839954e-38
239	0x80ebf180	-2.1667975e-38
240	0x018ebe73	5.2435843e-38
241	0x8109ca2a	-2.5307972e-38
242	0x015a7e50	4.01309e-38
243	0x80b3d9f4	-1.651674e-38
244	0x01bf51e2	7.0279815e-38
245	0x0100e2a4	2.3672494e-38
246	0x018a0271	5.0696697e-38
247	0x018029f8	4.7079996e-38
248	0x8011ef7e	-1.647117e-39
249	0x0083c84d	1.2102304e-38
250	0x009bdffa	1.431485e-38
251	0x018c3e78	5.1517516e-38
252	0x8193c7ef	-5.428616e-38
253	0x819422ec	-5.4416724e-38
254	0x81505908	-3.8267443e-38
255	0x81059f58	-2.4542566e-38

lstm.weight_hh_l1 f4 [200, 50]
0	0x015ba1f2	4.0340137e-38
1	0x00692328	9.655339e-39
2	0x81935695	-5.412351e-38
3	0x80da1d78	-2.003071e-38
4	0x801bdaa8	-2.557997e-39
5	0x00b0452c	1.6187862e-38
6	0x0154ed2e	3.9108418e-38
7	0x8124c066	-3.0260082e-38
8	0x817579b0	-4.50867e-38
9	0x80251180	-3.404191e-39
10	0x003581f4	4.9139e-39
11	0x0027e614	3.664121e-39
12	0x001f6061	2.881475e-39
13	0x017a63c3	4.5989324e-38
14	0x81b3ca4b	-6.604449e-38
15	0x81b97680	-6.8128306e-38
16	0x01a7ab02	6.1591496e-38
17	0x810882d8	-2.507313e-38
18	0x018e46c6	5.2264117e-38
19	0x006c69d0	9.956192e-39
20	0x8072f304	-1.0556424e-38
21	0x819627ab	-5.515822e-38
22	0x810d8698	-2.5994176e-38
23	0x80fc9558	-2.319612e-38
24	0x011e887e	2.9117945e-38
25	0x003938e2	5.255029e-39
26	0x8196685d	-5.525105e-38
27	0x005fb234	8.7883e-39
28	0x0166e83a	4.2410943e-38
29	0x81abc4a5	-6.309765e-38
30	0x8036ee00	-5.044495e-39
31	0x0044117e	6.251089e-39
32	0x819b15d8	-5.696935e-38
33	0x8109187c	-2.5180493e-38
34	0x819de60a	-5.800278e-38
35	0x0175e363	4.5162535e-38
36	0x8195eb10	-5.5071254e-38
37	0x004c9daa	7.036057e-39
38	0x00a844f6	1.5453102e-38
39	0x0121f299	2.9745085e-38
40	0x819ca742	-5.754535e-38
41	0x81573fc9	-3.9535027e-38
42	0x013fdcbc	3.523953e-38
43	0x00289741	3.72768e-39
44	0x01939206	5.4208805e-38
45	0x81585cb6	-3.973945e-38
46	0x81298714	-3.1137312e-38
47	0x001c4d5c	2.599145e-39
48	0x8110a607	-2.6567742e-38
49	0x819902e4	-5.620747e-38
50	0x011b608a	2.8538267e-38
51	0x01836b95	4.827617e-38
52	0x803ff19c	-5.87231e-39
53	0x0079bcbf	1.1179804e-38
54	0x815a32da	-4.007676e-38
55	0x014adbdd	3.7259285e-38
56	0x001a9011	2.439404e-39
57	0x819d564d	-5.7796527e-38
58	0x8014d6fb	-1.91383e-39
59	0x001ef416	2.842626e-39
60	0x01a56bd8	6.0766176e-38
61	0x804beb82	-6.972146e-39
62	0x01b9a084	6.8188596e-38
63	0x80764c08	-1.0863863e-38
64	0x809a0304	-1.4143748e-38
65	0x012bf56c	3.158382e-38
66	0x8121d8a8	-2.9726473e-38
67	0x0113587e	2.7063126e-38
68	0x019d6ac0	5.782587e-38
69	0x00b86bac	1.6936357e-38
70	0x01a912a2	6.210753e-38
71	0x81a4f3c7	-6.059389e-38
72	0x014b8f8a	3.7388196e-38
73	0x01179660	2.784221e-38
74	0x8019f5e3	-2.384095e-39
75	0x0137f8f8	3.3790418e-38
76	0x018b9342	5.127184e-38
77	0x001d2173	2.675229e-39
78	0x01918bf8	5.3465433e-38
79	0x8170c260	-4.4220495e-38
80	0x019327f2	5.405659e-38
81	0x819b37f5	-5.70183e-38
82	0x812093de	-2.9493448e-38
83	0x816cf272	-4.35203e-38
84	0x818d3d02	-5.188276e-38
85	0x01651e56	4.2082422e-38
86	0x805ff00a	-8.810482e-39
87	0x00d31d82	1.9387875e-38
88	0x819fa0a2	-5.863787e-38
89	0x00fd66e8	2.3271296e-38
90	0x01375e78	3.367957e-38
91	0x808dbec1	-1.3017235e-38
92	0x819bfe1a	-5.7302625e-38
93	0x811f8ca0	-2.930458e-38
94	0x806a5f5d	-9.768772e-39
95	0x80e0ab85	-2.0632681e-38
96	0x013bd8c4	3.4501997e-38
97	0x8123547a	-2.999898e-38
98	0x805ce959	-8.532575e-39
99	0x00ace8fa	1.5879282e-38
100	0x01765bf9	4.524905e-38
101	0x81760da1	-4.5192842e-38
102	0x81bc464e	-6.9161175e-38
103	0x81082462	-2.5005358e-38
104	0x817dcb04	-4.6614418e-38
105	0x813cc3b8	-3.4670568e-38
106	0x0190f5d3	5.3249986e-38
107	0x017d8db0	4.6570417e-38
108	0x01aab246	6.270395e-38
109	0x809a0c1f	-1.4147015e-38
110	0x01705614	4.4142796e-38
111	0x81a676f8	-6.114948e-38
112	0x009a77a4	1.4185585e-38
113	0x8150ea98	-3.837188e-38
114	0x813bc4e8	-3.448775e-38
115	0x8169d576	-4.2948492e-38
116	0x0188a622	5.01969e-38
117	0x80c40a77	-1.8003511e-38
118	0x01b5250a	6.654205e-38
119	0x812a3ca1	-3.1267568e-38
120	0x8194583e	-5.4493235e-38
121	0x011cd72a	2.8807047e-38
122	0x01031fe4	2.408378e-38
123	0x00661188	9.37351e-39
124	0x80b4142c	-1.6537626e-38
125	0x010307d6	2.4066522e-38
126	0x81708fce	-4.4184213e-38
127	0x819546c3	-5.4835494e-38
128	0x81b101b2	-6.5021964e-38
129	0x81a14335	-5.9238497e-38
130	0x014fe03c	3.8180776e-38
131	0x00de76bf	2.0430078e-38
132	0x011de68d	2.9001758e-38
133	0x80aa52b8	-1.5641708e-38
134	0x8180ad54	-4.726849e-38
135	0x000e4b7a	1.312773e-39
136	0x00e74035	2.1237033e-38
137	0x80625d32	-9.033311e-39
138	0x80efda25	-2.2026939e-38
139	0x01894e2a	5.043801e-38
140	0x818bccf2	-5.135462e-38
141	0x013978db	3.4065843e-38
142	0x8023a600	-3.273792e-39
143	0x80bc7578	-1.7307213e-38
144	0x80a06774	-1.4730791e-38
145	0x819954cc	-5.6325e-38
146	0x809eea64	-1.4594092e-38
147	0x810f49ea	-2.6317983e-38
148	0x005d0224	8.541469e-39
149	0x812b9037	-3.151121e-38
150	0x80c432de	-1.8018005e-38
151	0x01133568	2.7037953e-38
152	0x81b094dc	-6.486579e-38
153	0x815cf064	-4.058009e-38
154	0x009b409a	1.4257677e-38
155	0x818dbe6b	-5.2068456e-38
156	0x001d68b0	2.700784e-39
157	0x019492e9	5.457742e-38
158	0x019bdc7c	5.7254387e-38
159	0x8105e32c	-2.459123e-38
160	0x001235de	1.672363e-39
161	0x015a06d4	4.0045175e-38
162	0x01181ead	2.794e-38
163	0x80e7c258	-2.1283717e-38
164	0x8100ae2c	-2.363485e-38
165	0x819305fa	-5.400785e-38
166	0x013b7dc4	3.4436708e-38
167	0x01a4666a	6.039104e-38
168	0x00625789	9.03128e-39
169	0x005b5396	8.387015e-39
170	0x80f2af27	-2.2287023e-38
171	0x011e7624	2.9104779e-38
172	0x804ce7ec	-7.062696e-39
173	0x8195b205	-5.49894e-38
174	0x8149f146	-3.7090975e-38
175	0x8171eca5	-4.4434493e-38
176	0x005f1172	8.73063e-39
177	0x015dc93c	4.0735668e-38
178	0x000d8b34	1.243798e-39
179	0x01688dcd	4.2713407e-38
180	0x813bd162	-3.44967e-38
181	0x819e656c	-5.8185567e-38
182	0x80171e08	-2.12299e-39
183	0x8188d22c	-5.026009e-38
184	0x812ce67c	-3.1756775e-38
185	0x01434a36	3.5869087e-38
186	0x0182b479	4.8013424e-38
187	0x8136d9b6	-3.358432e-38
188	0x81303420	-3.2363493e-38
189	0x81a598ce	-6.083069e-38
190	0x01620377	4.151213e-38
191	0x80ea96e4	-2.1543635e-38
192	0x003bc300	5.488247e-39
193	0x00279154	3.633718e-39
194	0x001ebe73	2.823385e-39
195	0x001a9033	2.439452e-39
196	0x00384b50	5.169805e-39
197	0x002fd2c0	4.391871e-39
198	0x014dc241	3.7791924e-38
199	0x012b93d6	3.1513807e-38
200	0x00bcaf95	1.732806e-38
201	0x0141a172	3.5564333e-38
202	0x0112d2a6	2.6967098e-38
203	0x00b502b6	1.6623197e-38
204	0x0123f89e	3.0116746e-38
205	0x8194aa81	-5.4611275e-38
206	0x018b33d4	5.1134906e-38
207	0x01013c96	2.3737026e-38
208	0x0139124f	3.399227e-38
209	0x0106bffd	2.4749658e-38
210	0x81327d48	-3.2783322e-38
211	0x00d448e3	1.9495272e-38
212	0x019b07ac	5.6949016e-38
213	0x0065df14	9.35541e-39
214	0x012971e2	3.1122105e-38
215	0x8196cbb7	-5.5393614e-38
216	0x81813b20	-4.7471956e-38
217	0x81041ed4	-2.426669e-38
218	0x8063cae4	-9.164498e-39
219	0x01531c66	3.8774954e-38
220	0x80b9115b	-1.6995793e-38
221	0x803a6220	-5.36166e-39
222	0x012425ba	3.014911e-38
223	0x00d3ab0b	1.9438648e-38
224	0x81780ab6	-4.555809e-38
225	0x8164455c	-4.192675e-38
226	0x00ca1a16	1.8560128e-38
227	0x00eb06c8	2.1583774e-38
228	0x008d75d4	1.2991074e-38
229	0x818e5fcf	-5.230004e-38
230	0x81a2856b	-5.9700847e-38
231	0x812f3a00	-3.2184037e-38
232	0x01262bdd	3.0520855e-38
233	0x81705b23	-4.4146426e-38
234	0x80a50028	-1.5152913e-38
235	0x00d27a5c	1.9329348e-38
236	0x818487bc	-4.868391e-38
237	0x813230c8	-3.2728435e-38
238	0x817edec0	-4.6812247e-38
239	0x0027a0c8	3.639262e-39
240	0x8063cc8e	-9.165095e-39
241	0x8048faa9	-6.702076e-39
242	0x008c3b44	1.287823e-38
243	0x8191c938	-5.355332e-38
244	0x8152880e	-3.8668523e-38
245	0x81a3dda1	-6.0194765e-38
246	0x815f954f	-4.1065755e-38
247	0x8028f564	-3.76145e-39
248	0x016c2374	4.337179e-38
249	0x01335aea	3.2942335e-38
250	0x8150c91d	-3.8347858e-38
251	0x013075d4	3.2410632e-38
252	0x01073f1a	2.4840857e-38
253	0x80754248	-1.076853e-38
254	0x019e08d8	5.8052724e-38
255	0x809124d3	-1.3329357e-38

lstm.bias_ih_l1 f4 [200]
0	0x81a35832	-6.00033e-38
1	0x80c72ca9	-1.8291285e-38
2	0x8189cdb2	-5.062101e-38
3	0x01035fa0	2.4129508e-38
4	0x01630721	4.169843e-38
5	0x01aa4d70	6.2559255e-38
6	0x80b5c6f2	-1.6693593e-38
7	0x00e133fc	2.0681635e-38
8	0x01a66a8f	6.1131674e-38
9	0x81519a1e	-3.849781e-38
10	0x8172f896	-4.4626732e-38
11	0x818dfef3	-5.2161054e-38
12	0x8192085e	-5.3643936e-38
13	0x00bb4cbe	1.7200768e-38
14	0x8199631a	-5.634553e-38
15	0x00092024	8.3805e-40
16	0x01997319	5.636848e-38
17	0x00f37418	2.2357672e-38
18	0x80494e9a	-6.732188e-39
19	0x00685e6c	9.584764e-39
20	0x00a3bf34	1.5037777e-38
21	0x815f6963	-4.1034243e-38
22	0x819a0871	-5.658278e-38
23	0x8172c797	-4.459158e-38
24	0x01aa36a2	6.252653e-38
25	0x803d966a	-5.655924e-39
26	0x812efbe4	-3.2139475e-38
27	0x003a4a00	5.353005e-39
28	0x01915f3c	5.340124e-38
29	0x8167ec56	-4.2597562e-38
30	0x016f3b2a	4.3939815e-38
31	0x0108e800	2.5145707e-38
32	0x80472f44	-6.537276e-39
33	0x81a7b5f8	-6.1607224e-38
34	0x01a8bd43	6.198503e-38
35	0x80142ccb	-1.852779e-39
36	0x01a18455	5.9331947e-38
37	0x00b00a7c	1.6166808e-38
38	0x8159ec92	-4.0026336e-38
39	0x808efa6c	-1.3130475e-38
40	0x8070f9e0	-1.0375214e-38
41	0x01a8aa67	6.195797e-38
42	0x01b7f586	6.757589e-38
43	0x81851e8e	-4.890033e-38
44	0x811eea6e	-2.9188212e-38
45	0x80b1b6e1	-1.6320487e-38
46	0x819706e8	-5.547855e-38
47	0x807f24d8	-1.1676325e-38
48	0x8187d904	-4.990257e-38
49	0x01499a1c	3.7028438e-38
50	0x819def13	-5.8015746e-38
51	0x80d35fce	-1.9411658e-38
52	0x8183d360	-4.842511e-38
53	0x01965a78	5.5231114e-38
54	0x819990c8	-5.6411075e-38
55	0x80da4588	-2.0045081e-38
56	0x813b31e6	-3.4382276e-38
57	0x81aa3173	-6.2519094e-38
58	0x815b3afe	-4.0266272e-38
59	0x809586fe	-1.3731915e-38
60	0x0174c4f2	4.4957023e-38
61	0x01050918	2.4434766e-38
62	0x818e2dde	-5.222838e-38
63	0x01b8b5d3	6.785183e-38
64	0x00f1ae38	2.2194852e-38
65	0x00dc3fa8	2.0226645e-38
66	0x0187f7dd	4.9946834e-38
67	0x80db29f8	-2.0127029e-38
68	0x811fbc22	-2.9338666e-38
69	0x01a24df7	5.9621276e-38
70	0x803cce3e	-5.584116e-39
71	0x81a15288	-5.9260486e-38
72	0x8130f694	-3.2503006e-38
73	0x81ab2fa3	-6.2883835e-38
74	0x01815cbe	4.7520195e-38
75	0x01abc908	6.3103945e-38
76	0x813f0e6a	-3.50915e-38
77	0x817c3731	-4.6324688e-38
78	0x81830c7b	-4.813971e-38
79	0x806d04aa	-1.0011742e-38
80	0x0151efc7	3.855927e-38
81	0x81bfa1e9	-7.039465e-38
82	0x8137d798	-3.3766473e-38
83	0x018582be	4.904409e-38
84	0x00e6a491	2.11812e-38
85	0x001dda9a	2.741649e-39
86	0x019159a5	5.339322e-38
87	0x01a4567e	6.0368196e-38
88	0x00dded50	2.0380776e-38
89	0x81b05550	-6.4774607e-38
90	0x814a5928	-3.7165507e-38
91	0x800165b8	-1.28325e-40
92	0x80cacd6b	-1.862446e-38
93	0x8182709f	-4.791606e-38
94	0x818e5d5a	-5.2296515e-38
95	0x8114afe9	-2.7309516e-38
96	0x81099c32	-2.527499e-38
97	0x805043e8	-7.3712e-39
98	0x01534388	3.880303e-38
99	0x01ad7c6a	6.372869e-38
100	0x8065ce30	-9.349351e-39
101	0x810e8fc4	-2.6184428e-38
102	0x812fb527	-3.2272394e-38
103	0x81807559	-4.718816e-38
104	0x0177db9a	4.5524291e-38
105	0x81bcd544	-6.9366314e-38
106	0x81581216	-3.968591e-38
107	0x81adecf7	-6.389019e-38
108	0x8003cf24	-3.49815e-40
109	0x807ec27e	-1.1641043e-38
110	0x8151bb32	-3.8521543e-38
111	0x01698a9a	4.2894783e-38
112	0x019cd55f	5.761152e-38
113	0x0048869f	6.660449e-39
114	0x813824ee	-3.3821958e-38
115	0x011173a6	2.6715268e-38
116	0x013658bc	3.3491784e-38
117	0x015bdd9c	4.0382944e-38
118	0x01125da8	2.688316e-38
119	0x01128bf5	2.691638e-38
120	0x018b7aa8	5.123654e-38
121	0x019803e0	5.584154e-38
122	0x0149b3e5	3.7046937e-38
123	0x00570b00	7.993634e-39
124	0x8181b6fe	-4.7649697e-38
125	0x00d4c06d	1.9538155e-38
126	0x816fcce2	-4.4044363e-38
127	0x8037ee4e	-5.13644e-39
128	0x814dedaa	-3.782307e-38
129	0x010cb8f0	2.5846625e-38
130	0x00a8c50e	1.5499053e-38
131	0x00bc98b1	1.7319849e-38
132	0x801720c0	-2.123965e-39
133	0x0112c8cc	2.696003e-38
134	0x815de4da	-4.0755482e-38
135	0x0170ccf8	4.4228096e-38
136	0x007d9090	1.1531296e-38
137	0x01793dd3	4.5778434e-38
138	0x0031d5dc	4.576658e-39
139	0x81273d6d	-3.0717127e-38
140	0x01602561	4.116912e-38
141	0x811528aa	-2.7396153e-38
142	0x011f69a5	2.9279484e-38
143	0x8150c136	-3.8342188e-38
144	0x808f8361	-1.3179606e-38
145	0x817cb086	-4.641174e-38
146	0x006a00ee	9.734896e-39
147	0x005f0798	8.727096e-39
148	0x00ebdeb6	2.1661235e-38
149	0x8198832c	-5.6024204e-38
150	0x81a62fe1	-6.104747e-38
151	0x815fbfaa	-4.1096144e-38
152	0x80bd59b1	-1.7389084e-38
153	0x0106e1d9	2.477395e-38
154	0x8083c8ee	-1.210253e-38
155	0x00a4f0d6	1.5147417e-38
156	0x01807b49	4.719668e-38
157	0x01875398	4.971112e-38
158	0x000963da	8.6234e-40
159	0x8197ea04	-5.5804436e-38
160	0x01447ef0	3.6090588e-38
161	0x00c4833f	1.804684e-38
162	0x01585149	3.9731254e-38
163	0x007667e6	1.087386e-38
164	0x81ace656	-6.351334e-38
165	0x812fd204	-3.2293102e-38
166	0x800e816d	-1.332126e-39
167	0x812905a1	-3.1044436e-38
168	0x01615727	4.1388502e-38
169	0x0009222d	8.3878e-40
170	0x001836b0	2.22367e-39
171	0x8180726a	-4.718395e-38
172	0x0191dbdc	5.358007e-38
173	0x8033de83	-4.763432e-39
174	0x81528b50	-3.867086e-38
175	0x01683e04	4.2656164e-38
176	0x005ebc11	8.700002e-39
177	0x805156a7	-7.46976e-39
178	0x01a71bc6	6.1385964e-38
179	0x01316912	3.258515e-38
180	0x00e90ae0	2.1401572e-38
181	0x017d7966	4.655586e-38
182	0x8162912e	-4.1613806e-38
183	0x011cc184	2.8791515e-38
184	0x019fd47e	5.8712287e-38
185	0x01b3988e	6.597312e-38
186	0x0084b7d6	1.2188233e-38
187	0x009f1a7a	1.4611342e-38
188	0x80b0dd8e	-1.6242526e-38
189	0x01bfc2fb	7.04421e-38
190	0x01839887	4.8340666e-38
191	0x01670e18	4.243811e-38
192	0x00437db3	6.19807e-39
193	0x012ce355	3.1754513e-38
194	0x8062b117	-9.063406e-39
195	0x819a9b91	-5.679389e-38
196	0x81a80ede	-6.1734787e-38
197	0x80ebeef8	-2.1667067e-38
198	0x8187c3a9	-4.9871926e-38
199	0x0177e0fa	4.5528148e-38
