environments/obstacle_estimator/fc_nn/relative/big/model.pth (torch, 745275 bytes, 8 tensors)

fc1.weight f4 [300, 9]
-0.014083735 -0.0715522 0.096887246 0.0008173436 -0.06329889 -0.13646978 0.011164006 -0.004054307
0.11695654 0.00820852 0.092433184 0.00705588 0.07623765 0.025442602 -0.009158503 -0.015507183
0.013386738 -0.02213399 -0.13343082 0.035166614 -0.277485 0.045385316 0.01986294 -0.022504322
-0.051923826 0.007134748 0.026868865 0.025600262 -0.064429656 0.01629783 0.07927735 -0.015586695
-0.13375635 0.048637606 -0.010614051 0.42661822 0.023315594 -0.016939202 0.06464226 -0.014555586
-0.0046449383 -0.23521714 0.0013340109 0.031509127 -0.17679738 -0.025712663 -0.011876366 -0.012417637
-0.012425398 0.017781444 0.01564936 0.029040314 0.0025593152 -0.0012607091 0.0045184786 -0.065220095
-0.011833161 -0.053114973 -0.006945057 0.0042193765 0.042476058 0.057105727 0.025186962 -0.005676031
-0.013968511 -0.010248638 0.00043301322 0.008857827 0.0006226045 0.008986876 0.002748121 -0.0055000987
-0.0012339413 -0.007977321 0.0027091205 0.001065191 -0.011245708 0.010144141 -0.028152851 0.011521774
0.0073783235 -0.013823626 0.00023006304 -0.003196596 -0.012565958 -0.0046822396 -0.0026668834 0.010639558
0.0013274698 -0.009105323 -0.00062503066 -0.00027824187 0.0005751988 -0.00015051423 -0.0007808829 0.0005355639
0.0016390127 -0.0002861146 -0.00025056052 0.07073999 -0.08649953 -0.07781739 -0.041404944 0.02280496
-0.021050354 0.01719893 0.027603429 0.04345572 0.0014801124 -0.03968406 0.02272017 -0.0267213
-0.016167177 -0.044848528 0.039442223 -0.06201417 -0.16860516 0.0315346 0.08936666 0.050925393
0.10850934 -0.010587131 0.06353025 0.061832193 0.15027864 -0.01701587 0.02776206 0.039129674
0.0032492334 0.0057150116 -0.00039910348 -0.01970643 0.020584485 -0.007946785 -0.0707762 -0.020716902
0.043745518 -0.06980993 0.036518387 -0.013375079 0.01486398 0.007829914 0.06786651 -0.04634453
-0.00077838736 -0.0028889272 0.0018871014 0.00035465744 -0.0025728378 -0.0049532237 0.0076630795 -0.002420485
-0.005069164 -0.015031923 -0.03866141 0.021864723 -0.029001027 -0.011079712 -0.023638153 -0.0021854371
-0.0035568539 0.017624194 0.08626253 0.05043972 0.29855597 -0.026570106 0.054413117 -0.040470287
-0.038681753 0.004016732 -0.023445595 -0.0045058127 -0.00674904 -0.0032574346 -0.006627572 -0.017183702
-0.005373791 -0.009616279 -0.0051277187 -0.0078488095 -0.016157454 -0.04404016 0.0119724795 0.00749981
0.021264158 0.007289386 0.020536298 -0.03679635 0.009077488 -0.004068335 0.0046486603 -0.0037805922
0.0019326281 0.0010723668 0.00021761502 0.0036760136 -0.0010705352 -0.0033571925 0.021948949 0.053998098
0.0641298 -0.01582367 -0.047478568 0.122941084 -0.21146823 0.019461514 0.12667184 0.00050020416
-0.0059529566 0.009065403 -0.0037413945 0.029612415 -0.0124788005 -0.007958819 -0.012198562 -0.036507543
3.928821e-05 -0.00015757862 -8.810372e-05 -3.4841098e-05 0.0001116911 -0.00047911718 0.00017138878 0.0007799822
-0.000114463706 0.053622164 -0.01462247 0.0058468315 -2.5827278e-05 -0.004918746 0.120183915 0.18457235
-0.023302691 0.13434245 0.06712623 -0.057842482 -0.074333124 0.07982794 0.018925814 -0.07102423
0.015639622 -0.026848065 -0.13103275 -0.040151868 -0.005818388 0.028946225 0.016749308 0.011081544
-0.0014948995 -0.006963711 -0.008800925 -0.014304625 0.014656602 -0.016141431 0.0008764545 -0.018209329
00000000: 77bf 66bc f689 92bd d26c c63d 0043 563a
00000010: d9a2 81bd bcbe 0bbe 3ce9 363c fed9 84bb
00000020: e986 ef3d 077d 063c 9c4d bd3d 0335 e73b
00000030: 7c22 9c3d 016d d03c 8c0d 16bc d711 7ebc
00000040: 0c54 5b3c 5752 b5bc 17a2 08be de0a 103d
00000050: 8412 8ebe f4e5 393d 9bb7 a23c fc5a b8bc
00000060: 14ae 54bd 9bca e93b 181c dc3c a4b7 d13c
00000070: b2f3 83bd 0783 853c 2a5c a23d 565f 7fbc
00000080: 6df7 08be 3a38 473d 8ee6 2dbc b46d da3e
00000090: 5800 bf3c 15c4 8abc 2963 843d 8d7a 6ebc
000000a0: 9134 98bb c3dc 70be fad9 ae3a b70f 013d
000000b0: 5f0a 35be 5da3 d2bc 1795 42bc 5873 4bbc
000000c0: e693 4bbc 64aa 913c 1633 803c f4e5 ed3c
000000d0: 2fba 273b 613e a5ba bf0f 943b 1d92 85bd
000000e0: e0df 41bc 168f 59bd 5c93 e3bb b242 8a3b
000000f0: 60fb 2d3d b2e7 693d e354 ce3c 00fe b9bb
00000100: 2edc 64bc e7e9 27bc 0d06 e339 6b20 113c
00000110: 4836 233a b13d 133c d219 343b 2c3a b4bb
00000120: 33bc a1ba 4fb3 02bc 808b 313b e19d 8b3a
00000130: eb3f 38bc 9c33 263c cfa0 e6bc d3c5 3c3c
00000140: ddc5 f13b 7d7c 62bc 143d 7139 fb7d 51bb
00000150: 73e1 4dbc 796d 99bb e1c6 2ebb 8a51 2e3c
00000160: 7ffe ad3a 7e2e 15bc 19d9 23ba fee0 91b9
00000170: f0c8 163a 5bd3 1db9 2ab4 4cba 1665 0c3a
00000180: 24d4 d63a a701 96b9 aa5d 83b9 21e0 903d
00000190: aa26 b1bd b95e 9fbd 3b98 29bd 78d1 ba3c
000001a0: cb71 acbc c5e4 8c3c 9620 e23c a0fe 313d
000001b0: 5500 c23a c18b 22bd a61f ba3c a1e6 dabc
000001c0: 0771 84bc 17b3 37bd 2b8e 213d 9202 7ebd
000001d0: d5a6 2cbe 6d2a 013d de05 b73d 2597 503d
000001e0: 253a de3d a575 2dbc 261c 823d c143 7d3d
000001f0: a5e2 193e de64 8bbc 426d e33c 7046 203d
00000200: 17f1 543b fe44 bb3b c33e d1b9 616f a1bc
00000210: cba0 a83c 3b33 02bc 1df3 90bd 7eb6 a9bc
00000220: 802e 333d 82f8 8ebd 4e94 153d 2623 5bbc
00000230: 0d88 733c 0a49 003c 99fd 8a3d c3d3 3dbd
00000240: b10c 4cba 2854 3dbb 9e58 f73a 51f1 b939
00000250: 0e9d 28bb a74e a2bb 921a fb3b 00a1 1ebb
00000260: 3b1b a6bb 7448 76bc 6d5b 1ebd a61d b33c
00000270: 9093 edbc ae87 35bc cda4 c1bc 8d39 0fbb
00000280: 1b1a 69bb 9d60 903c 69aa b03d e199 4e3d
00000290: 54dc 983e 8da9 d9bc 4ae0 5e3d 2cc4 25bd
000002a0: c270 1ebd ca9e 833b fa10 c0bc 7fa5 93bb
000002b0: 0d27 ddbb af7a 55bb 1a2c d9bb d6c4 8cbc
000002c0: a016 b0bb 998d 1dbc 6c06 a8bb 4b98 00bc
000002d0: a35c 84bc 7463 34bd 3828 443c f7c0 f53b
000002e0: 2c32 ae3c cddb ee3b bd3b a83c c5b7 16bd
000002f0: bfb9 143c ab4f 85bb ca53 983b d0c3 77bb
00000300: 3d50 fd3a a98e 8c3a 962f 6439 46e9 703b
00000310: 3351 8cba 5804 5cbb 48ce b33c 1c2d 5d3d
00000320: 7c56 833d a4a0 81bc e378 42bd 89c8 fb3d
00000330: 218b 58be c16d 9f3c 43b6 013e 2220 033a
00000340: 0511 c3bb 0e87 143c 2f32 75bb bc95 f23c
00000350: e273 4cbc b565 02bc 7adc 47bc ef88 15bd
00000360: 65c9 2438 b03b 25b9 53c4 b8b8 5822 12b8
00000370: b43b ea38 0532 fbb9 d3b6 3339 b877 4c3a
00000380: 3c0c f0b8 eaa2 5b3d 1693 6fbc c796 bf3b
00000390: a8a7 d8b7 6f2d a1bb fc22 f63d 8900 3d3e
000003a0: 49e5 bebc 1191 093e 7a79 893d 3dec 6cbd
000003b0: f73b 98bd d57c a33d 4f0a 9b3c 2775 91bd
000003c0: aa1e 803c 79f0 dbbc 732d 06be 4976 24bd
000003d0: 2da8 bebb a220 ed3c d835 893c 5d8f 353c
000003e0: 81f0 c3ba d82f e4bb c131 10bc f25d 6abc
000003f0: 3f22 703c 093b 84bc dec1 653a bb2b 95bc

fc1.bias f4 [300]
-0.099180475 -0.034215048 -0.041665684 -0.18192047 -0.052194264 -0.07541661 0.01712496 -0.05557728
-0.07543368 -0.02978075 -0.0057837004 -0.035641987 -0.06743684 -0.09271361 -0.084381625 -0.021657491
-0.029759528 -0.06458919 -0.038089566 -0.029005961 -0.06379107 -0.02479059 -0.13608427 -0.04049128
-0.0019183686 -0.21289189 -0.09134809 -0.06780711 -0.05038208 -0.09921862 -0.047243785 -0.084543526
-0.07498017 0.031283136 -0.08485918 -0.03411134 -0.041301936 -0.030595383 -0.15294279 -0.0954738
-0.043487824 -0.03575957 -0.058748502 -0.03174131 -0.0108901225 -0.09872676 -0.005211543 -0.08000892
-0.020081284 -0.07782746 -0.06673844 -0.08843961 -0.20388077 -0.17945834 -0.07509265 -0.059593536
-0.05739112 -0.086099215 -0.066370554 -0.116973735 -0.03175482 -0.049981356 -0.053505976 -0.05765043
-0.040569827 -0.035821386 -0.08003019 -0.17727102 -0.03969739 -0.09907699 -0.049115613 -0.01301601
-0.07514009 -0.092813075 -0.004683208 -0.028152615 -0.041171256 -0.023358006 -0.06953429 -0.024331277
-0.066102915 -0.09492082 -0.050852146 -0.033718113 -0.011882388 -0.055820737 -0.053020768 -0.048512835
-0.068953335 -0.027042946 -0.17576025 -0.05420748 -0.115684174 -0.018473353 -0.06926655 -0.17975052
-0.03494905 -0.03399057 -0.053596273 -0.08638957 -0.060790118 -0.05069399 -0.00019389903 -0.07966844
-0.101032965 -0.08664042 -0.062200766 -0.080133416 -0.06356991 -0.062950864 0.007845491 -0.026891218
-0.029488806 -0.16859604 -0.058646485 -0.017847104 -0.0042564017 -0.07084293 -0.05692934 -0.06321608
-0.06116702 -0.0702584 -0.07090823 -0.019812964 -0.18421203 -0.022981308 -0.17390528 -0.069391586
-0.060166832 -0.045040004 -0.05722721 -0.04591475 -0.16426526 -0.026272431 -0.07219338 -0.10503386
-0.05549454 -0.0365947 -0.04622066 -0.109432295 -0.1497145 -0.0390626 -0.009056044 -0.03799281
-0.048533127 -0.022806615 -0.012780356 -0.07315116 -0.1212299 -0.015284156 -0.07367411 -0.061567612
-0.0703223 -0.06791506 0.018929407 -0.15186143 -0.025042864 -0.07328942 -0.011523823 -0.14655301
-0.035970703 -0.17608838 -0.040663034 -0.079410024 -0.053002477 -0.06320832 -0.040157437 -0.08393985
-0.05717265 -0.19761106 -0.05755699 -0.03160273 -0.04652173 -0.0809111 0.016446311 0.009797383
-0.15634692 -0.058114182 -0.08589397 -0.06795291 -0.14176585 -0.03244873 -0.02775556 -0.07270371
-0.06219578 -0.10524008 -0.017288439 -0.014523438 -0.05325523 -0.08670463 -0.042103913 -0.027126411
-0.1277105 -0.046519395 -0.05980234 -0.17066747 -0.06788797 -0.054114778 -0.045645952 -0.056918863
-0.30034578 -0.08650713 -0.06960332 -0.017894989 -0.02331831 -0.0078085675 -0.009594294 -0.066329114
-0.034294657 -0.043037433 -0.04929428 -0.06503111 -0.1987241 -0.032983012 -0.010374684 -0.1093473
-0.025363255 -0.055495188 -0.00039719447 -0.015702015 0.03686678 -0.091301195 -0.08997788 -0.03359284
-0.013094444 -0.074452326 -0.042165432 -0.102223225 -0.05645022 -0.100720994 -0.04336108 -0.03964915
-0.20178953 -0.072445445 -0.07822785 -0.08566628 -0.056332007 -0.05025318 -0.027505048 -0.06726225
-0.08077671 -0.05828542 -0.122879334 -0.0032758934 -0.02184234 -0.039361004 -0.022105586 -0.1522905
-0.043496184 -0.04057843 -0.009913941 -0.05888936 -0.07656776 -0.032567214 -0.08113804 -0.034286696
00000000: 221f cbbd 1425 0cbd a3a9 2abd 5c49 3abe
00000010: a7c9 55bd 0674 9abd a549 8c3c 01a5 63bd
00000020: f97c 9abd c2f6 f3bc 3285 bdbb 55fd 11bd
00000030: 531c 8abd a2e0 bdbd 46d0 acbd 0d6b b1bc
00000040: 41ca f3bc 5647 84bd ce03 1cbd e99d edbc
00000050: e4a4 82bd a315 cbbc ad59 0bbe 2fda 25bd
00000060: c571 fbba 5500 5abe b514 bbbd 74de 8abd
00000070: 715d 4ebd 2233 cbbd b382 41bd 2825 adbd
00000080: 348f 99bd bf22 003d a6ca adbd 55b8 0bbd
00000090: 382c 29bd 2ba3 fabc 099d 1cbe c587 c3bd
000000a0: 4a20 32bd a078 12bd 45a2 70bd 2d03 02bd
000000b0: 7c6c 32bc 4131 cabd 97c5 aabb b7db a3bd
000000c0: 8181 a4bc 0164 9fbd 2aae 88bd d41f b5bd
000000d0: 1fc6 50be edc3 37be 2dca 99bd 5a18 74bd
000000e0: f312 6bbd c954 b0bd 49ed 87bd ed8f efbd
000000f0: 5811 02bd 40b9 4cbd 1529 5bbd db22 6cbd
00000100: 8c2c 26bd 72b9 12bd dee6 a3bd 8986 35be
00000110: bb99 22bd e0e8 cabd 742d 49bd 1a41 55bc
00000120: 0ce3 99bd c814 bebd 9975 99bb 50a0 e6bc
00000130: 31a3 28bd 4a59 bfbc fe67 8ebd 6352 c7bc
00000140: f760 87bd d965 c2bd 574a 50bd 011c 0abd
00000150: 59ae 42bc 49a4 64bd 4e2c 59bd 65b5 46bd
00000160: 6837 8dbd 2b89 ddbc 7ffa 33be aa08 5ebd
00000170: d3eb ecbd 6e55 97bc 9fdb 8dbd 8510 38be
00000180: bc26 0fbd b239 0bbd c487 5bbd 04ed b0bd
00000190: 0fff 78bd 80a4 4fbd 6051 4bb9 3529 a3bd
000001a0: 5fea cebd 8870 b1bd 3bc6 7ebd fd1c a4bd
000001b0: f130 82bd 62ec 80bd 608a 003c f94a dcbc
000001c0: 8292 f1bc 71a4 2cbe 4c37 70bd 1734 92bc
000001d0: 4979 8bbb 1916 91bd bd2e 69bd 6f77 81bd
000001e0: 458a 7abd a3e3 8fbd 5638 91bd cc4e a2bc
000001f0: 14a2 3cbe 4c43 bcbc 3a14 32be 2d1d 8ebd
00000200: 7f71 76bd de7b 38bd 1467 6abd 1b11 3cbd
00000210: 2735 28be 4839 d7bc 1fda 93bd fe1b d7bd
00000220: 3e4e 63bd 53e4 15bd e051 3dbd 0a1e e0bd
00000230: c24e 19be 1b00 20bd cd5f 14bc 599e 1bbd
00000240: acca 46bd f0d4 babc b364 51bc 46d0 95bd
00000250: 6247 f8bd 666a 7abc 74e2 96bd 522e 7cbd
00000260: 2305 90bd 0d17 8bbd d811 9b3c 9081 1bbe
00000270: b126 cdbc c318 96bd 6bce 3cbc fe11 16be
00000280: 0456 13bd 8350 34be 488e 26bd b9a1 a2bd
00000290: 2019 59bd 5d73 81bd 207c 24bd a8e8 abbd
000002a0: de2d 6abd 8e5a 4abe e1c0 6bbd dd71 01bd
000002b0: 928d 3ebd b8b4 a5bd 6aba 863c 3485 203c
000002c0: 6819 20be 2309 6ebd 2ee9 afbd e52a 8bbd
000002d0: 112b 11be f6e8 04bd a15f e3bc afe5 94bd
000002e0: 01c1 7ebd 1c88 d7bd 7ca0 8dbc b7f3 6dbc
000002f0: 2822 5abd 3292 b1bd 2775 2cbd 3538 debc
00000300: 8bc6 02be 1f8b 3ebd 4cf3 74bd 74c3 2ebe
00000310: d908 8bbd 75a7 5dbd 40f7 3abd c123 69bd
00000320: ecc6 99be a62a b1bd 2f8c 8ebd 8398 92bc
00000330: 0a06 bfbc 03df ffbb 6331 1dbc 8fd7 87bd
00000340: 8e78 0cbd 0548 30bd cde8 49bd 082f 85bd
00000350: 557e 4bbe 3219 07bd 94fa 29bc 7af1 dfbd
00000360: 9ac6 cfbc ec4e 63bd 8a3e d0b9 83a1 80bc
00000370: 9f01 173d 1ffc babd 5346 b8bd a598 09bd
00000380: 148a 56bc 767a 98bd a9b5 2cbd 695a d1bd
00000390: 5938 67bd cf46 cebd 639b 31bd 2667 22bd
000003a0: eaa1 4ebe 475e 94bd ec35 a0bd cd71 afbd
000003b0: 64bc 66bd 47d6 4dbd 4452 e1bc cac0 89bd
000003c0: 426e a5bd b1bc 6ebd 29a8 fbbd 5fb0 56bb
000003d0: b5ee b2bc 0139 21bd c616 b5bc 0af2 1bbe
000003e0: 0e29 32bd 9135 26bd 156e 22bc f835 71bd
000003f0: 8fcf 9cbd 3365 05bd b32b a6bd 3570 0cbd

fc2.weight f4 [300, 300]
0.015062534 -0.060965315 -0.043777335 -0.010884404 0.013477773 -0.006344534 0.017895037 -0.0026993542
-0.009874868 3.4029577e-05 -0.00012660565 0.0106833875 0.00016942323 0.017653221 0.0016468111 0.01873663
2.4747667e-05 0.0069060135 0.018339269 -0.025182927 -0.007001201 0.00035072607 0.012128087 0.006957396
-2.971682e-05 0.079227164 -0.009894441 -0.01464913 -0.00016847078 0.024164481 0.02061787 0.008946853
-0.0032450554 0.010366252 -0.035846476 0.038401768 -0.0007744667 1.7376384e-05 0.028479818 0.039057918
0.0028780908 -0.023763364 -0.029984444 0.008286051 0.012483567 0.02367036 0.0012245283 -0.00932829
-0.00017583207 0.013578879 0.0036078794 0.0038644641 0.04019931 -0.004382683 0.00077735516 0.029356709
-0.005203561 -0.02481303 -0.0008368086 0.028746113 0.0020580308 -0.0061545563 0.03824597 -0.0003355191
-0.006518839 -0.0027694541 0.0017950363 0.053348046 0.008143933 -0.05311041 -0.0058531156 -0.0072983974
0.006593664 0.010496678 0.00035102907 -0.00022197729 -0.006960092 -0.0038173646 -0.00010211872 -0.026528798
-0.006540898 0.0067144986 -0.041747935 -0.023583805 -0.00035510934 -0.0065983306 0.006379505 -0.023667194
0.04550441 0.0072378335 0.05173376 -0.028673522 0.0016838117 0.0025380526 -0.014131721 0.0034207697
-0.0021495644 0.008012999 0.008786762 0.053474024 -0.0026478728 -0.014571952 0.01052082 -0.02932435
0.055187155 -0.027481401 -0.042132318 -0.0005947299 0.025045877 0.02107358 -0.011472421 -0.0002250745
-0.0006655911 0.04406732 0.014176388 -9.16882e-06 0.032554127 0.015677951 -0.0035560646 0.010324718
0.0046803225 -0.0027451415 -0.021866826 -0.006174675 -0.026579794 0.0010584315 0.03177031 0.0024591505
0.017017553 -0.00010832822 -0.007846106 0.027100092 0.007428836 -0.00021902547 -0.0043491945 -0.03447694
-0.010973037 -0.00028225005 -0.0038054883 -0.009581399 0.0077637187 0.0010193272 -2.5322047e-06 -0.02707096
0.051925402 0.014208883 -0.00048674995 -0.004629078 0.04546986 0.07826757 0.007209275 -0.009652835
0.03598587 0.041676972 0.019673046 0.07313102 -0.0006927899 -0.004610552 0.00020989474 0.010290912
0.0015352393 0.030116951 0.0016494603 -0.0026738038 -0.0039334726 -0.014349465 0.01122514 -0.005996959
0.02243867 -0.014192334 -0.01708461 0.00030857755 -0.013811345 0.00017093922 0.07921988 0.021794243
0.008097984 -0.0007617479 0.012474956 -0.027037626 0.036873642 0.0002937543 0.0012900354 0.0014292661
0.0047722473 0.0057840873 -0.00041076602 0.00014110726 -0.0052404576 -0.01441439 -0.0031369433 -0.026214138
-0.03299528 0.00026517393 0.0023641095 0.05055195 -0.016658466 0.0065966537 -0.033436287 -0.017879033
-0.002532698 0.053519238 0.027458526 4.0786355e-05 -0.088602975 -0.0006270509 -2.1852906e-05 -0.057729814
0.0003075054 -0.031654213 0.0021150531 -0.015252622 0.0012245805 0.0031034325 0.001378469 0.013140793
0.0366485 0.00085698796 0.020884044 -0.0031474023 -0.04760928 0.0059401486 0.034393903 0.0034251693
0.0009580602 -0.0064996476 0.026111508 -0.0053848056 0.0034339759 0.017932678 -0.02412946 -0.012816836
0.049613982 0.033051386 0.013678076 -0.026863532 0.00090240117 -0.029119983 0.004070905 0.012277985
-0.028215775 0.011860277 0.01573524 -3.1964937e-05 0.05916554 0.0015843166 -0.020841591 -0.0006831121
0.0064116605 -0.004548387 8.093299e-06 -0.020946726 0.004445968 -0.01710914 0.0043183523 -0.008669696
00000000: d9c8 763c c4b6 79bd dd4f 33bd 8054 32bc
00000010: e1d1 5c3c cfe5 cfbb 9d98 923c a6e7 30bb
00000020: 33ca 21bc fbba 0e38 72c1 04b9 6009 2f3c
00000030: 34a7 3139 7d9d 903c d0d9 d73a 907d 993c
00000040: 3699 cf37 d74b e23b 3c3c 963c 6d4c cebc
00000050: 556a e5bb a8e1 b739 e2b4 463c defa e33b
00000060: 6348 f9b7 da41 a23d 4b1c 22bc e802 70bc
00000070: 88a7 30b9 97f4 c53c cfe6 a83c d295 123c
00000080: ffaa 54bb 36d7 293c c1d3 12bd 2c4b 1d3d
00000090: 9505 4bba 80c3 9137 824e e93c 32fb 1f3d
000000a0: 5a9e 3c3b 63ab c2bc f0a1 f5bc 38c2 073c
000000b0: e087 4c3c 58e8 c13c 5a80 a03a afd5 18bc
000000c0: 905f 38b9 f279 5e3c 2c72 6c3b f342 7d3b
000000d0: 08a8 243d 9c9c 8fbb 6cc7 4b3a 7b7d f03c
000000e0: a282 aabb b244 cbbc 465d 5bba f87c eb3c
000000f0: 07e0 063b 29ac c9bb cea7 1c3d 9ce8 afb9
00000100: fc9b d5bb bb7f 35bb 6c47 eb3a 7b83 5a3d
00000110: 216e 053c 4d8a 59bd 7ecb bfbb 6527 efbb
00000120: aa0f d83b 42fa 2b3c 530a b839 93c2 68b9
00000130: 7c11 e4bb c02c 7abb 9228 d6b8 ec52 d9bc
00000140: 0755 d6bb 4c05 dc3b e2ff 2abd d332 c1bc
00000150: f82d bab9 cf36 d8bb 2b0b d13b b4e1 c1bc
00000160: d562 3a3d 592b ed3b c7e6 533d bce4 eabc
00000170: 58b3 dc3a 7555 263b bc88 67bc fe2e 603b
00000180: b5df 0cbb f448 033c 5af6 0f3c 9407 5b3d
00000190: ef87 2dbb 32bf 6ebc 845f 2c3c 9f39 f0bc
000001a0: ed0b 623d ad20 e1bc f092 2cbd a6e7 1bba
000001b0: 032d cd3c 80a2 ac3c d2f6 3bbc fa01 6cb9
000001c0: 107b 2eba ef7f 343d 1544 683c c8d3 19b7
000001d0: 7a57 053d 0c6f 803c dd0c 69bb 0229 293c
000001e0: 645d 993b d5e7 33bb 0f22 b3bc ee54 cabb
000001f0: debd d9bc 11bb 8a3a 9621 023d b329 213b
00000200: 6568 8b3c 452e e3b8 f48c 00bc 0301 de3c
00000210: 986d f33b 34aa 65b9 b083 8ebb b137 0dbd
00000220: 41c8 33bc f6fa 93b9 8065 79bb 4dfb 1cbc
00000230: cb66 fe3b f29a 853a f2ee 29b6 ebc3 ddbc
00000240: bbaf 543d 60cc 683c 7932 ffb9 85af 97bb
00000250: 9b3e 3a3d bf4a a03d c83b ec3b ed26 1ebc
00000260: eb65 133d 79b5 2a3d 5e29 a13c b7c5 953d
00000270: 589c 35ba 1d14 97bb 3117 5c39 379b 283c
00000280: 153a c93a d3b7 f63c b432 d83a fc3a 2fbb
00000290: 5ce4 80bb 051a 6bbc a6e9 373c 2382 c4bb
000002a0: 4dd1 b73c f786 68bc 06f5 8bbc 94c8 a139
000002b0: fb48 62bc 263e 3339 083e a23d d789 b23c
000002c0: 68ad 043c 09b0 47ba c263 4c3c 037e ddbc
000002d0: d108 173d 0903 9a39 6816 a93a 3656 bb3a
000002e0: 8360 9c3b 7188 bd3b 155c d7b9 31f6 1339
000002f0: 25b8 abbb 552a 6cbc 2d95 4dbb 08bf d6bc
00000300: 0f26 07bd 0b07 8b39 2def 1a3b 900f 4f3d
00000310: 5677 88bc be28 d83b 7df4 08bd 0d77 92bc
00000320: 9ffb 25bb fd36 5b3d b4f0 e03c 0412 2b38
00000330: 7a75 b5bd ac60 24ba c250 b7b7 1976 6cbd
00000340: ad38 a139 d9a7 01bd b49c 0a3b 22e6 79bc
00000350: 1a82 a03a f562 4b3b bfad b43a 7b4c 573c
00000360: bd1c 163d 7da7 603a 0415 ab3c a644 4ebb
00000370: f301 43bd 94a5 c23b 9fe0 0c3d ce78 603b
00000380: 5526 7b3a fffa d4bb cde7 d53c 0673 b0bb
00000390: 8e0c 613b 8de7 923c 25ab c5bc b5fd 51bc
000003a0: 0838 4b3d e460 073d 021a 603c e910 dcbc
000003b0: 1e8f 6c3a 088d eebc 3a65 853b 9a29 493c
000003c0: c524 e7bc 9b51 423c 31e7 803c 1712 06b8
000003d0: 9157 723d d8a8 cf3a fcbb aabc e112 33ba
000003e0: e818 d23b a30a 95bb 74c8 0737 7898 abbc
000003f0: 7caf 913b 7828 8cbc f780 8d3b 570b 0ebc

fc2.bias f4 [300]
-0.003945111 -0.0013447971 -0.064494684 -0.025473457 -0.000399064 -0.0016853287 -0.022598088 0.17226088
-4.1778958e-10 -1.567996e-08 -0.034058563 0.05452309 0.064034164 0.093118206 -1.4714315e-32 -2.5259309e-11
-4.1648078e-14 -0.029496511 -0.003986791 -0.010586484 -5.3905577e-08 -0.0043876567 -0.028824333 -9.454084e-20
-0.002752075 -1.08168005e-29 -2.1866002e-05 -1.3986718e-07 -0.019422937 -0.033494033 -0.02126266 -3.389504e-23
-2.2440994e-15 0.10764771 -0.03075407 -0.09723271 0.0074306615 -1.2224006e-22 -3.040987e-14 -3.841144e-12
-0.0015554221 -6.5663535e-08 -0.0011171147 -0.02457806 -0.011507269 0.12864186 -5.3074325e-07 -5.2149233e-20
0.043355323 -0.006359953 -0.012284918 -0.014175493 -2.7128408e-06 0.029675148 -2.8392105e-06 -0.0029465347
-0.08600328 -0.027467795 -2.6847025e-05 0.13871212 -0.063355215 -0.050807834 -0.06605315 -0.02969605
-3.1522137e-07 -0.0176834 -0.00012536676 -1.9148243e-07 -5.822199e-20 -0.00014256247 -0.032527722 -5.68332e-15
-0.04553227 -0.0022307178 -0.0069395024 -5.4337882e-14 -0.021861061 -8.1408837e-26 -2.270622e-09 0.14500396
0.00028382253 -0.00018077626 -0.0918081 -0.019006228 -0.00391756 -0.0058852225 -3.7589223e-16 -0.03253725
-1.2702936e-10 -0.01932799 -0.013807892 -0.01568048 -0.0501729 -0.017378783 -0.0015039642 -0.0007581474
-3.781614e-11 -0.010567464 -0.018247679 -0.03189266 -0.031757034 -1.2723335e-10 -1.911225e-07 -0.0013549923
-2.5058982e-18 -5.865637e-21 -0.008749636 -1.9164139e-07 -0.059058413 -0.0042354404 -0.013400773 -0.01971264
-0.0001587383 -0.022385104 -8.8165166e-26 0.0573677 -0.0022991418 0.13844965 -0.007827015 -0.0009247828
-0.025778996 -2.2215124e-34 -7.043554e-26 0.012835022 -0.06457566 -0.12628014 -0.027547704 0.018218188
-2.3489324e-09 0.12336058 -0.06603667 -0.00035172544 -0.015925715 0.00092570955 0.13173302 -0.02032204
-0.010590476 -0.016045785 -8.960397e-05 -4.15173e-13 -2.7305157e-05 -2.8751682e-30 0.074963555 -2.9126865e-15
-0.0015421128 -8.852993e-08 -0.027473934 -1.6558733e-24 -0.0081589315 -2.9513261e-05 -0.0007962753 -1.1185479e-08
-3.495508e-05 -0.000368611 -4.3936965e-05 -0.012198914 -0.007564295 0.042244315 -0.03431106 0.022727188
-0.028879708 -1.9950478e-31 -0.064972706 -1.5185037e-08 -1.867483e-05 -0.0009294248 -0.04233044 -0.025717944
-9.768886e-15 -0.022020506 -0.09452185 -1.3438464e-05 -0.052117962 -0.03612882 -6.086523e-19 0.15243836
-0.013442119 -0.0004978372 0.09773376 -1.5144519e-23 -5.3967906e-18 -0.0077253385 0.0969588 -1.5216411e-32
0.0022285928 0.02112047 -0.030132666 -7.576326e-07 -3.986159e-26 -3.273061e-17 -0.0131730605 -0.0009157285
-2.3885832e-05 -0.06345147 -5.831559e-05 -0.08281368 -0.02311097 -9.305805e-19 -3.7012846e-10 -9.330925e-06
-0.052838188 -5.4201786e-12 -0.004875754 -1.5460355e-06 0.10677024 -2.1116303e-19 -1.5808803e-19 -4.9763216e-06
-0.025362086 -1.2600437e-10 -9.488006e-18 -0.031779435 -1.4181117e-15 0.163628 0.09039551 -0.034103338
0.058786448 -1.8515528e-18 0.030049926 -0.0017852689 -0.00012758566 0.09451743 -0.038358573 -3.852136e-21
-0.0040107784 -0.018764488 -4.3199688e-10 -0.103814796 -0.011375519 -0.017682113 -0.0446645 0.0022470863
-7.8417263e-32 -0.004264529 -4.047878e-06 -1.17996515e-05 -0.052604266 -0.022552503 -7.231585e-11 -0.028364006
0.08529308 -0.05405924 -0.000434923 -0.010513739 0.05015175 -3.3908457e-20 -0.03350349 -2.2315615e-34
-4.76883e-06 -1.3129155e-08 -5.3534258e-08 -0.022631219 0.09750025 -4.7949612e-05 -8.7471535e-26 -0.037939135
00000000: fd45 81bb e743 b0ba ca15 84bd b6ad d0bc
00000010: 7739 d1b9 3fe6 dcba a01f b9bc 2865 303e
00000020: a8ae e5af 99b0 86b2 fe80 0bbd 9b53 5f3d
00000030: 5824 833d c2b4 be3d 5ccd 988a e82e dead
00000040: f790 3ba9 aba2 f1bc a0a3 82bb ef72 2dbc
00000050: cf85 67b3 55c6 8fbb 0221 ecbc 6e3a df9f
00000060: 285c 34bb 0a64 5b8f e26c b7b7 662e 16b4
00000070: da1c 9fbc 0a31 09bd 082f aebc 07e8 239a
00000080: 54b4 21a7 6776 dc3d f6ef fbbc f121 c7bd
00000090: e87c f33b 77c7 139b 31f4 08a9 f325 87ac
000000a0: 4edf cbba e902 8db3 266c 92ba ed57 c9bc
000000b0: fc88 3cbc b1ba 033e 6678 0eb5 8e44 769f
000000c0: 5a95 313d 2767 d0bb ae46 49bc 5440 68bc
000000d0: 400e 36b6 4c19 f33c 4489 3eb6 a61a 41bb
000000e0: 7d22 b0bd 2404 e1bc 8c35 e1b7 8d0a 0e3e
000000f0: 61c0 81bd e01b 50bd e046 87bd 2145 f3bc
00000100: b23b a9b4 c7dc 90bc e274 03b9 4a9a 4db4
00000110: 0979 899f d27c 15b9 ca3b 05bd 60c3 cca7
00000120: 0c80 3abd 3c31 12bb c464 e3bb 50b7 74a9
00000130: f815 b3bc fb8e c995 3409 1cb1 eb7b 143e
00000140: 04ce 9439 c28e 3db9 e305 bcbd f3b2 9bbc
00000150: e05e 80bb d3d8 c0bb e7af d8a5 c845 05bd
00000160: 96ab 0baf bc55 9ebc 7f3a 62bc 5a74 80bc
00000170: 1982 4dbd f35d 8ebc aa20 c5ba 69be 46ba
00000180: 3051 26ae 2823 2dbc 287c 95bc e1a1 02bd
00000190: aa13 02bd 01e5 0baf 5a37 4db4 ff99 b1ba
000001a0: 14e7 38a2 f698 dd9d a25a 0fbc fcc5 4db4
000001b0: 3ce7 71bd 73c9 8abb ea8e 5bbc 677c a1bc
000001c0: fd72 26b9 f760 b7bc 5049 da95 65fa 6a3d
000001d0: 33ad 16bb bfc5 0d3e e13c 00bc 206d 72ba
000001e0: 792e d3bc 13a5 9387 d463 ae95 fc49 523c
000001f0: 3e40 84bd 954f 01be b9ab e1bc 4f3e 953c
00000200: db6a 21b1 79a4 fc3d 3c3e 87bd ca67 b8b9
00000210: a576 82bc 51ab 723a 05e5 063e 687a a6bc
00000220: ad83 2dbc 7372 83bc c4e9 bbb8 bcb8 e9aa
00000230: 610d e5b7 e842 698e 7e86 993d 95e1 51a7
00000240: b820 caba d81d beb3 0411 e1bc f31d 0098
00000250: 0aad 05bc 3f93 f7b7 21bd 50ba 422a 40b2
00000260: bb9c 12b8 2242 c1b9 f548 38b8 f4dd 47bc
00000270: e8dd f7bb 6008 2d3d c189 0cbd 5e2e ba3c
00000280: 2395 ecbc 6b7c 818c 6910 85bd 4070 82b2
00000290: e4a7 9cb7 a4a4 73ba af62 2dbd 70ae d2bc
000002a0: 09fb 2fa8 5964 b4bc ac94 c1bd c375 61b7
000002b0: a579 55bd d0fb 13bd 78a4 33a1 cd18 1c3e
000002c0: 553c 5cbc 4a81 02ba a328 c83d 0378 9299
000002d0: 3f1b c7a2 d624 fdbb 5692 c63d 2904 9e8a
000002e0: 950d 123b d604 ad3c c8d8 f6bc 1e60 4bb5
000002f0: 9262 4595 7cf1 16a4 d2d3 57bc 800d 70ba
00000300: 6f5e c8b7 d8f2 81bd e397 74b8 389a a9bd
00000310: 3853 bdbc 5654 89a1 f37a cbaf 058c 1cb7
00000320: db6c 58bd a1b4 beac cac4 9fbb 6081 cfb5
00000330: 5baa da3d 1c4c 79a0 2da3 3aa0 47fa a6b6
00000340: 26c4 cfbc 148b 0aaf d705 2fa3 272b 02bd
00000350: 165f cca6 198e 273e 4821 b93d f1af 0bbd
00000360: 0fca 703d d89e 08a2 432b f63c afff e9ba
00000370: 84c8 05b9 5b92 c13d e11d 1dbd 9387 919d
00000380: d96c 83bb fcb7 99bc 287e edaf da9c d4bd
00000390: 6360 3abc 14da 90bc 1ff2 36bd da43 133b
000003a0: 3695 cb8b 76bd 8bbb 02d3 87b6 1ef7 45b7
000003b0: 9277 57bd 07c0 b8bc 3406 9fae a25b e8bc
000003c0: 23ae ae3d 396d 5dbd 6006 e4b9 d141 2cbc
000003d0: ec6b 4d3d cf20 209f f53a 09bd 0d50 9487
000003e0: f003 a0b6 a28e 61b2 8aed 65b3 1b65 b9bc
000003f0: 36ae c73d 811d 49b8 ac91 d895 1166 1bbd

fc3.weight f4 [300, 300]
-2.9395463e-26 -5.948606e-33 -6.924569e-38 -2.5422822e-38 4.874e-42 -2.6715823e-17 -7.874363e-39 -9.404575e-06
1.735694e-38 -1.6431212e-38 -1.1174761e-16 2.5950965e-37 -4.694862e-07 -2.7830293e-24 4.349433e-39 3.5722556e-38
-1.5583752e-38 2.4848063e-38 4.2999418e-38 1.37927e-38 -3.908732e-38 -2.2037296e-35 -3.5305154e-38 1.3981663e-38
1.9858395e-38 -1.2142236e-38 1.75157e-39 -9.057133e-39 0.0006915086 9.807744e-22 2.7316178e-38 1.0564479e-38
4.901638e-38 -0.00084477797 -4.084418e-38 -0.0003920824 0.00046650367 1.9778274e-38 1.9609802e-38 2.98043e-38
1.5354343e-38 -3.0461754e-38 1.3611665e-38 3.9650435e-38 -3.952211e-38 -1.4955762e-05 8.107401e-39 -1.4328187e-38
3.007044e-38 1.5169415e-38 -2.1258372e-19 -8.719339e-39 -3.6119942e-38 1.566944e-38 -6.092938e-39 -3.950525e-38
-9.174697e-05 -1.1521883e-05 3.8652464e-38 0.0005536381 0.00084925175 -4.1228314e-38 -2.636908e-38 1.5681707e-38
-2.1116699e-38 -3.2038161e-38 5.580069e-39 4.6718276e-38 -2.0664274e-38 -5.9930404e-26 -4.1665895e-38 -2.8372592e-38
2.354803e-38 -2.672058e-38 -1.2514126e-38 1.2610558e-38 -3.1165897e-09 -3.855444e-38 1.6659561e-38 -2.7553284e-07
8.119985e-39 6.421631e-10 -0.00021145241 -8.242114e-06 -4.8141374e-10 -7.074001e-39 -3.2075733e-38 -0.00020705735
-1.8213381e-38 -0.0018091673 5.291098e-38 -1.3249266e-38 -1.7542812e-05 1.1364668e-12 -2.0843959e-38 2.0347302e-38
-1.1913519e-38 -2.1768166e-36 -1.4979253e-24 4.0598705e-38 -5.695164e-38 1.111809e-38 -2.7269403e-38 -7.299743e-14
4.8916134e-38 1.6913168e-38 -1.8976545e-38 4.0557232e-38 -1.4010934e-15 7.476092e-09 -2.1614894e-38 -2.9005964e-13
2.104411e-39 -4.85623e-09 -1.3874999e-38 -0.0007712382 -6.275143e-39 -0.00010705569 -5.283278e-39 -0.002567668
0.00011869608 -1.1939234e-38 -5.348793e-38 -7.737908e-33 -4.271531e-09 0.00015315552 -1.0739816e-09 -3.58328e-38
2.7979668e-38 -6.943726e-08 -4.346144e-18 -4.009413e-38 -6.465727e-21 -2.723811e-38 1.6717528e-06 -3.8470133e-38
-1.090281e-17 -9.1648355e-15 2.945064e-39 1.4177522e-38 -2.885419e-38 -6.643267e-39 3.2060417e-38 -3.620264e-38
0.00042731978 1.6216228e-38 -5.0234426e-06 2.223352e-38 4.028444e-39 -9.861142e-39 -2.842472e-39 -2.468437e-38
3.197281e-38 7.6033646e-13 1.4624457e-23 -2.4971352e-38 -4.820625e-36 -2.02096e-38 -7.323681e-32 -0.0026501084
-5.9647333e-05 5.7181665e-38 3.478163e-38 -3.138428e-38 5.246348e-38 -2.8691527e-38 2.9885853e-16 -1.3502109e-38
-8.448161e-39 -4.0529394e-06 -9.445777e-10 -5.403388e-38 -2.2126503e-06 -1.3058727e-38 -1.7831756e-38 1.0180999e-05
-2.963959e-39 -4.5798862e-38 4.6301303e-38 -4.8555844e-38 -3.879607e-38 -1.4638126e-26 4.4983092e-34 -1.6504157e-38
1.7185261e-38 -4.709045e-14 -2.3744867e-32 3.929e-42 6.634693e-39 2.5301548e-38 3.8997464e-38 -2.994925e-38
-3.5231794e-38 8.1446946e-05 3.8613905e-07 -9.969087e-06 6.696326e-27 -1.761837e-38 -2.444716e-38 -2.524772e-38
2.0699668e-38 -1.2066278e-38 1.7589719e-38 1.840599e-38 -0.00023326777 -3.012654e-39 2.8058664e-38 -1.5161426e-38
8.207491e-07 -1.0524662e-38 4.309756e-39 -3.327836e-38 -4.4644478e-38 -3.1269763e-06 -4.097163e-09 -1.6395282e-38
-1.8257091e-33 1.8539994e-38 5.1917357e-38 -2.2696103e-38 4.230009e-38 -0.00021413813 1.164603e-38 -2.6761964e-38
-4.125438e-39 -2.3774093e-38 -6.119518e-39 -0.00034559684 3.25397e-40 -5.9305036e-38 -1.76556e-10 -1.0140545e-05
-2.5363827e-38 1.1859353e-38 1.9754735e-38 -1.3367226e-38 -1.917245e-26 3.3437227e-06 3.22127e-39 3.0821846e-38
6.547315e-14 -0.0003947221 4.16842e-38 1.02986636e-13 -2.1089037e-38 -7.70688e-40 1.181199e-09 3.789386e-39
2.2561117e-31 3.5090974e-38 1.1991734e-38 4.308163e-39 -1.0216903e-34 -3.3811485e-38 2.7002864e-38 -7.990842e-26
00000000: 2d8f 1195 6e18 f789 3481 bc81 3e6a 0a81
00000010: 960d 0000 f468 f6a3 85be 5580 58c8 1db7
00000020: 1600 bd00 89eb b280 13d6 00a5 f59c b002
00000030: b10d fcb4 9353 5798 735c 2f00 fa7d 4201
00000040: 29b1 a980 2549 0701 711c 6a01 7030 9600
00000050: c6cf 5481 3a57 ea85 3438 4081 303f 9800
00000060: 203d d800 9d37 8480 aa12 1300 9a9f 6280
00000070: 5b46 353a df35 941c 32b9 1401 7809 7300
00000080: 6e6f 8501 1774 5dba 7a60 5e81 6990 cdb9
00000090: 1095 f439 c85d d700 2688 d500 2245 2201
000000a0: a931 a700 7dd9 2581 c937 9400 a4e0 5701
000000b0: c82d 5781 82ea 7ab7 2348 5800 2805 9c80
000000c0: 14b8 2301 282e a500 7df9 7aa0 f8f1 5e80
000000d0: daa7 4481 06a0 aa00 a258 4280 4816 5781
000000e0: 4868 c0b8 1c4e 41b7 ac71 5201 0622 113a
000000f0: 52a0 5e3a e277 6081 2291 0f81 38c2 aa00
00000100: c4f0 e580 ae6e 2e81 f6c2 3c00 c65b 7e01
00000110: 9703 e180 6861 9495 c8d9 6281 9f79 1a81
00000120: 2a35 0001 0e7b 1181 4b44 8880 1b51 8900
00000130: a02b 56b1 0ce9 5181 1468 b500 f2ec 93b4
00000140: 376b 5800 3684 3030 53b9 5db9 9c47 0ab7
00000150: 7b54 04b0 7007 4d80 0ca3 2e81 891d 59b9
00000160: 7f53 c680 9521 edba 9209 9001 9045 9080
00000170: e728 93b7 88f1 9f2b 7af8 e280 0090 dd00
00000180: 0bba 8180 de2e 3984 efca e797 560a 5d01
00000190: 8009 9b81 b610 7900 0078 1481 2760 a4a9
000001a0: 9229 8501 082b b800 e3a2 ce80 88d0 5c01
000001b0: 39eb c9a6 3370 0032 885d eb80 004a a3aa
000001c0: 3eea 1600 dadb a6b1 da15 9780 eb2c 4aba
000001d0: 8c54 4480 1683 e0b8 a187 3980 5246 28bb
000001e0: 79ec f838 ba01 8280 a69b 9181 c7b5 208a
000001f0: c9c4 92b1 5f98 2039 5e9b 93b0 a217 4381
00000200: f755 1801 8a1d 95b3 2b58 a0a2 104b 5a81
00000210: ad44 f49d 624c 1481 fd60 e035 8a73 5181
00000220: 111f 49a3 5819 25a8 a411 2000 2a61 9a00
00000230: df18 1d81 ba56 4880 b38d 2e01 1e1b 4581
00000240: e409 e039 3f94 b000 0b8f a8b6 021a f200
00000250: aadd 2b00 da60 6b80 a8f3 1e80 fe64 0681
00000260: 9813 2e01 0404 562b 6770 8d19 fcf4 0781
00000270: f50b cd84 2410 dc80 3622 be8b 71ad 2dbb
00000280: d62d 7ab8 cea9 9b01 845e 3d01 4ddf 2a81
00000290: b6d1 8e01 2736 1c81 bc47 ac25 6306 9380
000002a0: 09fe 5b80 7cfe 87b6 60d2 81b0 1e18 9381
000002b0: 0b7d 14b6 6b32 8e80 ae2b c280 0fcf 2a37
000002c0: 5046 2080 4c5a 7981 9916 7c01 7c2e 8481
000002d0: d439 5381 0ff8 9094 627b 1508 e0b6 b380
000002e0: 8421 bb00 9813 54a9 af94 f68a f40a 0000
000002f0: d33e 4800 36c1 0901 8852 5401 290f 2381
00000300: f4d1 3f81 7fce aa38 8c4e cf34 e740 27b7
00000310: 68a2 0414 d9d8 bf80 5e1a 0581 3076 0981
00000320: 4166 e100 e063 8380 fb88 bf00 696c c800
00000330: 5799 74b9 0ece 2080 12c4 1801 e317 a580
00000340: 7351 5c35 7a9a 7280 d9ed 2e00 442f 3581
00000350: 5211 7381 0bd9 51b6 07c7 8cb1 6087 b280
00000360: 8aac 1789 f6e1 c900 1e55 8d01 8023 f780
00000370: b84d 6601 448a 60b9 65d0 7e00 bcb4 1181
00000380: 0bec 2c80 4070 0181 baa2 4280 3931 b5b9
00000390: 138b 0300 9471 a181 1920 42af 4f21 2ab7
000003a0: 0418 0a81 0d23 8100 2a1c d700 638e 9180
000003b0: efdf bd94 b864 6036 9713 2300 62cf 2701
000003c0: b46e 9329 b4f2 ceb9 4cf3 6201 c1e7 e729
000003d0: a8a3 e580 5d64 0880 bf57 a230 4443 2900
000003e0: 166e 920c ae0d 3f01 1394 8200 68e9 2e00
000003f0: 52ce 0787 5516 3881 8004 1301 fad7 c595

fc3.bias f4 [300]
-0.0015822444 -0.0064099035 -4.055266e-07 -0.0422412 -0.0019942063 -0.016397046 -0.025105081 -1.3915671e-09
0.023826573 -0.045566667 -4.4146065e-16 0.04219376 -0.002678788 -0.007977851 -0.00042875455 -0.008203322
-0.023706013 -0.002088241 0.05808839 -0.00088306534 -6.4188906e-05 0.09178531 -0.00043683883 -0.004005116
0.11107186 -0.0057924674 -6.091693e-10 -0.0038902995 -4.9757126e-12 -0.003720689 -9.481127e-15 -0.03896086
-0.0002387351 -0.021992609 -7.739101e-06 -0.0009361057 -3.2322337e-08 -0.009683811 -0.004387167 -0.0001257579
-1.7519573e-08 -1.7851853e-24 -0.0009009471 -0.017497016 -0.0009311099 -0.01300668 -8.0868894e-08 -2.7407925e-05
-0.020501422 -5.5206774e-30 -4.5756478e-17 -0.00017718093 -8.785969e-06 0.03977561 -0.0012353624 -0.0030592072
-6.600979e-07 0.037208565 -0.008346401 -0.012194787 -0.04002899 -1.5974383e-10 -1.18356295e-14 0.086324625
-1.3539935e-07 0.074436806 -9.644905e-08 -0.053066723 -0.030964935 -4.817645e-07 -0.015184463 -0.002034897
-0.028437277 -0.00040715272 -1.5859419e-21 -0.00013843566 -1.7708995e-19 0.009107481 -0.02617173 -7.2194457e-06
0.047753178 0.08473472 -1.5698456e-09 -7.5083165e-26 -6.4687106e-07 -0.01656437 -3.5299416e-11 -4.558537e-31
-5.371696e-22 -3.48438e-07 -0.016053755 -0.04678318 -5.6536464e-12 -0.034568887 -3.9257793e-05 -0.00012019277
-2.1164308e-26 -0.008594171 -0.005264273 -0.0006605275 0.0049830205 -0.009011398 -2.8224101e-21 -0.036308408
-9.820026e-07 -0.008299628 -1.2433875e-07 -2.1731412e-18 -3.098587e-08 -0.028265148 0.0029690005 -1.03935506e-10
-4.911338e-08 -0.0006394238 -0.005070849 -0.013295654 -0.011194402 -0.023880253 -2.7699758e-14 -1.1190294e-07
-0.015171974 0.0007986007 -7.1804375e-19 -0.00012920793 -4.4579898e-05 -0.0037504549 -0.0018565853 -3.5418527e-08
-6.039113e-19 -0.011743866 -2.5119456e-16 -0.0031717329 -0.0065437285 -6.5478476e-15 -0.00035914962 0.02516354
-0.0006325248 -0.00050340855 0.07898067 -7.9986094e-08 -2.0642934e-16 -0.00554436 0.0027922755 -4.2648845e-12
-5.6708737e-14 -0.018730681 -0.09133534 -0.017168095 -7.135524e-18 0.079003796 -0.001494192 -2.4017281e-06
0.0053305295 -0.0001113661 -0.00327588 -0.010645055 -1.0036784e-05 -5.261273e-14 0.013100412 -2.9273184e-07
-1.1712547e-14 -0.018476991 0.046233285 -4.2403716e-08 0.08714945 0.103176884 -0.031274512 -0.00036280803
-0.0024290443 -8.754157e-05 -1.1099406e-21 -0.0018903277 -1.8169801e-07 0.018403154 0.054302067 -8.3421625e-08
-1.6529472e-10 -1.813292e-20 -1.7145854e-07 0.017000712 -0.016135303 -8.667402e-25 -7.8776255e-05 -4.6148912e-07
-0.026226532 -1.8925154e-25 -2.879765e-28 -0.035743613 -1.6514725e-05 -7.894925e-15 -0.0005920756 0.042274844
0.08964838 -2.265291e-12 -5.470838e-23 0.11343215 -0.00035562276 -4.364739e-10 -0.014812246 -0.0047305147
-0.040018912 -2.1559623e-09 -0.00036682823 -1.9538051e-23 -0.04014653 -1.3473514e-10 -2.2512323e-16 -7.734032e-11
-0.026747802 -0.00024216602 -1.213443e-12 -0.003015359 -0.026978863 -0.022772104 -0.03775043 -0.005278364
-0.012615613 0.08516432 -2.178039e-19 0.024136037 -1.3038004e-28 -2.6930266e-29 -0.007888127 -0.024754146
-0.018053867 0.07355898 -0.0074808267 -1.8298184e-11 -0.010413933 -0.021570226 -0.008086409 0.07205869
-1.489034e-06 -0.048451174 -9.6615985e-08 0.106802225 -1.2696533e-17 -6.7022397e-06 -0.018496139 0.018469373
-4.9665195e-16 -0.00090412464 -1.9181096e-05 -4.2148793e-12 -0.012134894 0.03661399 -2.959804e-09 0.015437891
-0.03885074 -5.919237e-05 0.026793089 -0.0050216033 0.09550016 -0.0025232697 -0.00810246 -4.2285817e-10
00000000: 5063 cfba 2b0a d2bb 27b7 d9b4 1c05 2dbd
00000010: 3bb1 02bb 1953 86bc 2ca9 cdbc 6a41 bfb0
00000020: f22f c33c 1da4 3abd 187c fea5 5dd3 2c3d
00000030: 9b8e 2fbb 88b5 02bc 76ca e0b9 3a67 06bc
00000040: 1d33 c2bc dfda 08bb 17ee 6d3d 837d 67ba
00000050: 289d 86b8 f0f9 bb3d 8407 e5b9 593d 83bb
00000060: a579 e33d bdce bdbb 7b72 27b0 65f4 7ebb
00000070: 3c11 afac ced6 73bb fbcb 2aa8 6c95 1fbd
00000080: f754 7ab9 d829 b4bc 30d7 01b7 fd64 75ba
00000090: c9d2 0ab3 d9a8 1ebc 39c2 8fbb e1dd 03b9
000000a0: f37d 96b2 3d1f 0a98 892d 6cba e755 8fbc
000000b0: ba15 74ba f819 55bc 25aa adb3 12ea e5b7
000000c0: 99f2 a7bc fef1 df8e b703 53a4 a5c9 39b9
000000d0: 7367 13b7 c0eb 223d e2eb a1ba fb7c 48bb
000000e0: 9531 31b5 0268 183d 58bf 08bc a5cc 47bc
000000f0: 70f5 23bd e4a3 2faf 3536 55a8 f7ca b03d
00000100: 4a62 11b4 5372 983d 6d1f cfb3 7e5c 59bd
00000110: 2daa fdbc 9b52 01b5 41c8 78bc e85b 05bb
00000120: 4bf5 e8bc 1d77 d5b9 28a9 ef9c 0a29 11b9
00000130: 2712 51a0 8b37 153c 1966 d6bc 913e f2b6
00000140: d698 433d 6689 ad3d 08c2 d7b0 9ce5 b995
00000150: a4a4 2db5 00b2 87bc 9c3f 1bae d8ee 138d
00000160: 7c59 229c f410 bbb4 2a83 83bc b89f 3fbd
00000170: 85eb c6ac 1b98 0dbd bca8 24b8 0110 fcb8
00000180: e599 d194 91ce 0cbc ec7f acbb 4027 2dba
00000190: 9b48 a33b 8ba4 13bc 5a41 559d 20b8 14bd
000001a0: 5acd 83b5 2afb 07bc fa81 05b4 7a59 20a2
000001b0: 5315 05b3 508c e7bc 9093 423b 7d8e e4ae
000001c0: bbf0 52b3 019f 27ba 5d29 a6bb 04d6 59bc
000001d0: ba68 37bc 85a0 c3bc 4b7f f9a8 4b4f f0b3
000001e0: df93 78bc 3059 513a daed 53a1 fd7b 07b9
000001f0: 4dfb 3ab8 31ca 75bb aa58 f3ba 151f 18b3
00000200: 3f3e 32a1 5869 40bc c6cd 90a5 d9dc 4fbb
00000210: c66c d6bb 3ce9 eba7 3f4c bcb9 c523 ce3c
00000220: 05d0 25ba 2df7 03ba 9ec0 a13d d2c4 abb3
00000230: 30ff 6da5 76ad b5bb 9cfe 363b aa0e 96ac
00000240: b964 7fa9 1671 99bc 060e bbbd 1ba4 8cbc
00000250: 8fa0 03a3 becc a13d c4d8 c3ba 602d 21b6
00000260: b9ab ae3b 388d e9b8 25b0 56bb 9968 2ebc
00000270: a963 28b7 59f2 6ca9 1ca3 563c c228 9db4
00000280: 97fe 52a8 0f5d 97bc 1d5f 3d3d 611f 36b3
00000290: 697b b23d 674e d33d b419 00bd 4537 beb9
000002a0: 9a30 1fbb 8696 b7b8 bfba a79c dfc4 f7ba
000002b0: c518 43b4 36c2 963c d86b 5e3d 8625 b3b3
000002c0: 54be 35af b642 ab9e 2a1a 38b4 1445 8b3c
000002d0: 2f2e 84bc 1e1f 8697 ae34 a5b8 95c2 f7b4
000002e0: 06d9 d6bc 3548 6a96 dc86 b691 e567 12bd
000002f0: 1a89 8ab7 ea38 0ea8 8535 1bba 6328 2d3d
00000300: 9299 b73d db67 1fac d946 849a 1d4f e83d
00000310: e172 bab9 3ef4 efaf 10af 72bc 6f02 9bbb
00000320: dfea 23bd 1728 14b1 da52 c0b9 dff5 bc99
00000330: b070 24bd 9224 14af 53c6 81a5 bb12 aaae
00000340: 351e dbbc f2ed 7db9 e4c6 aaab 549d 45bb
00000350: c702 ddbc 908c babc 32a0 1abd 20f6 acbb
00000360: b7b1 4ebc a26a ae3d 9891 80a0 f0b8 c53c
00000370: be46 2591 7c8d 0890 343d 01bc 35c9 cabc
00000380: b4e5 93bc 17a6 963d b921 f5bb d9f3 a0ad
00000390: 339f 2abc 0bb4 b0bc dc7c 04bc 8293 933d
000003a0: d2da c7b5 bd74 46bd 337b cfb3 20bb da3d
000003b0: af35 6aa3 cde3 e0b6 3785 97bc 154d 973c
000003c0: 7226 0fa6 c702 6dba 17e7 a0b7 424c 94ac
000003d0: 6fd1 46bc 8df8 153d 6c65 4bb1 35ef 7c3c
000003e0: f421 1fbd 5345 78b8 2e7d db3c 438c a4bb
000003f0: 9695 c33d 715d 25bb 2ec0 04bc ff77 e8af

fc4.weight f4 [7, 300]
0.0012674847 -0.001447564 0.00041954918 -0.00031907338 -0.009364929 0.0022073926 -0.016186247 -6.270777e-07
-0.00683567 0.010294604 -1.6621014e-07 0.041659523 -0.0005512739 0.00277021 0.0029296358 -0.00018872273
-0.00031343667 -0.0024950327 -0.05164178 -0.000552355 7.880849e-05 -0.06955811 -0.0037021497 0.004530904
-0.12970184 0.0021721162 -7.370051e-09 -0.0007557737 -2.2770982e-06 -0.0003571468 -6.373542e-07 0.25409064
0.0022955274 0.008084497 -0.0007426989 0.0053778286 0.00012934585 -0.006764419 0.0040907497 0.0005085303
4.730552e-07 -2.006873e-07 0.005694355 0.021187607 -0.0026274328 -0.0013875746 0.00034891497 -0.0049894266
-0.006118724 -2.1112613e-05 1.6767926e-05 -0.002498993 -0.001271392 -0.039969344 0.0010284227 -0.002020919
-0.00024307412 -0.029196657 -0.0011061067 -0.0025611627 0.017168619 -5.7361667e-06 -6.115566e-16 -0.07125635
-9.8193705e-05 0.048277386 0.00013710835 -0.010570474 -0.0053230105 -0.0009365925 -0.002104437 0.005302863
-0.0065819044 0.008358035 -1.7002635e-06 0.00016742444 1.9856506e-07 0.04179653 0.01145111 -0.0007928792
0.052313227 0.05190009 -3.8567687e-05 -3.294505e-18 2.034618e-05 -0.0013701698 4.0200916e-06 -8.9904e-06
-4.0463522e-07 -0.0060797026 -0.0019119234 -0.006191269 -6.6864836e-06 0.004188795 0.0007765058 -0.0018652104
-1.3874962e-10 0.0012358376 0.0081283385 0.0014749223 -0.018011373 -0.0011742924 -2.832265e-07 0.014376542
-0.00084364385 0.0740077 0.00022450039 2.0453635e-06 -1.8649362e-06 -0.0032689036 -0.022802174 5.8913727e-05
-0.00022552926 -1.7962448e-05 0.00066734717 -0.009773133 0.0007839017 0.0062543107 -1.09223365e-05 -0.00011794835
-0.00035960312 -0.00058513414 -9.869939e-11 0.00805517 -0.0001647554 0.00033504755 -8.497819e-05 0.00065453927
-1.8839623e-08 -0.0017836024 2.7418297e-09 0.0022479051 0.0024008574 4.6133578e-06 0.00021924553 0.03655405
-0.001063148 -0.0018531388 0.046875305 -5.417963e-09 -5.7169594e-08 -0.0007960919 -0.014200674 3.8274443e-06
1.20448785e-05 0.014174387 0.016403839 0.0003343756 -7.7496884e-20 0.054282255 -0.0007536339 -9.551999e-05
0.08012467 -0.0024929182 0.004903488 -0.0059675933 -0.00017507252 2.2787833e-06 0.07050802 0.00029468536
1.18806085e-08 -0.001310576 -0.056944657 -3.2481612e-06 -0.07086584 -0.1537743 0.011848816 0.00070685183
-0.0023431028 0.006821721 2.0723379e-09 0.004123339 -0.00032038218 0.054292127 0.042055525 -0.000103376675
-5.4136767e-06 -5.2451956e-08 -0.00018188529 0.066842616 -0.0019543176 1.6193694e-12 -0.0069879415 5.6949706e-05
-0.004732456 -7.9726107e-07 6.7088526e-09 0.0013862002 -3.6688925e-05 -2.3574344e-07 0.0015815678 0.036868513
-0.08798283 -2.7368955e-08 -4.8138127e-06 -0.13862585 -0.0010484736 0.00026063353 0.0011130909 -0.0016773435
0.0065554916 -3.2278345e-07 -0.00036153366 4.3973057e-05 0.012004788 3.557e-12 -2.9276922e-08 -1.6897865e-06
0.002859699 1.9522382e-05 2.034689e-06 0.0011297211 0.024099946 0.022993458 0.00043383997 -0.006897806
-0.008808862 -0.08869757 1.2337823e-11 0.06362669 -4.6409772e-11 -1.6777989e-06 -0.0012225319 0.0012005502
0.026204132 -0.049475815 0.0008711701 8.92277e-10 -0.0011889347 0.016577294 8.662759e-05 -0.046388157
-2.588227e-05 0.19189857 -0.00058460276 -0.12646051 5.5744467e-06 -0.00015195664 0.0037421435 -0.027658347
-1.0462093e-05 -0.0026705603 1.8161998e-05 1.7265227e-06 0.0043412186 -0.034729403 -1.9556104e-05 0.027199099
0.026556084 -5.457885e-05 0.016952552 -0.00019161089 -0.12105699 0.0043520704 0.0009149405 4.137768e-05
00000000: bb21 a63a 30bc bdba f0f6 db39 4e49 a7b9
00000010: 5c6f 19bc e7a9 103b 0599 84bc 7454 28b5
00000020: c2fd dfbb b3aa 283c 7f77 32b4 2da3 2a3d
00000030: 5d83 10ba 698c 353b 22ff 3f3b dfe3 45b9
00000040: c254 a4b9 b483 23bb 5586 53bd ebcb 10ba
00000050: fc45 a538 7b74 8ebd c49f 72bb fa77 943b
00000060: 8fd0 04be 105a 0e3b a73b fdb1 1d1f 46ba
00000070: 40d0 18b6 6f3f bbb9 a616 2bb5 2b18 823e
00000080: 8f70 163b d774 043c aeb1 42ba 7f38 b03b
00000090: 03a1 0739 0fa8 ddbb b20b 863b e44e 053a
000000a0: 36f8 fd34 817c 57b4 b697 ba3b a291 ad3c
000000b0: 0231 2cbb 47df b5ba 93ee b639 587e a3bb
000000c0: 947f c8bb fe1a b1b7 d9a8 8c37 25c6 23bb
000000d0: d6a4 a6ba e5b6 23bd 24cc 863a 6571 04bb
000000e0: b6e1 7eb9 d42d efbc c8fa 90ba 2ed9 27bb
000000f0: 34a5 8c3c 4c79 c0b6 ea44 30a6 d9ee 91bd
00000100: 58ed cdb8 82be 453d bec4 0f39 c82f 2dbc
00000110: a66c aebb a985 75ba 98ea 09bb a4c3 ad3b
00000120: 04ad d7bb 24f0 083c 9c34 e4b5 a88e 2f39
00000130: 2635 5534 d732 2b3d 709d 3b3c 39d9 4fba
00000140: 6546 563d 3095 543d bdc3 21b8 7117 73a2
00000150: 17ad aa37 4597 b3ba 53e4 8636 79d5 16b7
00000160: a43c d9b4 3e38 c7bb 8199 faba 21e0 cabb
00000170: 755c e0b6 2942 893b 6c8e 4b3a 137a f4ba
00000180: 8c8e 18af d4fb a13a b92c 053c 2e52 c13a
00000190: 968c 93bc b7ea 99ba 5b0e 98b4 968b 6b3c
000001a0: fb27 5dba 5991 973d dd67 6b39 1443 0936
000001b0: b84e fab5 1a3b 56bb a0cb babc 221a 7738
000001c0: 0d7c 6cb9 10ae 96b7 e9f0 2e3a 7e1f 20bc
000001d0: c17e 4d3a f6f0 cc3b 143f 37b7 0a5b f7b8
000001e0: 1d89 bcb9 b063 19ba d10a d9ae d5f9 033c
000001f0: 31c2 2cb9 52a9 af39 5236 b2b8 6395 2b3a
00000200: c5d4 a1b2 c4c7 e9ba c76a 3c31 9751 133b
00000210: b457 1d3b 71cc 9a36 46e5 6539 b3b9 153d
00000220: 5459 8bba 05e5 f2ba 5200 403d e828 bab1
00000230: a28a 75b3 d3b0 50ba f2a9 68bc 7f6d 8036
00000240: 5c14 4a37 b03b 683c 5861 863c 224f af39
00000250: fefb b69f 1257 5e3d 848f 45ba e751 c8b8
00000260: 6718 a43d 3a60 23bb 70ad a03b cd8b c3bb
00000270: ac93 37b9 33ed 1836 8266 903d 0080 9a39
00000280: 781b 4c32 a2c7 abba cd3e 69bd fcfa 59b6
00000290: 1c22 91bd 0377 1dbe 8921 423c 064c 393a
000002a0: be8e 19bb be88 df3b f468 0e31 131d 873b
000002b0: f8f8 a7b9 6c61 5e3d 6a42 2c3d eecb d8b8
000002c0: 21a7 b5b6 8947 61b3 76b8 3eb9 c8e4 883d
000002d0: 0214 00bb eee7 e32b 1afb e4bb 48dd 6e38
000002e0: b812 9bbb 5d03 56b5 b183 e631 29b1 b53a
000002f0: 6fe2 19b8 aa20 7db4 9c4c cf3a 7003 173d
00000300: 5830 b4bd f818 ebb2 5686 a1b6 eff3 0dbe
00000310: f06c 89ba a4a5 8839 22e5 913a 4fda dbba
00000320: 73cf d63b 054b adb4 3a8c bdb9 b66f 3838
00000330: bbaf 443c 374d 7a2c a27c fbb2 9fcc e2b5
00000340: ca69 3b3b ffc3 a337 b18b 0836 2613 943a
00000350: 406d c53c c75c bc3c 0475 e339 fe06 e2bb
00000360: 0c53 10bc 12a7 b5bd 9d0c 592d b64e 823d
00000370: c21c 4cae bb30 e1b5 5d3d a0ba c85b 9d3a
00000380: 0caa d63c 27a7 4abd 3c5f 643a 6944 7530
00000390: 07d6 9bba 1bcd 873c d5ab b538 8201 3ebd
000003a0: c01d d9b7 0f81 443e 0740 19ba dd7e 01be
000003b0: 220c bb36 8d56 1fb9 c03e 753b c293 e2bc
000003c0: 5986 2fb7 9104 2fbb 985a 9837 deba e735
000003d0: c840 8e3b 6b40 0ebd 6a0c a4b7 a5d0 de3c
000003e0: 258c d93c 98eb 64b8 14e0 8a3c 28eb 48b9
000003f0: baec f7bd d09b 8e3b 9ed8 6f3a f28c 2d38

fc4.bias f4 [7]
1.471083 -0.00026638148 -0.0004606331 -0.0001486596 0.00029345276 -0.00010931421 0.000179338
00000000: 734c bc3f 1ea9 8bb9 2181 f1b9 82e1 1bb9
00000010: 90da 9939 9f3f e5b8 ae0c 3c39
