environments/obstacle_estimator/fc_nn/relative/big_pos/model.pth (torch, 740475 bytes, 8 tensors)

fc1.weight f4 [300, 9]
000000 e0 1c 03 31 8a c9 99 b4 d8 19 79 b4 c0 c4 20 31
       1.9079422e-09 -2.864511e-07 -2.3199334e-07 2.3394904e-09
000010 49 40 9a b9 c0 52 4e 2b cb 14 99 ac 54 86 26 34
       -0.00029421065 7.330074e-13 -4.35083e-12 1.5508823e-07
000020 55 8e 4c 2c 40 e0 eb af 68 64 4d 36 cc 34 1d b3
       2.9069154e-12 -4.290559e-10 3.0605825e-06 -3.660243e-08
000030 20 b2 33 32 ec ab a3 30 80 18 bf 27 76 06 01 31
       1.0459672e-08 1.1908674e-09 5.3039712e-15 1.8775643e-09
000040 d9 47 bf b7 2c c8 87 ad f4 39 c6 33 d0 57 6f b0
       -2.2802431e-05 -1.5436617e-11 9.230635e-08 -8.707248e-10
000050 c8 8f 94 b4 80 49 ef b5 f8 13 5c b6 44 8a 18 38
       -2.7671763e-07 -1.7828279e-06 -3.2794178e-06 3.6368394e-05
000060 ec 6d c7 ad 72 1e 55 b5 49 6f b6 b9 69 cf a9 b8
       -2.2672496e-11 -7.9392987e-07 -0.0003479666 -8.097181e-05
000070 9c 4d 49 b5 10 ec b9 36 9c 1b 39 2f fc fd bd 36
       -7.499127e-07 5.540911e-06 1.6835461e-10 5.6622066e-06
000080 30 e6 21 30 00 76 8c 2a b8 62 21 2b 90 11 85 af
       5.8898575e-10 2.4950875e-13 5.733569e-13 -2.4205038e-10
000090 08 a6 fd 2e c6 d7 c8 b1 28 44 d5 2c 76 2e 8e b0
       1.1534601e-10 -5.8452967e-09 6.061391e-12 -1.0345065e-09
0000a0 36 aa 9e b4 e8 08 4b 32 b6 45 5f 2c e4 fe df 38
       -2.9553638e-07 1.181818e-08 3.1728903e-12 0.00010680946
0000b0 a2 51 c1 34 37 f1 6e af 4c 61 05 37 5b 43 4d b1
       3.6008447e-07 -2.173167e-10 7.950071e-06 -2.9869713e-09
0000c0 38 97 e4 35 a3 9d 23 38 78 90 67 b1 0a 59 f5 33
       1.7031334e-06 3.900904e-05 -3.3697045e-09 1.1424898e-07
0000d0 90 dd 85 36 f0 d4 51 30 8b b5 82 ad 54 f7 12 b8
       3.989502e-06 7.633636e-10 -1.485991e-11 -3.5039455e-05
0000e0 45 41 88 2c b0 d9 51 34 3e e3 59 35 0a 51 87 b4
       3.872599e-12 1.9543836e-07 8.116948e-07 -2.5204673e-07
0000f0 68 ee e1 b6 10 18 0b 38 b5 76 20 b4 23 a4 b1 2c
       -6.7332767e-06 3.3162592e-05 -1.4944347e-07 5.0488654e-12
000100 f6 9d 50 b8 1d ca 2b 2c 3f 36 ab ae a0 45 1b 2b
       -4.9738177e-05 2.4412757e-12 -7.785816e-11 5.5163686e-13
000110 c4 68 a3 b2 10 d0 2a ae ef 4a 1f ab fc 99 49 36
       -1.902334e-08 -3.883832e-11 -5.659214e-13 3.0040965e-06
000120 bd 78 e7 b7 38 19 81 af 0a e4 4a 2c 80 e1 da 2d
       -2.7593569e-05 -2.3482882e-10 2.8832514e-12 2.4883873e-11
000130 f0 a5 f1 2c 88 43 a8 b3 cc e9 84 b0 a9 d8 3d 31
       6.8680547e-12 -7.8353935e-08 -9.670713e-10 2.7626277e-09
000140 90 76 83 2e 22 0b b2 b0 20 82 63 ae 04 f0 53 33
       5.978251e-11 -1.2954369e-09 -5.17294e-11 4.934556e-08
000150 fa 5a 92 37 34 35 5d ac 7c 51 1a 2b 28 2b d9 b4
       1.744692e-05 -3.1435523e-12 5.4824873e-13 -4.04508e-07
000160 9b b6 4c 32 d0 33 31 aa 00 e9 3a af 33 8d e9 35
       1.19158825e-08 -1.5738734e-13 -1.699938e-10 1.7400947e-06
000170 e4 f0 07 34 3c fd b1 2b 86 1c 72 b4 d9 7e cd 2e
       1.266049e-07 1.2646893e-12 -2.2548383e-07 9.3448534e-11
000180 b8 47 bb ae fe f9 45 b4 16 1a 69 b6 38 1c e8 2a
       -8.516515e-11 -1.8438001e-07 -3.473489e-06 4.123106e-13
000190 4c 82 80 b8 cd c0 20 b3 fe b2 0c b9 90 85 d4 b3
       -6.127785e-05 -3.7428254e-08 -0.0001341812 -9.896314e-08
0001a0 40 91 7b b5 40 aa fe 34 2c ef 98 ae 7a 37 f3 29
       -9.3716153e-07 4.743506e-07 -6.954645e-11 1.08009914e-13
0001b0 31 c1 71 b2 20 3a eb ae 60 a8 05 2a 74 81 a7 30
       -1.4071973e-08 -1.0696888e-10 1.187119e-13 1.2187642e-09
0001c0 42 30 10 ab 00 d1 dc ab 94 22 22 37 e3 f4 3a 32
       -5.122605e-13 -1.5689949e-12 9.664003e-06 1.0882306e-08
0001d0 3d d7 85 2f 90 b8 16 af 00 ba d1 31 40 6c cc 2a
       2.4345495e-10 -1.370799e-10 6.1038463e-09 3.6312793e-13
0001e0 f0 fd d5 b2 e6 ff cf 2f bc 4b ab 2c e8 60 e8 b7
       -2.4911941e-08 3.7834907e-10 4.8685205e-12 -2.770168e-05
0001f0 60 a7 55 33 47 3f 5b ac fc 32 2c 34 78 da 88 2d
       4.9745154e-08 -3.1156898e-12 1.6037296e-07 1.555843e-11
000200 8c f5 44 ae e2 10 53 38 68 08 33 34 ba 87 8c ad
       -4.478333e-11 5.0322044e-05 1.6673732e-07 -1.5976432e-11
000210 31 5f 32 33 36 79 ae b2 f4 35 d5 b2 30 3c 58 2c
       4.153043e-08 -2.0311386e-08 -2.4820999e-08 3.0728857e-12
000220 58 bf 75 29 e0 16 cb 36 13 30 31 35 40 a2 75 b4
       5.4566892e-14 6.0525344e-06 6.6007595e-07 -2.2876429e-07
000230 7c 99 2c ae 68 a8 49 31 90 07 6c 2c a2 41 14 2a
       -3.9244594e-11 2.9345077e-09 3.3541815e-12 1.3167812e-13
000240 1c fa a3 b3 30 37 cb b1 93 c5 cb 35 e5 a0 07 b8
       -7.6357736e-08 -5.9143517e-09 1.518218e-06 -3.2336353e-05
000250 c0 ae 66 b0 a3 92 5e 34 5c 04 ee 38 1d a0 15 37
       -8.392185e-10 2.0728707e-07 0.00011349536 8.918371e-06
000260 3a 3f c8 32 00 6c 73 aa c2 8d 86 32 18 ea 5b b8
       2.3311816e-08 -2.1620206e-13 1.5664117e-08 -5.2431686e-05
000270 70 cc 5b b0 4d 4b b6 af 2e f0 8a 31 50 a3 81 31
       -7.996226e-10 -3.3159112e-10 4.043634e-09 3.7729606e-09
000280 4a 7e 3b b8 1a 81 b8 2b 32 4f a8 b6 e2 f1 eb aa
       -4.470189e-05 1.3109819e-12 -5.0160097e-06 -4.1912226e-13
000290 9c f3 7c b2 86 fa 89 31 9e 10 b8 2b d6 70 df 39
       -1.4723721e-08 4.015706e-09 1.3078599e-12 0.00042617944
0002a0 20 0b 6a 35 ca ef 90 35 3c da 97 af 90 bf a8 ac
       8.718798e-07 1.0798624e-06 -2.7621805e-10 -4.796115e-12
0002b0 88 f4 d9 ad f8 5b 65 b7 9d f6 75 b4 64 c3 ae 2d
       -2.4778637e-11 -1.3670877e-05 -2.290712e-07 1.986828e-11
0002c0 b0 13 46 b5 00 71 f0 2d fc 7b 00 2c 98 da 24 33
       -7.3789397e-07 2.7335023e-11 1.825872e-12 3.8383035e-08
0002d0 72 38 02 2d c0 7f 81 af 60 bf b8 2f 50 e2 6b b3
       7.402178e-12 -2.3555735e-10 3.3605385e-10 -5.492103e-08
0002e0 80 ba 1f 2e 80 5d f6 a9 c5 f9 40 ae c0 de 1b b6
       3.631806e-11 -1.0940814e-13 -4.3877586e-11 -2.3226457e-06
0002f0 f9 b7 c3 b7 80 b0 88 ab 1f 31 8d ac 9a b4 d4 2c
       -2.333148e-05 -9.71237e-13 -4.0129146e-12 6.045453e-12
000300 ee 8d 8c 36 90 f2 d4 37 24 eb d1 b4 74 3c 96 b6
       4.188848e-06 2.5385321e-05 -3.910037e-07 -4.477386e-06
000310 88 9a 5f 2b 9a ae 9d 33 c4 3a 34 b0 f2 7c 87 b3
       7.943997e-13 7.342642e-08 -6.556713e-10 -6.309155e-08
000320 60 28 71 b4 18 e1 2b ae 88 4c 4a b8 4e 0d a5 2d
       -2.2459562e-07 -3.9080822e-11 -4.823183e-05 1.8764237e-11
000330 97 a6 4a b5 40 3a 51 aa e0 1f 85 30 57 d5 b9 b0
       -7.5493284e-07 -1.8583139e-13 9.686083e-10 -1.3521156e-09
000340 38 83 04 38 75 55 79 b2 26 c7 36 b9 60 08 0e a9
       3.159346e-05 -1.4513138e-08 -0.00017431061 -3.1537598e-14
000350 3c be c9 2b d7 5a ac b9 40 5d ef af e0 35 1f b8
       1.433471e-12 -0.00032874077 -4.3540105e-10 -3.795873e-05
000360 66 4e 32 2d ef cd 17 33 48 71 a8 b3 5f 68 6c b6
       1.01355365e-11 3.5344723e-08 -7.8437154e-08 -3.5227492e-06
000370 7c 59 89 2e 66 b7 cd 37 f4 28 b2 ae ae 7f b4 b2
       6.245934e-11 2.4523306e-05 -8.1017776e-11 -2.101282e-08
000380 45 b7 22 31 95 1a c8 2d c5 41 96 ae e5 4c 99 b6
       2.367828e-09 2.2749172e-11 -6.832893e-11 -4.568707e-06
000390 e0 fb 43 b3 70 72 47 36 cb 7a ef ad 84 84 b2 ab
       -4.5631054e-08 2.9719922e-06 -2.7225685e-11 -1.2684441e-12
0003a0 90 e3 79 2a ba 1d 76 2d 21 c7 3c b6 b9 94 23 2f
       2.2194594e-13 1.3990082e-11 -2.8130091e-06 1.48776e-10
0003b0 ac 2d b3 b6 e4 b2 69 b3 d6 5e 24 b8 30 07 51 2f
       -5.3399326e-06 -5.441224e-08 -3.918897e-05 1.9010993e-10
0003c0 a4 81 29 b2 00 5f f2 28 ee 62 15 32 e0 52 44 af
       -9.866572e-09 2.6908597e-14 8.6954355e-09 -1.7855539e-10
0003d0 92 f9 f3 b2 bc ec 9d ac 15 fa ec ae 26 d2 37 2d
       -2.8402415e-08 -4.488491e-12 -1.0776461e-10 1.0449008e-11
0003e0 90 bf 0f b4 26 35 b8 ad 4a 22 8a b8 1c b6 07 39
       -1.3387603e-07 -2.094198e-11 -6.5867396e-05 0.00012942444
0003f0 89 fc 4e 2e 30 d9 8c ab 40 c6 dc af 64 08 25 b2
       4.7063273e-11 -1.000788e-12 -4.0158632e-10 -9.606172e-09

fc1.bias f4 [300]
000000 0c 81 5f 31 c4 80 e3 2d fa f4 40 2f 92 76 13 b5
       3.2524126e-09 2.5864096e-11 1.7549331e-10 -5.493431e-07
000010 00 55 f3 b8 40 d7 ef b4 fd b9 5f 2d 10 2d 0f 34
       -0.000116029754 -4.4673834e-07 1.271738e-11 1.3334306e-07
000020 05 4d db 2b 4a 72 99 b4 24 06 99 b5 c8 16 fc ad
       1.5582263e-12 -2.8581627e-07 -1.1401175e-06 -2.86592e-11
000030 5c 2a 97 2b 48 94 de 34 00 eb e4 2a d4 cb 89 33
       1.0740952e-12 4.145861e-07 4.0664e-13 6.416636e-08
000040 cf 4c d8 35 3a e8 39 b5 df 6a e9 37 5a 90 64 aa
       1.6115608e-06 -6.9255805e-07 2.782553e-05 -2.030055e-13
000050 c4 17 4f ab d8 a9 ca 33 ac 7b ca b6 66 b6 2f 33
       -7.3574155e-13 9.4372524e-08 -6.0344664e-06 4.0911253e-08
000060 70 0c 1c ab b0 5c 36 b7 50 6b af 2e ca 3d ac ae
       -5.5439594e-13 -1.0869626e-05 7.977141e-11 -7.8326304e-11
000070 54 c9 13 b7 5e f3 72 b3 c9 2e 3d 36 7f da bc 30
       -8.808758e-06 -5.6566357e-08 2.8190427e-06 1.3740901e-09
000080 e2 f1 a5 b3 18 8c d2 b3 01 87 8a 30 40 fc d6 2b
       -7.7274095e-08 -9.80437e-08 1.0079192e-09 1.5275628e-12
000090 ba 6e ec b4 88 0e 7b 2b 14 07 95 33 3e 5e be 36
       -4.403899e-07 8.919328e-13 6.939641e-08 5.6734125e-06
0000a0 f7 4d a1 aa f8 7a 51 af a0 e2 1e 36 54 1f 32 b6
       -2.8653444e-13 -1.9052127e-10 2.3675748e-06 -2.6542302e-06
0000b0 88 b0 74 b5 4c 93 7a 36 74 65 03 ab 72 83 a0 36
       -9.115397e-07 3.733864e-06 -4.6681344e-13 4.783674e-06
0000c0 42 a1 87 b8 4a 97 01 34 38 9b 6f b5 e0 f3 75 2d
       -6.467338e-05 1.20691e-07 -8.926031e-07 1.3980789e-11
0000d0 94 23 11 30 dc 84 f4 2c ae d7 c9 36 b8 df 97 b4
       5.280125e-10 6.9496475e-12 6.015375e-06 -2.8288719e-07
0000e0 0c fc 6f aa e2 4a 68 35 55 d1 40 2c 6c 72 9f af
       -2.131491e-13 8.6535704e-07 2.7401044e-12 -2.9003233e-10
0000f0 b0 77 71 34 4c 14 e2 31 f6 c2 d4 37 aa 28 06 ab
       2.2488416e-07 6.579773e-09 2.5363155e-05 -4.7662796e-13
000100 dc e8 05 39 03 dc 8f b1 aa cc 1f ab 80 7d 7f ab
       0.00012770615 -4.18686e-09 -5.6772176e-13 -9.0768365e-13
000110 81 50 6b 35 36 98 5f b7 5e 48 3a ad 84 6a 82 ac
       8.766147e-07 -1.3327275e-05 -1.0588945e-11 -3.706648e-12
000120 33 c8 0c 2b c3 22 c8 b3 da 54 25 b5 c0 0a 9a b5
       5.0015824e-13 -9.319549e-08 -6.1590765e-07 -1.1477023e-06
000130 e4 8a 41 2b 86 94 9f aa 60 2c 0e 32 2c cf 29 2a
       6.8760123e-13 -2.8347133e-13 8.275578e-09 1.5082092e-13
000140 92 1d 01 2c 9e 53 73 aa e8 97 18 35 90 c5 d8 36
       1.8348417e-12 -2.1611746e-13 5.6845465e-07 6.460301e-06
000150 ea 53 51 ac cc 54 4d b6 a0 b9 c0 30 4c 12 fd b4
       -2.9747268e-12 -3.0596739e-06 1.4022596e-09 -4.7138235e-07
000160 a1 2f b4 b7 77 81 0f 37 e3 bb b1 37 de 19 4c ac
       -2.1479851e-05 8.553608e-06 2.1187536e-05 -2.9004503e-12
000170 40 12 10 32 94 96 f5 aa 27 3a 04 31 7e 16 10 38
       8.386053e-09 -4.3625227e-13 1.9241584e-09 3.4353223e-05
000180 94 27 ba b5 48 80 87 b2 f9 45 97 33 20 38 36 ab
       -1.3869599e-06 -1.5774404e-08 7.0442134e-08 -6.473728e-13
000190 d4 2b 46 ac fe d6 74 b3 5c f4 49 34 3c 8d 2a b7
       -2.8161822e-12 -5.700621e-08 1.8808481e-07 -1.0165673e-05
0001a0 cb cc 10 b0 2e ec 01 b8 74 7a 6c 38 98 05 20 31
       -5.2677923e-10 -3.0975956e-05 5.6380828e-05 2.3286244e-09
0001b0 9c f8 b4 2c ac f0 74 39 80 e6 98 ad 5c 5a 07 b2
       5.143509e-12 0.0002335931 -1.7382762e-11 -7.87858e-09
0001c0 cc ce d7 31 23 e5 dc 37 10 26 a4 b3 e9 c5 05 35
       6.2808336e-09 2.6332744e-05 -7.6437686e-08 4.983436e-07
0001d0 66 8c 8d b0 9e a1 24 b4 2e b8 24 33 70 d8 00 37
       -1.0299004e-09 -1.5332486e-07 3.8351736e-08 7.679788e-06
0001e0 98 02 a8 b3 66 c2 50 38 60 ed 2e 30 5c 00 2a b3
       -7.8235814e-08 4.9772112e-05 6.363816e-10 -3.9581536e-08
0001f0 50 f0 a3 34 e0 ca 67 31 08 3c f8 ac b0 03 20 34
       3.0535966e-07 3.3730245e-09 -7.0552487e-12 1.4902503e-07
000200 46 12 cb 35 57 62 58 31 a0 5e 23 34 aa e5 a3 37
       1.5129997e-06 3.1488037e-09 1.5214982e-07 1.953806e-05
000210 f5 bb d9 2a da 9c 96 2e 80 81 0f 32 de 3a 99 af
       3.8677365e-13 6.849073e-11 8.35314e-09 -2.7872366e-10
000220 68 84 d5 2a aa e9 76 2b 90 5b c6 b0 6f 23 f3 b0
       3.7928276e-13 8.772103e-13 -1.443242e-09 -1.7690648e-09
000230 9c 7b 37 aa c8 c7 0b 2a 76 fc 0e ac 33 05 0d ac
       -1.6296551e-13 1.2414993e-13 -2.0319558e-12 -2.0040191e-12
000240 ae 3c 0a ad 98 6e 4e 38 7c a7 5c ac 3c 14 61 b5
       -7.857865e-12 4.9217226e-05 -3.1356853e-12 -8.3848477e-07
000250 b0 3e f1 b5 ee 91 26 32 9c 03 43 36 b6 fd c7 ab
       -1.7974144e-06 9.695652e-09 2.9059365e-06 -1.4210219e-12
000260 89 70 93 36 5a fd 65 2e 4e 55 ad 30 48 6e 03 ab
       4.394042e-06 5.2293593e-11 1.2611652e-09 -4.6693595e-13
000270 0c 64 aa b7 44 32 d7 30 c0 2e dd aa e5 c1 08 b7
       -2.0312167e-05 1.5657595e-09 -3.9289925e-13 -8.151376e-06
000280 c1 e9 12 ac cc 42 21 b2 94 ad 00 b9 fa 59 c8 b8
       -2.0877607e-12 -9.386621e-09 -0.00012271694 -9.5535026e-05
000290 cc f2 40 2e b0 17 b2 2b 53 1a a9 36 ed 04 f2 2b
       4.3871393e-11 1.2654235e-12 5.039657e-06 1.7196501e-12
0002a0 a5 02 ba b8 59 f9 62 2b a4 d4 39 b5 3e 62 81 b7
       -8.869664e-05 8.063737e-13 -6.9227303e-07 -1.5423746e-05
0002b0 38 a6 a2 b5 60 9f 8a b6 8d 9c ed 30 3e c1 6e 36
       -1.2118317e-06 -4.131274e-06 1.7288514e-09 3.5577245e-06
0002c0 9e e8 6e 2a 80 f1 b7 a6 2c af 7a b6 a4 90 0b 2c
       2.1219352e-13 -1.2763635e-15 -3.7354866e-06 1.983338e-12
0002d0 2f 42 81 b1 46 cd 14 38 03 77 14 b3 76 af 36 ad
       -3.7619183e-09 3.5477125e-05 -3.4567176e-08 -1.0384462e-11
0002e0 00 e6 86 b3 60 8d fb 33 cc 8c 74 34 e8 7e 72 aa
       -6.281698e-08 1.1713814e-07 2.2775492e-07 -2.1537947e-13
0002f0 f7 f9 3f 31 0b bd 25 30 00 2d 5c 2c 77 f8 2b 35
       2.7936247e-09 6.0295297e-10 3.128886e-12 6.406403e-07
000300 55 fe d2 ac 36 47 9a 37 d6 35 99 32 c1 a6 e6 2f
       -5.9967955e-12 1.839139e-05 1.7836026e-08 4.1955242e-10
000310 01 21 67 ac c2 fe 96 2a 28 b2 3b 33 11 f8 b1 b8
       -3.2845395e-12 2.6822126e-13 4.3701363e-08 -8.486224e-05
000320 a4 2c b1 2d 1c 2c b0 35 6e 1a 15 30 7c 90 64 2b
       2.0142395e-11 1.3125859e-06 5.4243443e-10 8.1202384e-13
000330 bb c8 a5 35 c0 34 07 b0 54 26 45 36 23 f1 6f 34
       1.2351878e-06 -4.9187676e-10 2.9377597e-06 2.2346335e-07
000340 2c 3d ce b3 78 54 34 b0 8e ed 17 b9 14 15 e8 2a
       -9.6037496e-08 -6.5603656e-10 -0.00014488978 4.1226105e-13
000350 d8 8e 47 b5 10 b4 d4 37 c4 de 0f 35 78 13 8b b3
       -7.434114e-07 2.5356218e-05 5.359582e-07 -6.476233e-08
000360 80 34 1a a6 b9 42 8f b4 ec 63 ef b7 10 8f 71 ad
       -5.3500634e-16 -2.6684373e-07 -2.853755e-05 -1.373103e-11
000370 4b e0 03 2a 8a b9 b3 b3 fa c9 18 37 68 b6 ee 33
       1.1712955e-13 -8.3690864e-08 9.106932e-06 1.1115918e-07
000380 40 10 a5 34 78 0c 25 af 27 d6 32 36 40 f1 86 b0
       3.0745468e-07 -1.5011092e-10 2.664872e-06 -9.818351e-10
000390 59 a5 25 32 b2 57 a6 b3 44 14 7e 36 10 08 8d ad
       9.64186e-09 -7.745929e-08 3.7860746e-06 -1.6033425e-11
0003a0 ce 01 d5 b6 fa 26 80 2c 53 01 f2 ae 20 ec 23 b0
       -6.3481048e-06 3.642306e-12 -1.1005121e-10 -5.963461e-10
0003b0 25 ea c2 2f 3c c2 87 34 18 27 85 ad 3a 87 85 32
       3.5454764e-10 2.5287034e-07 -1.513771e-11 1.5544732e-08
0003c0 89 9d 9a 34 94 e8 66 2e a5 78 17 2c 87 a8 e6 b2
       2.8799357e-07 5.2502516e-11 2.1525362e-12 -2.6852161e-08
0003d0 5c 85 e2 aa e0 64 48 31 99 8b 82 2b 50 1a a7 ae
       -4.02382e-13 2.9161171e-09 9.275802e-13 -7.598955e-11
0003e0 f2 6b c6 33 88 5f b5 b6 ca 60 73 b2 f1 0c 87 2b
       9.2397286e-08 -5.4053417e-06 -1.4166469e-08 9.595919e-13
0003f0 08 0b 26 32 20 25 7d b3 c8 c2 9c b5 8e a1 87 2a
       9.66498e-09 -5.8939918e-08 -1.1679595e-06 2.4092918e-13

fc2.weight f4 [300, 300]
000000 58 96 a6 b7 8f 70 b2 b4 7b 22 01 33 ac 67 e5 b3
       -1.9858751e-05 -3.323698e-07 3.0066513e-08 -1.0682501e-07
000010 53 4f 45 b8 40 e7 ba ac 42 92 38 34 c0 e2 25 b4
       -4.7042337e-05 -5.312112e-12 1.7189544e-07 -1.5449314e-07
000020 fc 9f 75 ae a4 a3 a2 36 52 59 41 2b 94 c2 cf b4
       -5.5848645e-11 4.8470265e-06 6.869133e-13 -3.869833e-07
000030 b7 63 44 38 2e 4a c2 b4 68 5f 17 36 26 df 1b 34
       4.682291e-05 -3.618929e-07 2.2556287e-06 1.4516681e-07
000040 32 fd 9a b5 04 7a e8 ab 3c 8e c0 b8 92 6c 00 b6
       -1.1547584e-06 -1.6518458e-12 -9.181767e-05 -1.9136683e-06
000050 b2 75 75 ac 82 1e ce 36 00 9c e1 29 44 7c b5 b8
       -3.4881928e-12 6.14283e-06 1.0019069e-13 -8.653899e-05
000060 60 d6 a1 ac 0e 52 6e b1 66 7a 56 32 db cf b4 31
       -4.5996956e-12 -3.46802e-09 1.248427e-08 5.26232e-09
000070 5a 20 3a 36 d6 8a 94 ac fc de 76 b6 68 55 d1 ad
       2.773499e-06 -4.221827e-12 -3.678665e-06 -2.3798477e-11
000080 c8 e0 ae 2f 82 1b 16 b2 9e 96 86 32 34 5b a4 ac
       3.1810132e-10 -8.737404e-09 1.5668146e-08 -4.671286e-12
000090 21 33 10 af 94 54 c6 b9 ba 70 21 b0 69 6d b4 2d
       -1.3114888e-10 -0.00037828519 -5.8731653e-10 2.0512219e-11
0000a0 08 34 34 ab 00 c6 00 ad b0 31 b7 2e f8 16 cc b5
       -6.4021054e-13 -7.3199224e-12 8.330703e-11 -1.5205869e-06
0000b0 c1 27 6b 31 b8 0b 8d 32 80 2c aa ae bc 8c 43 b7
       3.4219598e-09 1.641989e-08 -7.73861e-11 -1.1655673e-05
0000c0 47 71 ec 2b c6 66 ae b6 40 9e 09 b0 04 46 7f b1
       1.6800249e-12 -5.1975685e-06 -5.0065196e-10 -3.7147183e-09
0000d0 de 46 c4 a9 c7 dc 0d b6 67 0c 3d b9 b2 5f 95 b1
       -8.716442e-14 -2.1139147e-06 -0.00018029065 -4.34735e-09
0000e0 ca d4 1b b7 58 35 f8 33 27 56 18 b0 33 2f 07 b4
       -9.288264e-06 1.1558103e-07 -5.541971e-10 -1.2590026e-07
0000f0 ac 48 6e 2c 7c c9 1b 35 30 c1 64 ad 47 ef 70 b5
       3.3862175e-12 5.80352e-07 -1.3003196e-11 -8.975516e-07
000100 09 2f 46 ac b5 6f 51 b0 63 48 1d b8 ef 56 21 33
       -2.8163602e-12 -7.61925e-10 -3.7499132e-05 3.75648e-08
000110 20 8a 91 33 20 1e 7a b2 94 14 3f b8 62 4c 1a b2
       6.7772135e-08 -1.4558765e-08 -4.5557113e-05 -8.981347e-09
000120 68 db d3 31 20 5c aa 2a cb 7b c8 b4 b4 83 8c b2
       6.165852e-09 3.026199e-13 -3.7342974e-07 -1.6358037e-08
000130 c0 55 4f b5 38 64 10 ad 85 21 7f 2e 64 5b 79 b3
       -7.723829e-07 -8.207705e-12 5.801006e-11 -5.805795e-08
000140 39 07 a8 36 d8 7b e4 35 9c 4c 60 b1 d4 fb 66 b2
       5.007631e-06 1.7023367e-06 -3.2639837e-09 -1.3445021e-08
000150 d2 3c 1f b2 fc e9 b5 37 21 7f 5d b6 7c f3 cc b0
       -9.268847e-09 2.1685839e-05 -3.3005565e-06 -1.4912156e-09
000160 d9 44 76 af 64 f6 ca b1 0a d9 45 35 14 01 1a ac
       -2.2398029e-10 -5.906985e-09 7.370405e-07 -2.1885315e-12
000170 54 b5 bd ad c4 b6 13 37 30 0a 06 36 e1 43 f6 b3
       -2.1567338e-11 8.804436e-06 1.9973486e-06 -1.1467615e-07
000180 32 65 95 2a 68 48 32 2e 01 f1 9c 31 d5 a3 50 2c
       2.6537935e-13 4.0536824e-11 4.5675965e-09 2.9649523e-12
000190 4c a3 7c ad 08 87 11 b5 2d 58 a1 31 3e 54 ac b5
       -1.4360801e-11 -5.4213206e-07 4.695741e-09 -1.2839516e-06
0001a0 c6 c6 a2 35 25 18 1c 2b 2c 4a 29 37 e9 04 3b 2c
       1.2127791e-06 5.545584e-13 1.0090454e-05 2.6577024e-12
0001b0 c0 d4 23 b3 65 1a e5 b3 5c dc 1d b7 d5 9f 85 b6
       -3.814489e-08 -1.06684446e-07 -9.409236e-06 -3.982316e-06
0001c0 e0 8f 60 2a b4 76 d3 b3 42 3d 25 2e 7a 34 9e 35
       1.9945113e-13 -9.847045e-08 3.7571064e-11 1.178719e-06
0001d0 c0 b5 0e 2a 3e e5 92 38 e8 be 89 39 27 94 18 2f
       1.2675191e-13 7.004522e-05 0.00026272913 1.3876954e-10
0001e0 d0 90 4c 2d 20 54 ec 2b 60 1d 21 31 28 ae b6 2e
       1.1628212e-11 1.6792158e-12 2.3445281e-09 8.307338e-11
0001f0 0d b1 eb 34 c0 f2 01 b6 30 2f 78 35 b4 47 6b b3
       4.3900982e-07 -1.9363797e-06 9.2455866e-07 -5.4780415e-08
000200 1c eb 04 b6 98 91 1e b7 dc e7 3c b1 54 63 ce 35
       -1.9806384e-06 -9.451433e-06 -2.7489397e-09 1.5377104e-06
000210 f2 e2 8b 34 b6 2f 8c 2d 20 16 02 2b c9 f4 88 b6
       2.6055892e-07 1.5937345e-11 4.621598e-13 -4.0816126e-06
000220 04 2e 38 38 4e 9a 31 2b b9 31 aa 37 b9 ae b6 b7
       4.3911874e-05 6.3097173e-13 2.0288733e-05 -2.1777452e-05
000230 15 81 30 ad 2e 42 11 34 20 8a 3a 2b e2 bf 8b 34
       -1.0033104e-11 1.3528253e-07 6.627216e-13 2.603038e-07
000240 60 09 da 2c 7e 2d 50 34 58 52 7d b4 30 97 bf 38
       6.1969735e-12 1.938806e-07 -2.3592418e-07 9.1357506e-05
000250 c4 3e 9c 30 00 f0 90 a7 70 34 35 b5 45 de c6 b4
       1.1368333e-09 -4.0228237e-15 -6.750406e-07 -3.7042096e-07
000260 82 7a df aa c4 d9 34 2b 10 f5 ad 34 29 f4 28 2f
       -3.9697764e-13 6.4251057e-13 3.2402068e-07 1.5366254e-10
000270 84 48 46 b4 e3 2f 3e 31 9e 95 b7 2a a1 ec 9d 36
       -1.8466568e-07 2.767586e-09 3.2611148e-13 4.706512e-06
000280 53 29 32 31 08 ea 0f 2f 54 25 e4 ac 76 f2 00 2c
       2.59259e-09 1.3088919e-10 -6.484294e-12 1.8324487e-12
000290 36 7f bb 36 5a 8d 06 b5 2d 1f 23 34 c4 35 4e b7
       5.5878436e-06 -5.0124584e-07 1.51919e-07 -1.2291075e-05
0002a0 de b1 c0 38 38 e2 38 b8 da f9 51 30 20 6b 38 ac
       9.188404e-05 -4.40797e-05 7.638882e-10 -2.620744e-12
0002b0 44 1b ac 34 51 e1 c0 36 fe 53 87 b2 5f fd a0 33
       3.2057335e-07 5.748276e-06 -1.5754264e-08 7.4966685e-08
0002c0 ee 4d c6 b6 fa bd 21 30 82 6d f7 2f a0 5a f2 2d
       -5.909932e-06 5.884143e-10 4.5006848e-10 2.755246e-11
0002d0 c0 3b ec a7 13 56 a6 b3 4e b3 80 30 7c f3 bd 30
       -6.556794e-15 -7.745634e-08 9.364187e-10 1.3820762e-09
0002e0 d0 7d 6f aa 6c ae 92 b1 30 19 95 b1 c4 c2 36 2f
       -2.1271114e-13 -4.2689887e-09 -4.3393342e-09 1.6621998e-10
0002f0 34 a1 5a ad aa ff 50 33 de e7 9e b3 f0 ec 15 36
       -1.242766e-11 4.86613e-08 -7.399625e-08 2.2340646e-06
000300 49 0a ba b6 36 cf 20 2e 50 cd 3f 28 a0 95 11 2b
       -5.5444293e-06 3.656383e-11 1.064715e-14 5.1721995e-13
000310 56 84 18 ae 64 24 3c b1 06 fa 32 b0 6a 95 ab b9
       -3.4678337e-11 -2.7378286e-09 -6.511133e-10 -0.00032726984
000320 80 71 1e b0 1c 71 05 38 bd 93 97 33 56 9b 8b b1
       -5.764136e-10 3.1815012e-05 7.058359e-08 -4.063092e-09
000330 40 25 9f 27 08 b0 62 35 84 2a a0 35 48 a9 0d 2e
       4.417175e-15 8.444772e-07 1.1933303e-06 3.221004e-11
000340 3e d9 99 34 7d 46 4f 2c 32 ff 1c 30 cc ea fd 33
       2.8656535e-07 2.9455598e-12 5.7115124e-10 1.182394e-07
000350 a0 e4 c0 a9 92 cf a1 30 f6 c4 78 38 81 7c e7 b1
       -8.566173e-14 1.1773287e-09 5.931124e-05 -6.7371393e-09
000360 c4 7f 94 b1 cc 0e 77 30 94 dd 92 2f 8d 3b 4c b0
       -4.321892e-09 8.9879104e-10 2.6714686e-10 -7.4299394e-10
000370 20 06 5c 30 7b 0d 00 37 2c c5 11 b6 9c 75 46 35
       8.004424e-10 7.632533e-06 -2.1721453e-06 7.393189e-07
000380 2a a2 8c 33 da db 00 2f 10 44 83 2f 26 ba 1e 2a
       6.5487555e-08 1.1719639e-10 2.3877123e-10 1.4097802e-13
000390 aa 75 7f 35 fd 54 ad b4 a4 e5 7f b0 9c 58 1e 2e
       9.5166126e-07 -3.2285598e-07 -9.30948e-10 3.600374e-11
0003a0 64 0e 62 37 f2 75 c9 b1 12 3e b4 ae dc d5 df 34
       1.3474e-05 -5.8632788e-09 -8.196478e-11 4.169259e-07
0003b0 7a d4 c1 2b d5 d1 74 b5 04 99 68 ad 9c 54 0d b2
       1.3772449e-12 -9.120243e-07 -1.32216495e-11 -8.226518e-09
0003c0 e7 56 18 b2 6d af fa 2e f3 4e d7 39 1c c3 40 2e
       -8.867324e-09 1.13998457e-10 0.00041066817 4.3829038e-11
0003d0 d0 07 37 b6 a2 09 4d b1 47 25 cd 2c 08 55 59 2d
       -2.7273672e-06 -2.9836902e-09 5.830589e-12 1.2353903e-11
0003e0 7c 24 f3 30 b8 fc 40 35 69 df dd af 0c 85 51 b4
       1.7690946e-09 7.189333e-07 -4.0358408e-10 -1.9513044e-07
0003f0 3b 14 ea 34 81 86 d9 b7 e0 af 39 2c b4 d6 c7 32
       4.3600616e-07 -2.593105e-05 2.6387711e-12 2.3264285e-08

fc2.bias f4 [300]
000000 d8 23 82 35 63 3f f4 b2 6e a8 59 b6 a5 e1 60 b1
       9.696187e-07 -2.8434163e-08 -3.2433559e-06 -3.2724554e-09
000010 06 d0 83 31 98 2c 4f b0 b8 4f c0 b4 00 cb ae ac
       3.8362513e-09 -7.5369533e-10 -3.582079e-07 -4.967915e-12
000020 3f 4b bc b1 42 72 69 34 e8 47 28 b3 90 d8 0a 2f
       -5.4800746e-09 2.1741383e-07 -3.9180946e-08 1.2627965e-10
000030 f0 99 02 b2 02 17 69 b1 2a d4 a8 b6 dc 95 84 b4
       -7.601997e-09 -3.391904e-09 -5.0314893e-06 -2.4695953e-07
000040 52 74 13 31 ff 68 8d b0 3e 7d b3 b7 b4 72 21 30
       2.1457436e-09 -1.0288942e-09 -2.1396783e-05 5.873446e-10
000050 1c 01 63 b2 c4 85 03 37 70 2f 6f b1 5c 57 43 31
       -1.3213391e-08 7.839353e-06 -3.4806042e-09 2.8425893e-09
000060 06 aa da b1 9e 29 d9 38 49 9a ae b3 4c 90 39 37
       -6.3639645e-09 0.00010355118 -8.130571e-08 1.1060456e-05
000070 60 17 85 36 2a 00 b9 b5 58 fe 48 31 a8 15 8d 38
       3.96643e-06 -1.3783622e-06 2.9248408e-09 6.727438e-05
000080 90 d5 0f b2 bf fb c9 33 1d 64 11 b9 a0 49 02 b7
       -8.372254e-09 9.405584e-08 -0.00013865573 -7.765746e-06
000090 00 84 d2 37 7a 8b 05 b1 b8 97 8f b0 79 2a 5a b0
       2.5095418e-05 -1.943333e-09 -1.044774e-09 -7.9368295e-10
0000a0 8b a2 97 b3 00 53 e5 b2 92 a0 89 b1 ea 8e 89 31
       -7.061052e-08 -2.6696853e-08 -4.0054795e-09 4.003472e-09
0000b0 df 7f 6a b4 24 1d 88 30 a0 cd cb b1 4a 01 08 b3
       -2.1839467e-07 9.903585e-10 -5.9314544e-09 -3.166614e-08
0000c0 ae 41 1a b5 a9 7f b0 33 7a 35 2c b0 67 2e 38 34
       -5.7465047e-07 8.21886e-08 -6.264923e-10 1.7153216e-07
0000d0 57 b6 37 35 8b a9 58 b1 a9 2c b9 30 34 a5 55 32
       6.843815e-07 -3.152851e-09 1.3473215e-09 1.2435795e-08
0000e0 30 60 cc b7 48 7e 37 b0 af c2 61 b6 42 a6 2f b5
       -2.4363486e-05 -6.675447e-10 -3.3640933e-06 -6.543452e-07
0000f0 01 a8 61 b1 30 56 44 b6 cd 5f 55 30 56 23 24 36
       -3.2837308e-09 -2.9256444e-06 7.762509e-10 2.4458473e-06
000100 56 4c 1b b7 48 6a 16 31 7c 83 89 b0 80 93 0a 37
       -9.256493e-06 2.1888287e-09 -1.0005432e-09 8.2597835e-06
000110 96 b4 a0 b1 6c dc 87 b3 c0 32 7c 34 34 28 b7 b0
       -4.677143e-09 -6.326522e-08 2.3487792e-07 -1.3326429e-09
000120 ca 73 83 37 2c d0 aa 32 18 fb 3e 2e ba 08 87 b1
       1.5670335e-05 1.988527e-08 4.3424014e-11 -3.930009e-09
000130 59 66 a3 36 0e 40 01 2f de 1f 90 b5 cd 66 ea b8
       4.8696934e-06 1.1755238e-10 -1.0738111e-06 -0.00011177138
000140 67 1c fa 35 89 79 fb 37 ba 3e 80 30 9a c5 c2 34
       1.8634718e-06 2.9978126e-05 9.331054e-10 3.627909e-07
000150 bc ae 83 30 67 d1 f7 b6 d0 4e da 31 a6 c1 2b b3
       9.581167e-10 -7.3855513e-06 6.353595e-09 -3.9990162e-08
000160 bb dd bd b8 6c 17 1a 36 86 c2 10 b1 71 29 22 b8
       -9.053523e-05 2.2961422e-06 -2.1065332e-09 -3.8662405e-05
000170 04 28 c3 36 9e a2 b6 30 44 c3 92 31 4a 14 ba b1
       5.8161113e-06 1.3288461e-09 4.2713584e-09 -5.415619e-09
000180 00 38 26 b7 de f0 4c 33 a9 18 e0 32 4b 51 eb 31
       -9.90741e-06 4.771652e-08 2.6088246e-08 6.848642e-09
000190 9b 24 fe b3 40 a3 c8 30 52 73 b6 30 a8 14 df 36
       -1.1834455e-07 1.4598314e-09 1.3275019e-09 6.6483226e-06
0001a0 dc 73 fe 30 c0 ce e2 b7 e1 52 2d b6 57 cd 17 b2
       1.8513862e-09 -2.7037575e-05 -2.582725e-06 -8.836046e-09
0001b0 3c 65 66 30 66 24 bf 31 a3 c6 88 b4 88 e0 a2 b4
       8.3817375e-10 5.5629696e-09 -2.54765e-07 -3.033822e-07
0001c0 9a f2 47 31 c0 e1 27 b1 71 c7 09 b2 c8 f2 45 31
       2.9096214e-09 -2.4430022e-09 -8.019797e-09 2.8805278e-09
0001d0 b2 ca 4c 31 38 9c 73 b5 10 0e 52 b2 98 4f 98 b0
       2.9801126e-09 -9.075188e-07 -1.2226806e-08 -1.1082077e-09
0001e0 98 8a aa b7 fa cd f1 36 e0 90 ff b3 c0 04 1e b0
       -2.0330117e-05 7.2063385e-06 -1.19007154e-07 -5.7486815e-10
0001f0 b6 c9 6d b5 fe fc 63 b9 20 e1 36 31 7a 4c 2e b1
       -8.858291e-07 -0.00021742654 2.6612454e-09 -2.5363804e-09
000200 95 d4 c6 31 c4 fa 86 b4 40 57 40 b5 1a a0 ab b3
       5.786726e-09 -2.51419e-07 -7.165254e-07 -7.99193e-08
000210 50 12 65 34 8a a1 d6 32 9c d2 23 b5 a1 f2 2b b0
       2.1333949e-07 2.4986338e-08 -6.102871e-07 -6.2554234e-10
000220 e8 51 af 37 f8 0f e0 37 7d 02 63 b7 c4 0b ee 30
       2.0899766e-05 2.6710317e-05 -1.3530834e-05 1.7320123e-09
000230 80 79 96 30 b8 70 4c b4 01 2a 78 b1 d0 6c 9d 31
       1.0948469e-09 -1.9039987e-07 -3.6112626e-09 4.581672e-09
000240 c4 69 0b 2f ac 83 9f b3 34 bc 68 33 c0 6e bf 31
       1.2679552e-10 -7.4279654e-08 5.418788e-08 5.5714224e-09
000250 84 a7 97 33 50 27 0c 36 14 ef f6 b4 5c d1 01 30
       7.061956e-08 2.0884509e-06 -4.5995023e-07 4.7227444e-10
000260 0b 9b 9a 31 e3 06 92 b7 18 b8 80 36 fe e0 7c 39
       4.4996162e-09 -1.7407763e-05 3.8361286e-06 0.00024116409
000270 48 00 bd b2 43 79 bc 31 45 97 ae b4 a5 b2 fb b9
       -2.2002624e-08 5.485306e-09 -3.252009e-07 -0.0004800755
000280 8e 00 54 37 00 fe dd 32 00 77 17 b2 15 12 cf b9
       1.2636314e-05 2.5843292e-08 -8.816414e-09 -0.0003949559
000290 a3 36 ad 31 04 44 b3 b4 4f e9 5d 38 2c 06 de b4
       5.041174e-09 -3.3390836e-07 5.290779e-05 -4.1355213e-07
0002a0 69 98 08 33 16 21 c3 b2 69 13 b5 b6 13 78 75 b5
       3.1803584e-08 -2.2716033e-08 -5.39648e-06 -9.1444343e-07
0002b0 38 61 98 35 12 48 f3 b6 04 5d d3 30 f5 55 66 34
       1.1353177e-06 -7.2503544e-06 1.5378707e-09 2.145169e-07
0002c0 2c 5b cf b0 b2 70 06 32 7e b6 cf b5 65 d6 85 38
       -1.5087145e-09 7.8254505e-09 -1.5475814e-06 6.381868e-05
0002d0 44 27 97 32 06 9f 80 38 94 b2 76 37 6f 84 b2 37
       1.759657e-08 6.133136e-05 1.4704321e-05 2.1280923e-05
0002e0 ae 3c bc b5 90 db e5 b4 cc d6 72 35 b6 cd 38 34
       -1.4024752e-06 -4.2814327e-07 9.0464596e-07 1.7211173e-07
0002f0 d3 66 ea b1 24 e3 ac b5 c8 b8 33 b2 44 c5 02 38
       -6.821986e-09 -1.2881105e-06 -1.0461186e-08 3.1178133e-05
000300 7f 80 0c 32 b0 2b 41 b6 90 f1 5f b5 2f 6e ab af
       8.178289e-09 -2.878467e-06 -8.3425493e-07 -3.118301e-10
000310 ec 4c 49 34 3b ce b7 b8 bf 6f 21 38 3a 6c 7e b7
       1.8747568e-07 -8.7645334e-05 3.8489463e-05 -1.5164778e-05
000320 40 09 bd af 66 e4 ac 32 9c 11 c6 b6 f2 f7 3a 37
       -3.4385472e-10 2.0127299e-08 -5.90291e-06 1.1144193e-05
000330 06 0f 4a b7 25 19 06 b1 dd ea 92 b5 ae 05 56 37
       -1.2043636e-05 -1.951386e-09 -1.0946202e-06 1.2756716e-05
000340 84 ad 21 b6 2c 3d 4a 35 40 a2 c2 b2 6e 84 e5 31
       -2.409187e-06 7.533988e-07 -2.2658355e-08 6.6798327e-09
000350 32 0e 8e 36 1a 9d cd b2 51 1b c3 37 b0 11 a6 b8
       4.2335823e-06 -2.3936582e-08 2.3258532e-05 -7.9187914e-05
000360 b9 66 5c 36 de 82 92 b0 b4 d8 99 37 d8 96 dc b8
       3.2842347e-06 -1.0660093e-09 1.8339932e-05 -0.00010518514
000370 bb dc 04 32 ea 9d 20 b0 68 b9 8b 34 c6 10 06 b3
       7.7335995e-09 -5.843207e-10 2.6025668e-07 -3.121456e-08
000380 10 8c 58 b0 20 7a 0a b2 ef d0 e3 34 c0 59 a2 33
       -7.8779383e-10 -8.060425e-09 4.2434064e-07 7.560038e-08
000390 51 f6 ff 30 e9 90 da 34 28 fa 85 38 ba b0 0c 34
       1.8623699e-09 4.07111e-07 6.3885294e-05 1.3102809e-07
0003a0 1e 35 f7 b6 68 6a ec 31 90 3b e1 31 e8 1f de 2f
       -7.3673573e-06 6.880601e-09 6.5551333e-09 4.0404236e-10
0003b0 10 c3 8b 30 a9 32 ea 31 8e 81 a7 37 10 22 35 b8
       1.0169021e-09 6.8160557e-09 1.996828e-05 -4.3185486e-05
0003c0 33 81 e6 35 e9 88 6e b1 be 87 90 35 37 60 fd b3
       1.7173937e-06 -3.4711383e-09 1.0768342e-06 -1.1798732e-07
0003d0 74 d7 ba b7 78 e1 46 37 42 8d 7a 31 0b 6e 9f b6
       -2.2273256e-05 1.1854216e-05 3.6460084e-09 -4.75138e-06
0003e0 ac f5 3e 32 66 f0 1f b5 42 bf 48 35 9c 3c 9f b1
       1.1115315e-08 -5.958194e-07 7.478412e-07 -4.6343995e-09
0003f0 84 4b 3b b6 d8 92 c0 b7 5f d5 b5 35 9e 5e 16 b6
       -2.7909127e-06 -2.2956563e-05 1.354765e-06 -2.2406816e-06

fc3.weight f4 [300, 300]
000000 d7 57 22 b1 0f c5 2a b9 86 02 fa b2 c5 6c 7b 37
       -2.3624034e-09 -0.00016285873 -2.9104978e-08 1.4986091e-05
000010 21 d5 5e b5 41 98 1a b8 c4 c5 81 b1 65 7e 33 b5
       -8.301159e-07 -3.685826e-05 -3.7768775e-09 -6.6866625e-07
000020 98 f9 be b6 da 9f 38 2f 1e f2 b8 b3 38 71 d7 b3
       -5.691498e-06 1.6791493e-10 -8.6122085e-08 -1.0032312e-07
000030 db c8 0f b8 a0 91 6a 31 a6 87 bd b6 98 e8 0f 36
       -3.4280918e-05 3.413426e-09 -5.6484305e-06 2.1444048e-06
000040 74 94 25 38 e0 95 a6 b3 b6 9f bf b3 33 06 fe 34
       3.9477323e-05 -7.7572395e-08 -8.923182e-08 4.7315697e-07
000050 8f fe 33 32 50 9f 03 36 4a 70 28 b6 e2 cf 62 b0
       1.0477051e-08 1.9613253e-06 -2.5099312e-06 -8.251374e-10
000060 d8 35 89 b1 60 49 5f 31 d2 72 08 b0 08 01 78 38
       -3.993346e-09 3.249248e-09 -4.963968e-10 5.9128768e-05
000070 c8 43 9d b1 da ee 83 af a7 78 23 b3 b6 b7 dd 34
       -4.577007e-09 -2.3998475e-10 -3.8061128e-08 4.1298125e-07
000080 56 5d a0 2f 7c 53 ce ad 28 4f 9d 34 12 e2 49 b2
       2.917015e-10 -2.3456563e-11 2.9301123e-07 -1.1751142e-08
000090 40 04 00 b7 ca b3 03 ad 18 32 ed 2e 4a 7f 72 35
       -7.630384e-06 -7.486409e-12 1.0786411e-10 9.0337255e-07
0000a0 9a 69 19 33 d6 31 37 b8 8c 6f da b2 60 08 1d 33
       3.5719133e-08 -4.3677013e-05 -2.5429266e-08 3.6562028e-08
0000b0 f6 1d c3 b0 e0 f9 eb 31 c0 66 4c 30 47 45 39 37
       -1.4196633e-09 6.8678077e-09 7.4360784e-10 1.1042989e-05
0000c0 a5 d2 13 b2 26 a1 c0 2f 24 9b e4 37 e6 98 5a b2
       -8.604421e-09 3.50391e-10 2.7251961e-05 -1.2724035e-08
0000d0 ad 21 f6 b1 3c 50 49 ae 53 98 b8 b1 c0 8b 85 b2
       -7.163371e-09 -4.577337e-11 -5.372422e-09 -1.5546789e-08
0000e0 a2 08 76 b2 91 8a 94 b1 bc 35 88 b6 76 c2 23 b1
       -1.43210475e-08 -4.32312e-09 -4.0593713e-06 -2.383016e-09
0000f0 e7 60 78 39 69 90 58 b2 80 f3 ee 35 40 9e 9b 30
       0.00023687222 -1.260569e-08 1.780325e-06 1.1322712e-09
000100 f8 1d 51 35 87 c0 b2 ad 0b 19 86 b0 04 8e 0c b8
       7.790218e-07 -2.0321756e-11 -9.756901e-10 -3.3510863e-05
000110 8b 6c 22 b8 b0 c5 e1 b1 ce 69 3d b1 b4 ee a0 b2
       -3.87249e-05 -6.5708363e-09 -2.7563263e-09 -1.8735001e-08
000120 f4 b8 56 b5 ba b5 a4 33 a2 75 91 36 84 37 8f 36
       -7.9990355e-07 7.669901e-08 4.335031e-06 4.268195e-06
000130 d8 0e bb b2 40 38 47 b2 60 a3 22 35 98 4a e5 b6
       -2.1776415e-08 -1.1596114e-08 6.0587445e-07 -6.8334157e-06
000140 14 5f 11 b8 d2 7f e9 34 00 76 d6 b0 3e 41 b1 32
       -3.4659242e-05 4.3492633e-07 -1.5604087e-09 2.063518e-08
000150 a4 fa ee b1 ec 83 8c 36 00 51 71 b4 24 b9 e1 b5
       -6.955206e-09 4.187683e-06 -2.2474342e-07 -1.6817689e-06
000160 c8 47 0b 33 ba 5e 7f 36 0c 4a f9 b3 e4 88 40 b5
       3.2428744e-08 3.80531e-06 -1.1608435e-07 -7.1724776e-07
000170 8a 7e 95 b2 70 a2 66 b4 5e 50 cc b4 48 e3 e1 ae
       -1.7403426e-08 -2.1479514e-07 -3.8056436e-07 -1.0272189e-10
000180 f9 38 96 b2 22 8f f6 31 70 d2 c4 34 92 c6 19 af
       -1.7488206e-08 7.1758146e-09 3.6660958e-07 -1.3985815e-10
000190 74 0c 06 af b6 59 b5 af d8 bc ca b3 80 88 b2 2b
       -1.2191653e-10 -3.2987452e-10 -9.4407085e-08 1.2685547e-12
0001a0 9d 41 00 b6 23 92 1e b6 68 06 46 30 37 96 ca ae
       -1.9111678e-06 -2.3628897e-06 7.2041084e-10 -9.21258e-11
0001b0 d2 5d 00 b8 6a de f2 b4 da 62 99 2f a5 63 b0 b5
       -3.0604955e-05 -4.523784e-07 2.7900776e-10 -1.3142022e-06
0001c0 5a b7 47 b1 7c 32 ec b2 8c e7 a9 38 82 b2 87 32
       -2.9062535e-09 -2.7496974e-08 8.101677e-05 1.5797244e-08
0001d0 1e a8 0a b2 50 c0 5a b3 67 03 09 37 16 63 6e 2e
       -8.070883e-09 -5.0931988e-08 8.1666285e-06 5.420294e-11
0001e0 e4 93 74 b5 60 7f 2f b5 f0 89 13 b2 04 3c 84 b2
       -9.111229e-07 -6.5377935e-07 -8.5878895e-09 -1.5394114e-08
0001f0 9d 0c 80 2f fc a6 b8 36 d0 27 b1 2f fe 53 8c 32
       2.3292027e-10 5.503067e-06 3.22244e-10 1.633634e-08
000200 f7 36 19 b8 0d d4 1e 38 65 4b 3f b7 6e d8 8d 37
       -3.6529233e-05 3.7867623e-05 -1.1402041e-05 1.6909293e-05
000210 48 f2 f8 b5 34 6f 88 31 94 26 67 36 a2 90 c5 2d
       -1.8547953e-06 3.9707633e-09 3.4444138e-06 2.2460537e-11
000220 6e 34 7c 33 a2 18 1b b2 68 48 10 b9 70 db ad 37
       5.8721007e-08 -9.027788e-09 -0.00013759884 2.072539e-05
000230 c8 f3 36 34 f7 09 5e 30 30 06 66 b7 aa 31 fd ad
       1.7038758e-07 8.077729e-10 -1.3710509e-05 -2.8784825e-11
000240 cc c5 af 31 b0 cd a8 36 02 79 a5 b5 f4 a7 bc 36
       5.1156572e-09 5.0307353e-06 -1.2328676e-06 5.622389e-06
000250 f4 a8 07 b2 08 66 45 38 87 d9 b4 af 36 9d dd b3
       -7.89645e-09 4.7063484e-05 -3.2896372e-10 -1.0319711e-07
000260 ea 61 75 33 7c d9 7a b2 32 b3 1f 34 f7 b3 2e b4
       5.713256e-08 -1.46013655e-08 1.487322e-07 -1.6270484e-07
000270 54 58 d1 36 f8 68 19 38 80 4b d5 b6 46 e8 13 36
       6.238968e-06 3.6575802e-05 -6.356684e-06 2.2039908e-06
000280 1c 95 54 36 32 31 02 b1 ee 1f 8a 38 86 c6 27 32
       3.1677255e-06 -1.8945454e-09 6.5863e-05 9.765818e-09
000290 fd 47 8c b5 98 f4 26 b7 a1 4f 25 36 f4 9c 34 b6
       -1.0451764e-06 -9.95132e-06 2.4633266e-06 -2.691345e-06
0002a0 d6 cf c8 2f c2 22 37 b8 f8 53 20 31 38 7b ea 32
       3.6527464e-10 -4.366297e-05 2.3330795e-09 2.7297219e-08
0002b0 d2 a8 a5 b6 f0 37 8f 36 f9 4b 8d 38 a9 23 d1 b5
       -4.9370365e-06 4.268244e-06 6.737555e-05 -1.5582092e-06
0002c0 a0 f0 a8 ac 7c c6 f4 b0 72 98 06 2e e6 c4 cc 37
       -4.801562e-12 -1.7809749e-09 3.060347e-11 2.4410383e-05
0002d0 6c 7a 95 b7 2e 4e 4c 35 6e 83 2c b5 af 43 02 32
       -1.7819191e-05 7.610969e-07 -6.426625e-07 7.582385e-09
0002e0 dc e1 a2 38 64 52 92 36 1a 07 ce b4 28 c0 cb b2
       7.7668315e-05 4.3607306e-06 -3.8375657e-07 -2.3719693e-08
0002f0 d7 a1 16 33 c4 d5 05 31 6a 6b 36 31 26 d1 86 b2
       3.507179e-08 1.947556e-09 2.6545544e-09 -1.5694763e-08
000300 ac 05 41 b8 55 12 48 b4 f6 f9 2d b7 10 38 07 b5
       -4.6020068e-05 -1.863312e-07 -1.0369802e-05 -5.0373e-07
000310 06 e8 29 37 88 3f fb b7 e8 36 d2 35 f6 df 1e b1
       1.0127207e-05 -2.9951116e-05 1.5662199e-06 -2.3119333e-09
000320 8f 1f db 31 1a 26 11 34 b0 4c 8c 32 2c 69 97 b1
       6.3773267e-09 1.3518039e-07 1.6333018e-08 -4.406635e-09
000330 36 41 be b7 42 a3 b9 b0 14 a8 57 b2 95 fd 22 37
       -2.2680131e-05 -1.3506922e-09 -1.2552864e-08 9.714994e-06
000340 2c de e8 37 e8 e5 91 33 c4 ed 02 b4 56 8e 0e b7
       2.7760012e-05 6.7939084e-08 -1.2193692e-07 -8.497e-06
000350 24 9b 56 b5 04 90 6c af 60 8e 25 33 2b 7b 5d b2
       -7.994697e-07 -2.151524e-10 3.8546546e-08 -1.2891898e-08
000360 d4 12 75 b7 10 fc b3 b3 d6 74 15 33 d1 7a 01 39
       -1.4607522e-05 -8.381187e-08 3.4798028e-08 0.00012348151
000370 fe 56 27 30 c2 fe 03 2e bf 85 99 b2 e8 c2 83 33
       6.087787e-10 3.0012222e-11 -1.7872365e-08 6.135616e-08
000380 fc 27 16 b9 79 aa 9f b0 e2 7d 45 32 13 5d 13 b8
       -0.0001432001 -1.1617224e-09 1.1495532e-08 -3.5134213e-05
000390 2e 85 a6 33 47 75 1b b2 c8 20 98 b3 20 de 93 af
       7.7542026e-08 -9.048853e-09 -7.0840144e-08 -2.6896974e-10
0003a0 d0 a6 05 ad 20 35 1c b5 3c 8f ee ad 0f 5d 28 b6
       -7.5972145e-12 -5.8191836e-07 -2.7121076e-11 -2.5088118e-06
0003b0 c2 15 9d 33 20 23 b8 2e 29 d9 fb b3 18 19 f1 34
       7.31484e-08 8.373591e-11 -1.17275995e-07 4.4908006e-07
0003c0 24 c8 1a b6 7d b6 19 2f 6c 38 66 b2 d8 4e f5 b5
       -2.3064285e-06 1.3980102e-10 -1.3400591e-08 -1.8276869e-06
0003d0 b0 4b 60 b2 d4 14 67 37 50 13 3c 32 d6 13 31 b2
       -1.3055725e-08 1.3773522e-05 1.0947431e-08 -1.0307266e-08
0003e0 cc a7 a6 b6 e2 0e d0 af db 8c 8a 33 ab 67 33 30
       -4.9667196e-06 -3.7845554e-10 6.451747e-08 6.526714e-10
0003f0 aa 8f b4 b3 77 45 43 b8 7a 62 87 b1 69 f2 e1 b7
       -8.4080355e-08 -4.6556317e-05 -3.9402126e-09 -2.6934971e-05

fc3.bias f4 [300]
000000 ce 83 1e 38 f8 b6 f2 b5 b6 10 5b b7 c4 20 40 37
       3.7792888e-05 -1.8083656e-06 -1.3057308e-05 1.1451721e-05
000010 2a 34 a2 b7 0c 52 ae b6 c4 de 9e 36 b0 4e 4f b2
       -1.9336196e-05 -5.1951556e-06 4.7347003e-06 -1.2066877e-08
000020 dc 59 91 38 50 13 61 37 ba ad f6 b7 ff 94 12 b7
       6.9308764e-05 1.3415542e-05 -2.9406383e-05 -8.736969e-06
000030 7e e2 b1 38 e8 b6 db 36 e2 29 55 b7 68 25 3f b7
       8.482205e-05 6.5480017e-06 -1.2705541e-05 -1.13931965e-05
000040 5f 13 1a b7 a6 00 83 b6 f0 89 cc b6 14 3d 05 38
       -9.1836255e-06 -3.9041797e-06 -6.095732e-06 3.1766554e-05
000050 3e dd be 33 e8 38 85 b7 f4 45 f4 b7 60 f6 23 38
       8.887808e-08 -1.5881335e-05 -2.9119641e-05 3.9091683e-05
000060 93 64 5d b8 26 84 dc 37 58 c4 93 b7 f0 68 ad 36
       -5.2784173e-05 2.628758e-05 -1.7615195e-05 5.168018e-06
000070 b3 ab d5 35 b8 93 44 37 49 1f 98 b7 ce b9 37 37
       1.5919708e-06 1.1716904e-05 -1.813438e-05 1.0950911e-05
000080 2a 31 09 b7 ee 30 43 b6 0f 33 dd b7 fb c6 0a b8
       -8.177283e-06 -2.9085745e-06 -2.6369029e-05 -3.308708e-05
000090 74 45 ad 38 92 84 86 37 70 0f 07 37 57 99 9c b5
       8.2622195e-05 1.6035778e-05 8.050221e-06 -1.1667533e-06
0000a0 3b 0c da b7 fd bd 88 b7 f6 43 6c 38 28 d5 11 b4
       -2.599332e-05 -1.6300934e-05 5.633008e-05 -1.3581723e-07
0000b0 f3 3e 07 b8 f7 ee 03 38 4c f3 1e 37 80 9f d0 38
       -3.2245134e-05 3.1455387e-05 9.474181e-06 9.947922e-05
0000c0 04 2c 13 b8 1c 22 61 36 7f f7 a6 37 bd 8c 2f 38
       -3.5088524e-05 3.3547467e-06 1.9903991e-05 4.1854324e-05
0000d0 8e 57 bb 36 1d a2 cc b7 e8 ef aa 36 d9 6f 31 b8
       5.583227e-06 -2.4394185e-05 5.0943236e-06 -4.2304255e-05
0000e0 5b 67 5a 37 6c 73 4e b8 94 b6 bd b6 c2 b2 29 b9
       1.3017877e-05 -4.9221722e-05 -5.653894e-06 -0.00016183688
0000f0 17 13 a2 37 33 c9 21 b6 94 1e 9c 38 a7 73 d7 36
       1.9320794e-05 -2.4107983e-06 7.444355e-05 6.420963e-06
000100 04 1d 8c b7 f1 a5 53 37 f4 ab 65 b7 a6 30 1a 39
       -1.6702812e-05 1.2615216e-05 -1.36895e-05 0.00014704707
000110 f8 d2 7a b7 97 d5 1b b7 4c 33 4f b7 a0 16 74 b8
       -1.4950281e-05 -9.28845e-06 -1.2350105e-05 -5.8195204e-05
000120 40 0c d8 b4 7e 80 50 38 cb ea 55 b6 8e 78 2d b8
       -4.0242048e-07 4.9710732e-05 -3.187614e-06 -4.135869e-05
000130 02 a4 a0 b6 f5 53 b4 b7 30 01 43 b8 97 3a 71 b7
       -4.7874646e-06 -2.1496768e-05 -4.649273e-05 -1.4378361e-05
000140 44 a7 f9 37 ee a0 df 36 c4 73 8c b6 e4 69 80 36
       2.9761002e-05 6.6646526e-06 -4.185802e-06 3.8270246e-06
000150 b0 9b 11 b8 2c 28 96 36 d6 d1 21 34 a4 41 25 b7
       -3.471569e-05 4.475025e-06 1.5070631e-07 -9.8500495e-06
000160 c6 ec aa 38 88 57 8c b7 9a 70 4c b7 1c df 02 b6
       8.150334e-05 -1.673006e-05 -1.2185565e-05 -1.9501376e-06
000170 38 1d 08 37 47 df 43 b6 66 43 bf b8 bc 4e c7 b6
       8.113035e-06 -2.9187229e-06 -9.120144e-05 -5.939828e-06
000180 13 7d 18 38 c0 9b 48 37 6c 15 dd 36 f0 cc 3a b7
       3.635611e-05 1.1957192e-05 6.588807e-06 -1.113418e-05
000190 c7 5a 90 37 78 79 e5 b6 98 46 d4 38 28 49 ba 37
       1.720841e-05 -6.8388727e-06 0.00010122097 2.2206994e-05
0001a0 39 77 a0 b6 0f 0b 9e 37 78 c4 8f 35 61 cb d2 b7
       -4.782251e-06 1.8840217e-05 1.071151e-06 -2.5128656e-05
0001b0 a1 bb 49 b8 8c 25 48 38 5d e7 02 b7 48 91 92 36
       -4.8096877e-05 4.7718684e-05 -7.802472e-06 4.368052e-06
0001c0 72 c1 18 b8 48 3a 01 37 36 af 59 37 30 5c ad b4
       -3.6419784e-05 7.702569e-06 1.2975002e-05 -3.2290836e-07
0001d0 c2 ad 6a b7 3e 9e 07 b8 f9 94 ed 36 d0 8a 52 38
       -1.3987943e-05 -3.2333883e-05 7.080493e-06 5.019718e-05
0001e0 06 0b 03 b7 fe 79 cf b6 30 9c e6 b7 15 c2 56 b8
       -7.810775e-06 -6.1832825e-06 -2.7490867e-05 -5.120233e-05
0001f0 a0 be 2a 36 68 f8 97 37 d8 8a c2 34 a2 bd 86 38
       2.5442932e-06 1.8116276e-05 3.6236338e-07 6.42494e-05
000200 1b a0 96 b7 2f 16 5b 38 cc 71 a2 b7 d0 a0 69 35
       -1.7955948e-05 5.223433e-05 -1.9364896e-05 8.7033277e-07
000210 b4 3e 98 b6 10 7c 91 b5 1c 19 ce b6 83 52 be 36
       -4.5372526e-06 -1.0839449e-06 -6.1422015e-06 5.672047e-06
000220 e1 16 e4 b7 18 0b a1 b6 96 d2 fd b5 f8 e8 0d 38
       -2.7190372e-05 -4.7994654e-06 -1.8911257e-06 3.383399e-05
000230 19 d2 95 38 34 08 08 b8 8a ee 14 b6 25 4f 6c 38
       7.1440074e-05 -3.2432567e-05 -2.2192567e-06 5.6340494e-05
000240 89 05 29 b5 47 a8 10 37 58 7a 40 b7 ab 49 9e 37
       -6.296546e-07 8.622249e-06 -1.1472577e-05 1.8869372e-05
000250 26 69 ef b6 7a d0 1e b7 50 6b 2e 36 4d 7a 57 35
       -7.134996e-06 -9.466074e-06 2.5990485e-06 8.027171e-07
000260 76 68 65 38 c4 3b 4e b5 07 94 3a b8 26 3b ff 35
       5.469514e-05 -7.682795e-07 -4.4483717e-05 1.9016195e-06
000270 c6 5e 00 37 03 dc 87 39 ce 89 db 36 32 cc 94 38
       7.651461e-06 0.00025913128 6.542751e-06 7.095224e-05
000280 6b ee 7a 37 5e c4 f0 35 6d 33 92 b5 e8 8a 86 37
       1.4956672e-05 1.7938544e-06 -1.0892815e-06 1.6038728e-05
000290 8a 04 2e 38 30 a8 1c 38 ba cb a5 36 e7 4c 2c b7
       4.148906e-05 3.7349935e-05 4.9411e-06 -1.0269904e-05
0002a0 e8 1f a4 b6 f0 94 8e 37 2b 54 91 b7 e8 2f 19 b8
       -4.8912952e-06 1.6997074e-05 -1.732454e-05 -3.652266e-05
0002b0 04 8b 2a 35 0a 7b 21 b7 7e 2c bf 36 3f 99 b7 b5
       6.353223e-07 -9.624995e-06 5.697423e-06 -1.3679163e-06
0002c0 7a 8e 10 38 c8 16 b6 b7 d2 08 91 36 70 7c 7d b6
       3.4464967e-05 -2.1706699e-05 4.3223636e-06 -3.777237e-06
0002d0 25 61 2f b8 3c 3f 2a b6 d6 63 02 b8 89 a9 9e 36
       -4.1813724e-05 -2.5368781e-06 -3.1087395e-05 4.7285034e-06
0002e0 49 c7 96 b7 4c c2 89 b7 16 f0 46 37 b4 37 59 37
       -1.7974193e-05 -1.642215e-05 1.1857619e-05 1.2947177e-05
0002f0 b8 7c 47 b7 2e 83 8f b7 32 ff 3e 38 d8 1b 29 36
       -1.1890363e-05 -1.7108014e-05 4.55372e-05 2.519917e-06
000300 9e 7a f6 b7 2a 7d 81 37 ea 5f 23 b6 80 fd 11 b2
       -2.9382583e-05 1.5436282e-05 -2.4344722e-06 -8.49775e-09
000310 9d 7d b7 37 6f 00 42 37 20 dd 7c 35 3e a4 1a b8
       2.1873793e-05 1.1563402e-05 9.4199095e-07 -3.6869424e-05
000320 b4 e1 3d 37 7d 6d 65 b7 63 a3 0b b7 14 57 48 b7
       1.13178285e-05 -1.3674956e-05 -8.323087e-06 -1.1941203e-05
000330 88 a6 6d 34 72 5e 9a b7 41 68 85 b7 40 27 09 b6
       2.2132929e-07 -1.840221e-05 -1.5903383e-05 -2.0437437e-06
000340 0e 78 f6 b6 26 26 cd 37 ba 37 31 37 54 e1 7b b7
       -7.3453475e-06 2.4455669e-05 1.0562997e-05 -1.5013229e-05
000350 d6 c6 93 37 b2 35 7c b5 b2 7a 13 b7 aa 99 ae 37
       1.7616356e-05 -9.395545e-07 -8.79045e-06 2.0813972e-05
000360 fa 9c 84 b8 e7 b7 39 b7 fc 9e fb b6 3b ab 01 b7
       -6.32349e-05 -1.1069677e-05 -7.498891e-06 -7.728867e-06
000370 7a 8b 29 b8 a6 c2 34 b7 9d 40 86 b5 0a 53 1a b8
       -4.0422638e-05 -1.0774156e-05 -1.0002583e-06 -3.6793797e-05
000380 89 b3 df 37 4e c7 20 35 e0 15 6d 36 0c 2c 95 37
       2.6667274e-05 5.989467e-07 3.5328485e-06 1.7782695e-05
000390 22 41 0a b8 e4 f6 f2 b5 98 88 e1 b8 20 75 87 36
       -3.2962424e-05 -1.810226e-06 -0.000107542786 4.0369487e-06
0003a0 4e ef 0f b6 b8 96 24 37 90 76 ac 37 c6 e5 b9 b6
       -2.1447954e-06 9.810254e-06 2.0559208e-05 -5.540179e-06
0003b0 b4 28 bd 37 e4 48 95 37 a2 56 6e 38 48 21 36 38
       2.254951e-05 1.7796126e-05 5.6824305e-05 4.3423177e-05
0003c0 c8 46 41 35 c0 c2 0b b4 d6 7c a2 36 aa 85 9b b8
       7.2001103e-07 -1.3016233e-07 4.842509e-06 -7.415873e-05
0003d0 2c 03 d2 36 12 9e 18 b7 f0 be 1d 37 9b 12 7a b8
       6.258857e-06 -9.09671e-06 9.402385e-06 -5.9621972e-05
0003e0 6e 7e 0e 37 cd b0 35 35 53 f9 12 37 d5 d9 8c b7
       8.493296e-06 6.7685033e-07 8.7603285e-06 -1.6790736e-05
0003f0 4a 6a 57 37 f0 4a d2 b4 67 a4 9f 37 a4 19 55 33
       1.2839746e-05 -3.9170072e-07 1.9030833e-05 4.9616247e-08
