environments/obstacle_estimator/tcnn/simple/model.pth (torch, 234465 bytes, 124 tensors)

tcn.network.0.conv1.bias f4 [25]
000000 ae 6b 88 be 70 ad 3b bd 6b f2 e5 bd b3 ad 2c bd
       -0.26644653 -0.0458197 -0.11227878 -0.04215784
000010 04 72 fd bd 79 db f0 3b ac af 08 bc b9 46 3c bb
       -0.123752624 0.007350382 -0.008342665 -0.0028728677
000020 65 fa 1f be 28 9c 19 be 2a e0 61 be 1e 65 45 bd
       -0.15622862 -0.15000975 -0.22058168 -0.048192136
000030 2d 88 af be 6b de 81 be 80 3f 03 be 20 57 5a be
       -0.3428358 -0.25365004 -0.12817192 -0.21322298
000040 8d 2e e2 bd 0f 1e 4c bd ed 56 d6 bd c4 60 32 bc
       -0.11044035 -0.049833354 -0.104657985 -0.010887329
000050 18 a2 d9 bd 49 15 0b be f5 f7 8c be ff 2c f4 bc
       -0.1062662 -0.13582338 -0.27532926 -0.029806612
000060 ba 6c 47 be
       -0.1947507

tcn.network.0.conv1.weight_g f4 [25, 1, 1]
000000 52 b0 00 3f 6e 2c 35 3f d6 7c 04 3f 19 db 07 3f
       0.50269043 0.7077092 0.51752985 0.5306869
000010 45 ef ed 3e ad 31 f2 3e 11 2f e1 3e 6e 50 f1 3e
       0.4647161 0.47303525 0.4398122 0.47131675
000020 b0 0e f2 3e 24 a3 08 3f 25 ad f6 3e c4 79 0c 3f
       0.4727683 0.5337393 0.48178974 0.548733
000030 fe 09 f9 3e c7 c1 31 3f 77 82 fb 3e 00 03 0d 3f
       0.48640436 0.69436306 0.49122974 0.550827
000040 2e 17 0e 3f dc 95 1b 3f 10 0a 0e 3f f5 d1 19 3f
       0.5550412 0.6077554 0.55484104 0.60085994
000050 2b 45 00 3f 0c 6d 08 3f a9 38 12 3f 7c cf 0a 3f
       0.5010554 0.5329139 0.57117707 0.54222846
000060 aa 55 01 3f
       0.5052134

tcn.network.0.conv1.weight_v f4 [25, 16, 4]
000000 c2 cb 4e 3b 45 c8 56 bb 66 e9 9b 3a cb a3 22 3c
       0.0031554555 -0.0032773179 0.001189512 0.009926747
000010 2c 0e 12 3d b6 98 25 bb 8a 07 15 3d 05 82 08 bd
       0.035658047 -0.0025268025 0.036384143 -0.03332712
000020 5d 39 1c 3c 76 59 33 3d 6b 86 aa bd 06 96 f7 bc
       0.009535161 0.04378649 -0.083264194 -0.030222904
000030 78 e4 62 3d 61 69 70 3c 83 11 da bb 01 1c 0d 3b
       0.055393666 0.014673562 -0.0066549196 0.0021531584
000040 bf 00 b2 bc e6 01 bd bd e8 53 c9 bb 49 6e 6e bc
       -0.021728871 -0.09228878 -0.0061440356 -0.014552661
000050 fe 42 03 bc a8 21 15 3c 1a ed 9b 3c ac 91 6c bd
       -0.008011578 0.009102263 0.019033957 -0.05775611
000060 74 f6 90 bd 1d 81 da bc c1 ce 7c 3d fb 26 49 3c
       -0.07078257 -0.026672894 0.061720613 0.01227736
000070 ed 3b 93 3d 6b ca 96 bd ac ed d2 bd a2 4f bb 3c
       0.07189164 -0.07362827 -0.102992386 0.02286512
000080 95 83 34 3c e4 ca ce 39 05 eb 30 bb d0 17 53 3c
       0.0110177 0.00039442547 -0.0026995551 0.012884095
000090 b0 a9 d7 3c 28 5d 82 3d cf 42 af bb 08 60 0a bd
       0.02632603 0.063654244 -0.0053485404 -0.03378299
0000a0 7e 01 36 3c e1 ee 10 3b 1d d7 5e 3d 5d e4 0e be
       0.011108754 0.002211504 0.054404367 -0.13954301
0000b0 1a 09 4f 3d 8a d8 e1 3a ea 0f bd bb cf 1b 37 39
       0.05054579 0.0017230671 -0.0057697194 0.000174626
0000c0 87 a4 60 3e 4d 0c 47 be 18 da 19 bd f1 13 87 bd
       0.21937762 -0.19438286 -0.037561506 -0.065956004
0000d0 bd 09 b4 bb 19 23 39 3c ea 2e c8 3c b6 5e 89 bd
       -0.005494325 0.011299872 0.024436433 -0.06707518
0000e0 e7 35 b5 bd f9 f9 00 bd 89 e1 32 3d 54 7e 63 3c
       -0.08848172 -0.031488393 0.04367212 0.013885099
0000f0 ec 3f 3e 3e 0f 4d fa bd 5d 5d 90 3e fe 40 50 be
       0.18579072 -0.12221729 0.2819623 -0.20337293
000100 d9 71 a5 bb 19 cc ce b8 5e a3 96 3b 87 ae 01 bb
       -0.005048972 -9.8608616e-05 0.0045971116 -0.0019787864
000110 6f 73 1e 3d 78 9c 31 bd 1f 41 fa bc aa 7b 29 3c
       0.038684305 -0.04336211 -0.03054863 0.010344425
000120 83 b3 27 3d d4 7f eb 3c 63 e8 09 3d 73 57 3d 3c
       0.04094268 0.028747477 0.033668887 0.011556494
000130 ce 0e 94 bc 4a 13 fa 3b 80 61 f1 b9 c4 78 5c 3a
       -0.018073466 0.007631694 -0.00046039745 0.00084103295
000140 0e e4 09 3e e5 c9 c7 bd 77 ff 60 bc 31 00 d0 3c
       0.13465902 -0.09755305 -0.013732783 0.025390716
000150 cd 1d 74 3b 24 23 e7 3a 75 c7 55 3c 1e 2a ed 3c
       0.0037249208 0.0017634374 0.013048043 0.028950747
000160 e5 30 c2 3c 12 b8 b1 3b 61 ba d4 bc e3 73 24 ba
       0.023704955 0.005423554 -0.025967779 -0.0006273372
000170 a6 d2 4d 3d da 83 65 3d df 6d 01 3e 90 94 56 bd
       0.050249718 0.056033947 0.12639569 -0.052387774
000180 c3 76 cf ba e9 aa af 3a 2b 7d 8b 3b 0e c5 39 3b
       -0.001582824 0.0013402376 0.0042568645 0.0028346214
000190 49 e7 74 3d 5d 01 8e bd 54 82 8c 3c cb 75 97 3c
       0.059790883 -0.06933854 0.017151989 0.018488785
0001a0 2e a9 2f 3d ca 4d 49 3d 4d b1 06 3d 8c c8 65 3d
       0.04288595 0.04914645 0.03288393 0.05609946
0001b0 a9 df 6d bc ca 03 ac 3b 57 f5 27 3b 44 f3 0c 3b
       -0.014518657 0.005249475 0.0025628412 0.0021507302
0001c0 75 ee d6 3c f6 26 66 3d a0 ee 3f bd ff 5b a9 ba
       0.026236752 0.0561895 -0.04685843 -0.0012921094
0001d0 01 cd cd 3b 70 40 1c 3c bf d6 cb 3c 77 0d d4 3c
       0.006280542 0.0095368475 0.024882672 0.025885327
0001e0 b4 35 82 bc bd 42 da bb be cf 09 bd c5 9e b9 bb
       -0.015894748 -0.006660788 -0.033645384 -0.0056646788
0001f0 59 29 62 be 19 81 a1 bd 60 a3 f5 be e3 70 02 3e
       -0.22086085 -0.078859515 -0.47976208 0.12738375
000200 a6 1a a5 ba d7 c3 b5 3b aa 54 10 bc 60 92 18 bc
       -0.0012596443 0.0055470276 -0.008809248 -0.009312242
000210 32 9e 72 3c 7a 9a 61 3d e6 81 1d 3e bf 9f 59 3d
       0.0148082245 0.05507896 0.15381584 0.05313086
000220 7d f5 1f 3c 3b 8a 10 bb 01 2b be bc 51 85 8c bd
       0.009763119 -0.0022055048 -0.023213865 -0.068613656
000230 93 9b 40 bd 2d 53 2d 3b b9 3c 54 3b ff 3a dd bb
       -0.047023367 0.0026447282 0.0032384826 -0.0067514176
000240 8a e6 03 3d 3d 8e 2d bd 71 e5 6b bc 0e 21 01 be
       0.03220228 -0.042371977 -0.014397965 -0.12610266
000250 fa ab 16 bc 48 ac 92 bb 4e b9 52 3c ff 0f 3b 3d
       -0.009196276 -0.004476104 0.012861563 0.045669552
000260 8d 4b c6 bd e2 73 27 bb 68 2a 0e bd cf bb 1a 3c
       -0.09682379 -0.002555125 -0.03470841 0.009444191
000270 12 5f a4 bd f7 ef 9c bb b9 4a 7c bd 32 1d f4 bd
       -0.08025946 -0.004789348 -0.0615947 -0.11919631
000280 98 81 ea 3b 56 4b 08 3c 4d 10 ff ba e6 33 66 bc
       0.007156562 0.008318743 -0.0019459814 -0.0140504595
000290 a2 5b ec bd 21 ec 2e 3d 1a 6b 8d 3d 7e 43 42 3d
       -0.11540915 0.04270566 0.069051936 0.047427647
0002a0 e7 70 88 3c f1 70 34 bd 0b 7b 0f bd 70 80 14 3d
       0.016655399 -0.04405302 -0.035029452 0.0362553
0002b0 58 ec 3f bd 68 4f 59 bb f2 bf dd 3b 5e b4 07 3a
       -0.046856254 -0.0033158902 0.0067672664 0.0005176718
0002c0 9b 38 39 3e 2c fc 9a bd b9 88 83 3c cf f7 9c 3d
       0.18088 -0.07567629 0.016056405 0.07664453
0002d0 78 5f 69 bc ea 31 35 3c e7 51 53 3c 08 2b c5 bd
       -0.014243953 0.011059264 0.012897945 -0.09627348
0002e0 55 5f 99 bd b5 87 31 3c 0d ce 37 bd 74 d0 cd 3c
       -0.07488886 0.010835578 -0.04487424 0.025123812
0002f0 08 73 c1 bc ed 7b 5f 3e 77 5f aa 3e 06 fe 4b be
       -0.023614421 0.21824618 0.3327596 -0.19921121
000300 3e 80 f1 3b 6d 2a 00 bc 58 58 28 bc 3c 80 16 bc
       0.007370024 -0.007822615 -0.010274969 -0.009185847
000310 be 43 ce bc 20 1b 35 3d 90 0f 22 3b 49 06 35 3c
       -0.025178786 0.04421532 0.0024728514 0.011048862
000320 f0 d0 23 3d 5e 38 0f 3d 09 cd 87 b9 7c 3d 6a 3c
       0.03999418 0.034965865 -0.0002590197 0.014296886
000330 4b 51 f1 3b c0 52 38 3c c2 f3 50 3c 9b 70 c2 bb
       0.007364427 0.011250198 0.012753429 -0.005933834
000340 48 81 d9 bc 33 33 52 bd e8 d8 d4 3d f8 88 ea 3d
       -0.026550904 -0.05131836 0.10392934 0.11451906
000350 da 9d 27 bc 9c 5f 86 3c a9 25 78 3d 96 a3 18 3b
       -0.010230506 0.016403012 0.06058279 0.0023290864
000360 95 02 3b bd 6e de 0e bd ac 5a 9e ba 10 e5 b3 3b
       -0.04565676 -0.034880094 -0.0012081466 0.005489953
000370 ae 7d b0 bd 5d 81 26 3d b9 3e 02 3d d0 75 21 3d
       -0.086177215 0.040650714 0.0317981 0.039418995
000380 a0 c5 4a 3b a8 d9 3d bb ce cb 67 bb e6 65 d1 3a
       0.0030940548 -0.0028968845 -0.003536928 0.0015975803
000390 b7 5f f9 bc f2 da 5a bd b5 58 be b9 b9 5c 3e bb
       -0.030441148 -0.05343146 -0.00036305716 -0.0029046966
0003a0 fc 06 5a 3d 8a 80 65 3d 35 73 52 3d cd 4f c9 bd
       0.053229317 0.056030788 0.0513794 -0.09829674
0003b0 99 b0 6c bc af 77 74 3c ed 1a 19 3c 78 1c d9 bb
       -0.014446401 0.014921113 0.0093447985 -0.006625708
0003c0 84 ea be bd 89 1b fe bd ee ed e8 bd 74 8b 83 be
       -0.09322074 -0.12407596 -0.113735065 -0.25692332
0003d0 1d fc 52 bc 6e 76 fb 3b 71 f4 b7 3d 55 c6 3c bd
       -0.012877491 0.00767403 0.089821704 -0.04608758
0003e0 14 be 4a 3d a5 75 6a 3c 07 9b 1c bd 70 46 13 3c
       0.04949768 0.014310275 -0.038233783 0.008988962
0003f0 af e3 ae 3e 4b 33 85 bc 01 00 50 be 8b 41 68 3e
       0.34158084 -0.01625981 -0.20312501 0.22681253

tcn.network.0.conv2.bias f4 [25]
000000 be 64 14 3d 8e 12 04 bd fd b2 33 3d 10 57 f7 3c
       0.036228888 -0.032244258 0.04387187 0.030192882
000010 fc 7e 53 3d 26 99 17 bc 39 b3 97 3c 77 36 80 3d
       0.051634774 -0.009252822 0.018518077 0.06260388
000020 58 f0 16 3e 06 06 d0 3d e1 d0 cf 3d 35 f0 e3 3d
       0.14740121 0.10157399 0.10147262 0.111298
000030 07 4e 26 3d f7 28 b9 3d 22 d7 ed 3c 1d be fe 3c
       0.040601756 0.090410165 0.029033247 0.031096512
000040 10 e2 73 3d fa ca 1a bd 1c 34 05 3d e9 8a d1 3d
       0.059541762 -0.03779123 0.0325204 0.10231573
000050 31 34 c9 3c 49 f0 11 3d 64 a4 d8 3d a9 ad 99 3d
       0.02456102 0.035629544 0.1057823 0.07503826
000060 9c 1d 3d 3c
       0.011542704

tcn.network.0.conv2.weight_g f4 [25, 1, 1]
000000 3a 07 1d 3f 3e f0 e2 3e 05 8e 1d 3f 43 a1 3f 3f
       0.6133915 0.44323915 0.6154483 0.7485544
000010 67 a3 d2 3e e3 8a 16 3f 3f b8 cb 3e cb 9e f1 3e
       0.4114029 0.58805674 0.39789006 0.47191462
000020 66 6e 48 3f 45 93 37 3f 8b d0 14 3f de 06 2c 3f
       0.78293455 0.7170909 0.5813071 0.6719798
000030 fd da fc 3e a7 bd 20 3f e4 54 00 3f 78 ab 7d 3e
       0.49385825 0.62789387 0.5012953 0.24772441
000040 f4 97 c7 3e 6c 2d fe 3e a9 17 59 3e dc 59 23 3f
       0.3898312 0.4964403 0.21200432 0.6380899
000050 c2 f4 dc 3e 51 0f 06 3f c3 cc 1b 3f cd bb 3b 3f
       0.43155485 0.5236712 0.60859317 0.73333436
000060 ed 2d 28 3f
       0.6569508

tcn.network.0.conv2.weight_v f4 [25, 25, 4]
000000 82 ad 7a 3d 5b df 9b bd fc a9 1b 3d d7 12 21 3d
       0.061200626 -0.07610961 0.038003907 0.039324608
000010 d8 92 4c 3d c4 da c9 3d 60 09 dd 3c bb 38 8b bd
       0.04994473 0.09856179 0.02698201 -0.0679793
000020 b0 cf b7 3b 04 32 e0 3c 16 db ed bd 0e a9 05 bc
       0.005609475 0.0273676 -0.11614053 -0.008157982
000030 1e da dd bc 6c 49 e5 bc 5b 4f 10 bd 49 d2 86 be
       -0.027081545 -0.027989112 -0.03523193 -0.2633231
000040 30 85 e7 3d 5b f2 4d 3d a4 04 45 3c 33 e0 85 bd
       0.113047004 0.050279956 0.012025032 -0.06536903
000050 4d 79 8f bd 45 d5 78 bc ce 45 8b 3d 07 3a 88 bc
       -0.07005558 -0.015187566 0.068004236 -0.016629232
000060 9f bd be 3b b2 fd 28 bd 05 d7 43 be 4d 3a e3 3c
       0.0058209444 -0.041257568 -0.19124992 0.02773776
000070 d3 e7 1b 3d 8a a5 0e bc 0b 26 bf bc 9c 1b 0e 3d
       0.03806288 -0.00870646 -0.02333357 0.0346943
000080 b8 3c 54 3d 13 83 99 bc 94 55 10 3d 1e e2 01 3d
       0.05181572 -0.018739259 0.035237864 0.031709783
000090 90 f7 e9 3c 1e 2b 3b 3c d7 da b9 bd 96 66 63 3d
       0.02856043 0.011423854 -0.090749435 0.055517755
0000a0 b2 62 5d bc 90 f3 b0 bd 70 71 c2 b9 98 73 82 be
       -0.0135123 -0.08640206 -0.0003708708 -0.25478816
0000b0 a5 ba 35 bd 2c ec 6d 3b 18 ca 1a bc 74 c0 61 bb
       -0.04436745 0.00363041 -0.009447597 -0.0034446986
0000c0 18 cc 7b bd e5 6d 89 3c a8 20 38 3d 61 e2 4d 3d
       -0.061473936 0.016776035 0.04495302 0.05026472
0000d0 ff df c3 3d 0e 5d f5 3d 1c e6 9e bd 78 55 e8 bd
       0.09564208 0.119806394 -0.07758734 -0.11344427
0000e0 79 3b 4d bd 39 b6 7b bd 59 8a c7 bd fa fd 21 3c
       -0.050105546 -0.061453078 -0.097431846 0.009887213
0000f0 30 4f 0c 3c 90 ed 67 3d 62 9a 0f bd e5 e2 0d bb
       0.008563802 0.05662304 -0.03505934 -0.0021650132
000100 62 03 ff 3c 14 59 ae bd dc a9 b1 3d 42 cd 60 3d
       0.031129543 -0.08513084 0.08674976 0.05488325
000110 7a 09 b7 bb 76 e5 09 be ab 22 a6 3d 53 ab 24 bd
       -0.0055858465 -0.13466439 0.08112081 -0.04020245
000120 38 1a e3 bb ba c3 bc 3c ce c5 9f bc ae b4 b5 3d
       -0.0069306158 0.023042548 -0.0195035 0.088723525
000130 35 e1 ad 3d 17 48 85 3d 8a f6 d1 bd 4c f7 95 3d
       0.084902205 0.06507891 -0.10252102 0.07322559
000140 20 7d 68 bc 1f 55 d0 bd 96 36 da 3c 59 66 55 be
       -0.014189988 -0.101724856 0.026637357 -0.20839824
000150 2c 41 44 bd d2 ba 07 bb f9 52 47 bc 76 b8 e6 3c
       -0.047913715 -0.0020710719 -0.012165778 0.02816413
000160 12 ab 1a bb 29 0c ad bc b7 b2 55 3d d4 3f 25 3c
       -0.00236005 -0.021123962 0.05217239 0.010086019
000170 c4 25 c4 bc bd 83 58 3d 50 b7 3f 3d ac 62 45 be
       -0.02394379 0.05286001 0.04680568 -0.19275922
000180 cf e9 c3 3b 0f 38 62 bc d3 f1 89 3b 81 b1 35 3d
       0.0059788 -0.013807311 0.004209736 0.044358734
000190 79 d9 a2 bd 71 a0 b7 bc 93 83 94 3d ce fc df 3c
       -0.07951636 -0.022415372 0.07251658 0.027342226
0001a0 71 a1 c7 3c 60 e7 7d bc d8 3a 8e bd 7c cf 16 be
       0.024368973 -0.015497059 -0.06944817 -0.14727587
0001b0 ef e1 80 be df 69 14 3d 40 d4 5f 3c c6 a1 be 3c
       -0.25172374 0.03623378 0.013661444 0.023270499
0001c0 42 ad e0 ba e5 42 27 be 11 2e 4f bd 1c 60 11 3c
       -0.0017141479 -0.16334112 -0.05058104 0.008873012
0001d0 7f 6a 69 3d 88 3c c5 3c ee d2 25 be fe d4 61 be
       0.05698633 0.024076715 -0.16193745 -0.22053906
0001e0 a2 ad 37 3c 51 b6 4a bd 4e 46 d4 3c ff 58 ad 3c
       0.011210831 -0.049490277 0.02591243 0.0211606
0001f0 42 b5 f6 3d b2 44 78 bc a4 6b 56 bd 24 9e 12 3d
       0.12046291 -0.015153097 -0.052348748 0.035795346
000200 ae 84 8f 3c 2c 57 f8 bc 44 c2 2c bc de e9 e7 3c
       0.017519321 -0.030315004 -0.010544363 0.028309759
000210 eb b5 e1 bd 39 9d 23 3d 98 a0 34 bc b8 67 c8 3c
       -0.11021026 0.03994486 -0.011024617 0.02446352
000220 e9 88 1a 3c 40 63 5e bd 32 12 07 3d fd f1 c2 3d
       0.009432056 -0.05429387 0.032976337 0.09518812
000230 fa 0b 38 3c 61 68 91 be e8 e4 f3 3d 81 72 3e 3c
       0.011233324 -0.28399947 0.11908895 0.01162398
000240 20 f2 f5 3c 25 20 d8 3b 8b 26 c5 3c de 23 ad 3c
       0.03002268 0.006595629 0.02406623 0.021135267
000250 4a 6d 19 3d 0b 40 bb 3c ea 30 64 3d a7 2d e3 3c
       0.03745774 0.022857687 0.05571071 0.02773173
000260 54 87 52 3d 06 d2 c3 38 d5 e2 4e 3d cb bd 30 be
       0.05139859 9.3374445e-05 0.050509293 -0.172599
000270 65 35 23 bd c8 a0 7c be 3b fc 92 bc 94 4b a2 3d
       -0.039845843 -0.24670708 -0.017942538 0.07924572
000280 f3 f7 9c 3d 3e 11 d0 3c 33 61 d8 bc 7c bb 40 3d
       0.0766448 0.025398847 -0.026413536 0.0470538
000290 29 04 47 3d bb 32 86 3c 91 36 c2 3d b9 b1 3f 3d
       0.04858795 0.016381612 0.09483064 0.04680035
0002a0 cf 18 a9 bb 1c c2 f6 bd 46 6c 00 3c b6 cc c6 3c
       -0.005160428 -0.12048742 0.007838314 0.024267536
0002b0 13 fe 7e 3d 1e 68 8e bc 4c 9c e6 3c 41 ae 66 3d
       0.062254023 -0.017383631 0.0281507 0.056318525
0002c0 07 85 eb bb 3f 0e ff 3b 6b 22 8a bd 43 70 a1 3c
       -0.007187489 0.0077836807 -0.06744846 0.01970685
0002d0 66 1a bb 3b 11 8e 19 bc 87 e1 17 3d 15 f5 45 bd
       0.005709934 -0.00937225 0.037080314 -0.04832943
0002e0 7f 60 1b bd 82 94 cb 3d 4e ba 2d 3b 44 33 e8 bb
       -0.037933823 0.09940435 0.0026508751 -0.0070861895
0002f0 5b 01 74 bc 5e fd 32 3e f8 33 b6 3c 5b 8c 2c bb
       -0.014892901 0.17479464 0.022241578 -0.0026328776
000300 0d 60 7d bc ed 31 62 be 07 3b 08 bd 09 67 6e 3c
       -0.015464795 -0.22089358 -0.033259418 0.014550933
000310 70 ca ff bb c3 45 35 3d 48 47 b4 3c 7a 94 1b 3d
       -0.007806115 0.044255983 0.022006646 0.037983395
000320 9c b4 7d 3e 8e ca 39 bd 67 5b 95 3a 08 d3 81 bb
       0.24775928 -0.045359187 0.0011395038 -0.0039619245
000330 6e 02 54 bd 45 15 d0 3d f7 99 af bd 49 f7 42 bd
       -0.05176013 0.10160307 -0.08574288 -0.04759911
000340 06 96 d2 bc 4c 24 05 bb 16 b1 06 3d 1f 1f 34 3c
       -0.025706302 -0.0020315824 0.032883726 0.010993748
000350 e0 6a 06 3d bb 4b 63 bd fd c7 b2 3c e3 d1 cc bd
       0.032816768 -0.055492144 0.021823877 -0.1000097
000360 13 87 62 3d df ec 15 3d e3 1e cb bd de 86 31 3c
       0.055304598 0.03660285 -0.099180005 0.0108353775
000370 9d 60 c0 bb cb f8 37 bd 1a 59 c3 bc 0e 0d 1e bb
       -0.005870892 -0.044915 -0.023846198 -0.0024116668
000380 10 78 51 3d 6a 13 71 3c eb fd 5c be c0 e4 0d bd
       0.05113989 0.014714101 -0.21581237 -0.03464198
000390 68 26 0f 3c 24 06 9a 3c 51 91 b1 3d f3 ad 53 3d
       0.008737184 0.018801756 0.08670295 0.051679563
0003a0 32 ef 36 3d a4 f0 d9 3c 3c 42 42 3c 9c 47 1f 3b
       0.04466171 0.026604004 0.011856612 0.0024304157
0003b0 2b 86 14 3a dc 61 20 3b 4f e2 c3 bb 0d ea 23 bd
       0.00056657445 0.0024472391 -0.005977906 -0.04001813
0003c0 42 a6 02 3d 4e 49 28 be 0e ad 1e 3d 97 e9 b3 3c
       0.031896837 -0.16434214 0.038739257 0.02196197
0003d0 59 56 64 3d 17 35 d6 3b f8 3f 6b bc 1b 90 8b bb
       0.05574641 0.0065370905 -0.014358513 -0.004259122
0003e0 e8 2d a1 bd 09 dd 2d bd 94 45 74 3d 65 87 2b 3c
       -0.07870084 -0.042447124 0.059636667 0.010469292
0003f0 65 90 bf bd b3 51 e9 3d 92 05 ab bc f6 11 7a bc
       -0.09353713 0.11392536 -0.02087668 -0.015263071

tcn.network.0.net.0.bias f4 [25]
000000 ae 6b 88 be 70 ad 3b bd 6b f2 e5 bd b3 ad 2c bd
       -0.26644653 -0.0458197 -0.11227878 -0.04215784
000010 04 72 fd bd 79 db f0 3b ac af 08 bc b9 46 3c bb
       -0.123752624 0.007350382 -0.008342665 -0.0028728677
000020 65 fa 1f be 28 9c 19 be 2a e0 61 be 1e 65 45 bd
       -0.15622862 -0.15000975 -0.22058168 -0.048192136
000030 2d 88 af be 6b de 81 be 80 3f 03 be 20 57 5a be
       -0.3428358 -0.25365004 -0.12817192 -0.21322298
000040 8d 2e e2 bd 0f 1e 4c bd ed 56 d6 bd c4 60 32 bc
       -0.11044035 -0.049833354 -0.104657985 -0.010887329
000050 18 a2 d9 bd 49 15 0b be f5 f7 8c be ff 2c f4 bc
       -0.1062662 -0.13582338 -0.27532926 -0.029806612
000060 ba 6c 47 be
       -0.1947507

tcn.network.0.net.0.weight_g f4 [25, 1, 1]
000000 52 b0 00 3f 6e 2c 35 3f d6 7c 04 3f 19 db 07 3f
       0.50269043 0.7077092 0.51752985 0.5306869
000010 45 ef ed 3e ad 31 f2 3e 11 2f e1 3e 6e 50 f1 3e
       0.4647161 0.47303525 0.4398122 0.47131675
000020 b0 0e f2 3e 24 a3 08 3f 25 ad f6 3e c4 79 0c 3f
       0.4727683 0.5337393 0.48178974 0.548733
000030 fe 09 f9 3e c7 c1 31 3f 77 82 fb 3e 00 03 0d 3f
       0.48640436 0.69436306 0.49122974 0.550827
000040 2e 17 0e 3f dc 95 1b 3f 10 0a 0e 3f f5 d1 19 3f
       0.5550412 0.6077554 0.55484104 0.60085994
000050 2b 45 00 3f 0c 6d 08 3f a9 38 12 3f 7c cf 0a 3f
       0.5010554 0.5329139 0.57117707 0.54222846
000060 aa 55 01 3f
       0.5052134

tcn.network.0.net.0.weight_v f4 [25, 16, 4]
000000 c2 cb 4e 3b 45 c8 56 bb 66 e9 9b 3a cb a3 22 3c
       0.0031554555 -0.0032773179 0.001189512 0.009926747
000010 2c 0e 12 3d b6 98 25 bb 8a 07 15 3d 05 82 08 bd
       0.035658047 -0.0025268025 0.036384143 -0.03332712
000020 5d 39 1c 3c 76 59 33 3d 6b 86 aa bd 06 96 f7 bc
       0.009535161 0.04378649 -0.083264194 -0.030222904
000030 78 e4 62 3d 61 69 70 3c 83 11 da bb 01 1c 0d 3b
       0.055393666 0.014673562 -0.0066549196 0.0021531584
000040 bf 00 b2 bc e6 01 bd bd e8 53 c9 bb 49 6e 6e bc
       -0.021728871 -0.09228878 -0.0061440356 -0.014552661
000050 fe 42 03 bc a8 21 15 3c 1a ed 9b 3c ac 91 6c bd
       -0.008011578 0.009102263 0.019033957 -0.05775611
000060 74 f6 90 bd 1d 81 da bc c1 ce 7c 3d fb 26 49 3c
       -0.07078257 -0.026672894 0.061720613 0.01227736
000070 ed 3b 93 3d 6b ca 96 bd ac ed d2 bd a2 4f bb 3c
       0.07189164 -0.07362827 -0.102992386 0.02286512
000080 95 83 34 3c e4 ca ce 39 05 eb 30 bb d0 17 53 3c
       0.0110177 0.00039442547 -0.0026995551 0.012884095
000090 b0 a9 d7 3c 28 5d 82 3d cf 42 af bb 08 60 0a bd
       0.02632603 0.063654244 -0.0053485404 -0.03378299
0000a0 7e 01 36 3c e1 ee 10 3b 1d d7 5e 3d 5d e4 0e be
       0.011108754 0.002211504 0.054404367 -0.13954301
0000b0 1a 09 4f 3d 8a d8 e1 3a ea 0f bd bb cf 1b 37 39
       0.05054579 0.0017230671 -0.0057697194 0.000174626
0000c0 87 a4 60 3e 4d 0c 47 be 18 da 19 bd f1 13 87 bd
       0.21937762 -0.19438286 -0.037561506 -0.065956004
0000d0 bd 09 b4 bb 19 23 39 3c ea 2e c8 3c b6 5e 89 bd
       -0.005494325 0.011299872 0.024436433 -0.06707518
0000e0 e7 35 b5 bd f9 f9 00 bd 89 e1 32 3d 54 7e 63 3c
       -0.08848172 -0.031488393 0.04367212 0.013885099
0000f0 ec 3f 3e 3e 0f 4d fa bd 5d 5d 90 3e fe 40 50 be
       0.18579072 -0.12221729 0.2819623 -0.20337293
000100 d9 71 a5 bb 19 cc ce b8 5e a3 96 3b 87 ae 01 bb
       -0.005048972 -9.8608616e-05 0.0045971116 -0.0019787864
000110 6f 73 1e 3d 78 9c 31 bd 1f 41 fa bc aa 7b 29 3c
       0.038684305 -0.04336211 -0.03054863 0.010344425
000120 83 b3 27 3d d4 7f eb 3c 63 e8 09 3d 73 57 3d 3c
       0.04094268 0.028747477 0.033668887 0.011556494
000130 ce 0e 94 bc 4a 13 fa 3b 80 61 f1 b9 c4 78 5c 3a
       -0.018073466 0.007631694 -0.00046039745 0.00084103295
000140 0e e4 09 3e e5 c9 c7 bd 77 ff 60 bc 31 00 d0 3c
       0.13465902 -0.09755305 -0.013732783 0.025390716
000150 cd 1d 74 3b 24 23 e7 3a 75 c7 55 3c 1e 2a ed 3c
       0.0037249208 0.0017634374 0.013048043 0.028950747
000160 e5 30 c2 3c 12 b8 b1 3b 61 ba d4 bc e3 73 24 ba
       0.023704955 0.005423554 -0.025967779 -0.0006273372
000170 a6 d2 4d 3d da 83 65 3d df 6d 01 3e 90 94 56 bd
       0.050249718 0.056033947 0.12639569 -0.052387774
000180 c3 76 cf ba e9 aa af 3a 2b 7d 8b 3b 0e c5 39 3b
       -0.001582824 0.0013402376 0.0042568645 0.0028346214
000190 49 e7 74 3d 5d 01 8e bd 54 82 8c 3c cb 75 97 3c
       0.059790883 -0.06933854 0.017151989 0.018488785
0001a0 2e a9 2f 3d ca 4d 49 3d 4d b1 06 3d 8c c8 65 3d
       0.04288595 0.04914645 0.03288393 0.05609946
0001b0 a9 df 6d bc ca 03 ac 3b 57 f5 27 3b 44 f3 0c 3b
       -0.014518657 0.005249475 0.0025628412 0.0021507302
0001c0 75 ee d6 3c f6 26 66 3d a0 ee 3f bd ff 5b a9 ba
       0.026236752 0.0561895 -0.04685843 -0.0012921094
0001d0 01 cd cd 3b 70 40 1c 3c bf d6 cb 3c 77 0d d4 3c
       0.006280542 0.0095368475 0.024882672 0.025885327
0001e0 b4 35 82 bc bd 42 da bb be cf 09 bd c5 9e b9 bb
       -0.015894748 -0.006660788 -0.033645384 -0.0056646788
0001f0 59 29 62 be 19 81 a1 bd 60 a3 f5 be e3 70 02 3e
       -0.22086085 -0.078859515 -0.47976208 0.12738375
000200 a6 1a a5 ba d7 c3 b5 3b aa 54 10 bc 60 92 18 bc
       -0.0012596443 0.0055470276 -0.008809248 -0.009312242
000210 32 9e 72 3c 7a 9a 61 3d e6 81 1d 3e bf 9f 59 3d
       0.0148082245 0.05507896 0.15381584 0.05313086
000220 7d f5 1f 3c 3b 8a 10 bb 01 2b be bc 51 85 8c bd
       0.009763119 -0.0022055048 -0.023213865 -0.068613656
000230 93 9b 40 bd 2d 53 2d 3b b9 3c 54 3b ff 3a dd bb
       -0.047023367 0.0026447282 0.0032384826 -0.0067514176
000240 8a e6 03 3d 3d 8e 2d bd 71 e5 6b bc 0e 21 01 be
       0.03220228 -0.042371977 -0.014397965 -0.12610266
000250 fa ab 16 bc 48 ac 92 bb 4e b9 52 3c ff 0f 3b 3d
       -0.009196276 -0.004476104 0.012861563 0.045669552
000260 8d 4b c6 bd e2 73 27 bb 68 2a 0e bd cf bb 1a 3c
       -0.09682379 -0.002555125 -0.03470841 0.009444191
000270 12 5f a4 bd f7 ef 9c bb b9 4a 7c bd 32 1d f4 bd
       -0.08025946 -0.004789348 -0.0615947 -0.11919631
000280 98 81 ea 3b 56 4b 08 3c 4d 10 ff ba e6 33 66 bc
       0.007156562 0.008318743 -0.0019459814 -0.0140504595
000290 a2 5b ec bd 21 ec 2e 3d 1a 6b 8d 3d 7e 43 42 3d
       -0.11540915 0.04270566 0.069051936 0.047427647
0002a0 e7 70 88 3c f1 70 34 bd 0b 7b 0f bd 70 80 14 3d
       0.016655399 -0.04405302 -0.035029452 0.0362553
0002b0 58 ec 3f bd 68 4f 59 bb f2 bf dd 3b 5e b4 07 3a
       -0.046856254 -0.0033158902 0.0067672664 0.0005176718
0002c0 9b 38 39 3e 2c fc 9a bd b9 88 83 3c cf f7 9c 3d
       0.18088 -0.07567629 0.016056405 0.07664453
0002d0 78 5f 69 bc ea 31 35 3c e7 51 53 3c 08 2b c5 bd
       -0.014243953 0.011059264 0.012897945 -0.09627348
0002e0 55 5f 99 bd b5 87 31 3c 0d ce 37 bd 74 d0 cd 3c
       -0.07488886 0.010835578 -0.04487424 0.025123812
0002f0 08 73 c1 bc ed 7b 5f 3e 77 5f aa 3e 06 fe 4b be
       -0.023614421 0.21824618 0.3327596 -0.19921121
000300 3e 80 f1 3b 6d 2a 00 bc 58 58 28 bc 3c 80 16 bc
       0.007370024 -0.007822615 -0.010274969 -0.009185847
000310 be 43 ce bc 20 1b 35 3d 90 0f 22 3b 49 06 35 3c
       -0.025178786 0.04421532 0.0024728514 0.011048862
000320 f0 d0 23 3d 5e 38 0f 3d 09 cd 87 b9 7c 3d 6a 3c
       0.03999418 0.034965865 -0.0002590197 0.014296886
000330 4b 51 f1 3b c0 52 38 3c c2 f3 50 3c 9b 70 c2 bb
       0.007364427 0.011250198 0.012753429 -0.005933834
000340 48 81 d9 bc 33 33 52 bd e8 d8 d4 3d f8 88 ea 3d
       -0.026550904 -0.05131836 0.10392934 0.11451906
000350 da 9d 27 bc 9c 5f 86 3c a9 25 78 3d 96 a3 18 3b
       -0.010230506 0.016403012 0.06058279 0.0023290864
000360 95 02 3b bd 6e de 0e bd ac 5a 9e ba 10 e5 b3 3b
       -0.04565676 -0.034880094 -0.0012081466 0.005489953
000370 ae 7d b0 bd 5d 81 26 3d b9 3e 02 3d d0 75 21 3d
       -0.086177215 0.040650714 0.0317981 0.039418995
000380 a0 c5 4a 3b a8 d9 3d bb ce cb 67 bb e6 65 d1 3a
       0.0030940548 -0.0028968845 -0.003536928 0.0015975803
000390 b7 5f f9 bc f2 da 5a bd b5 58 be b9 b9 5c 3e bb
       -0.030441148 -0.05343146 -0.00036305716 -0.0029046966
0003a0 fc 06 5a 3d 8a 80 65 3d 35 73 52 3d cd 4f c9 bd
       0.053229317 0.056030788 0.0513794 -0.09829674
0003b0 99 b0 6c bc af 77 74 3c ed 1a 19 3c 78 1c d9 bb
       -0.014446401 0.014921113 0.0093447985 -0.006625708
0003c0 84 ea be bd 89 1b fe bd ee ed e8 bd 74 8b 83 be
       -0.09322074 -0.12407596 -0.113735065 -0.25692332
0003d0 1d fc 52 bc 6e 76 fb 3b 71 f4 b7 3d 55 c6 3c bd
       -0.012877491 0.00767403 0.089821704 -0.04608758
0003e0 14 be 4a 3d a5 75 6a 3c 07 9b 1c bd 70 46 13 3c
       0.04949768 0.014310275 -0.038233783 0.008988962
0003f0 af e3 ae 3e 4b 33 85 bc 01 00 50 be 8b 41 68 3e
       0.34158084 -0.01625981 -0.20312501 0.22681253

tcn.network.0.net.4.bias f4 [25]
000000 be 64 14 3d 8e 12 04 bd fd b2 33 3d 10 57 f7 3c
       0.036228888 -0.032244258 0.04387187 0.030192882
000010 fc 7e 53 3d 26 99 17 bc 39 b3 97 3c 77 36 80 3d
       0.051634774 -0.009252822 0.018518077 0.06260388
000020 58 f0 16 3e 06 06 d0 3d e1 d0 cf 3d 35 f0 e3 3d
       0.14740121 0.10157399 0.10147262 0.111298
000030 07 4e 26 3d f7 28 b9 3d 22 d7 ed 3c 1d be fe 3c
       0.040601756 0.090410165 0.029033247 0.031096512
000040 10 e2 73 3d fa ca 1a bd 1c 34 05 3d e9 8a d1 3d
       0.059541762 -0.03779123 0.0325204 0.10231573
000050 31 34 c9 3c 49 f0 11 3d 64 a4 d8 3d a9 ad 99 3d
       0.02456102 0.035629544 0.1057823 0.07503826
000060 9c 1d 3d 3c
       0.011542704

tcn.network.0.net.4.weight_g f4 [25, 1, 1]
000000 3a 07 1d 3f 3e f0 e2 3e 05 8e 1d 3f 43 a1 3f 3f
       0.6133915 0.44323915 0.6154483 0.7485544
000010 67 a3 d2 3e e3 8a 16 3f 3f b8 cb 3e cb 9e f1 3e
       0.4114029 0.58805674 0.39789006 0.47191462
000020 66 6e 48 3f 45 93 37 3f 8b d0 14 3f de 06 2c 3f
       0.78293455 0.7170909 0.5813071 0.6719798
000030 fd da fc 3e a7 bd 20 3f e4 54 00 3f 78 ab 7d 3e
       0.49385825 0.62789387 0.5012953 0.24772441
000040 f4 97 c7 3e 6c 2d fe 3e a9 17 59 3e dc 59 23 3f
       0.3898312 0.4964403 0.21200432 0.6380899
000050 c2 f4 dc 3e 51 0f 06 3f c3 cc 1b 3f cd bb 3b 3f
       0.43155485 0.5236712 0.60859317 0.73333436
000060 ed 2d 28 3f
       0.6569508

tcn.network.0.net.4.weight_v f4 [25, 25, 4]
000000 82 ad 7a 3d 5b df 9b bd fc a9 1b 3d d7 12 21 3d
       0.061200626 -0.07610961 0.038003907 0.039324608
000010 d8 92 4c 3d c4 da c9 3d 60 09 dd 3c bb 38 8b bd
       0.04994473 0.09856179 0.02698201 -0.0679793
000020 b0 cf b7 3b 04 32 e0 3c 16 db ed bd 0e a9 05 bc
       0.005609475 0.0273676 -0.11614053 -0.008157982
000030 1e da dd bc 6c 49 e5 bc 5b 4f 10 bd 49 d2 86 be
       -0.027081545 -0.027989112 -0.03523193 -0.2633231
000040 30 85 e7 3d 5b f2 4d 3d a4 04 45 3c 33 e0 85 bd
       0.113047004 0.050279956 0.012025032 -0.06536903
000050 4d 79 8f bd 45 d5 78 bc ce 45 8b 3d 07 3a 88 bc
       -0.07005558 -0.015187566 0.068004236 -0.016629232
000060 9f bd be 3b b2 fd 28 bd 05 d7 43 be 4d 3a e3 3c
       0.0058209444 -0.041257568 -0.19124992 0.02773776
000070 d3 e7 1b 3d 8a a5 0e bc 0b 26 bf bc 9c 1b 0e 3d
       0.03806288 -0.00870646 -0.02333357 0.0346943
000080 b8 3c 54 3d 13 83 99 bc 94 55 10 3d 1e e2 01 3d
       0.05181572 -0.018739259 0.035237864 0.031709783
000090 90 f7 e9 3c 1e 2b 3b 3c d7 da b9 bd 96 66 63 3d
       0.02856043 0.011423854 -0.090749435 0.055517755
0000a0 b2 62 5d bc 90 f3 b0 bd 70 71 c2 b9 98 73 82 be
       -0.0135123 -0.08640206 -0.0003708708 -0.25478816
0000b0 a5 ba 35 bd 2c ec 6d 3b 18 ca 1a bc 74 c0 61 bb
       -0.04436745 0.00363041 -0.009447597 -0.0034446986
0000c0 18 cc 7b bd e5 6d 89 3c a8 20 38 3d 61 e2 4d 3d
       -0.061473936 0.016776035 0.04495302 0.05026472
0000d0 ff df c3 3d 0e 5d f5 3d 1c e6 9e bd 78 55 e8 bd
       0.09564208 0.119806394 -0.07758734 -0.11344427
0000e0 79 3b 4d bd 39 b6 7b bd 59 8a c7 bd fa fd 21 3c
       -0.050105546 -0.061453078 -0.097431846 0.009887213
0000f0 30 4f 0c 3c 90 ed 67 3d 62 9a 0f bd e5 e2 0d bb
       0.008563802 0.05662304 -0.03505934 -0.0021650132
000100 62 03 ff 3c 14 59 ae bd dc a9 b1 3d 42 cd 60 3d
       0.031129543 -0.08513084 0.08674976 0.05488325
000110 7a 09 b7 bb 76 e5 09 be ab 22 a6 3d 53 ab 24 bd
       -0.0055858465 -0.13466439 0.08112081 -0.04020245
000120 38 1a e3 bb ba c3 bc 3c ce c5 9f bc ae b4 b5 3d
       -0.0069306158 0.023042548 -0.0195035 0.088723525
000130 35 e1 ad 3d 17 48 85 3d 8a f6 d1 bd 4c f7 95 3d
       0.084902205 0.06507891 -0.10252102 0.07322559
000140 20 7d 68 bc 1f 55 d0 bd 96 36 da 3c 59 66 55 be
       -0.014189988 -0.101724856 0.026637357 -0.20839824
000150 2c 41 44 bd d2 ba 07 bb f9 52 47 bc 76 b8 e6 3c
       -0.047913715 -0.0020710719 -0.012165778 0.02816413
000160 12 ab 1a bb 29 0c ad bc b7 b2 55 3d d4 3f 25 3c
       -0.00236005 -0.021123962 0.05217239 0.010086019
000170 c4 25 c4 bc bd 83 58 3d 50 b7 3f 3d ac 62 45 be
       -0.02394379 0.05286001 0.04680568 -0.19275922
000180 cf e9 c3 3b 0f 38 62 bc d3 f1 89 3b 81 b1 35 3d
       0.0059788 -0.013807311 0.004209736 0.044358734
000190 79 d9 a2 bd 71 a0 b7 bc 93 83 94 3d ce fc df 3c
       -0.07951636 -0.022415372 0.07251658 0.027342226
0001a0 71 a1 c7 3c 60 e7 7d bc d8 3a 8e bd 7c cf 16 be
       0.024368973 -0.015497059 -0.06944817 -0.14727587
0001b0 ef e1 80 be df 69 14 3d 40 d4 5f 3c c6 a1 be 3c
       -0.25172374 0.03623378 0.013661444 0.023270499
0001c0 42 ad e0 ba e5 42 27 be 11 2e 4f bd 1c 60 11 3c
       -0.0017141479 -0.16334112 -0.05058104 0.008873012
0001d0 7f 6a 69 3d 88 3c c5 3c ee d2 25 be fe d4 61 be
       0.05698633 0.024076715 -0.16193745 -0.22053906
0001e0 a2 ad 37 3c 51 b6 4a bd 4e 46 d4 3c ff 58 ad 3c
       0.011210831 -0.049490277 0.02591243 0.0211606
0001f0 42 b5 f6 3d b2 44 78 bc a4 6b 56 bd 24 9e 12 3d
       0.12046291 -0.015153097 -0.052348748 0.035795346
000200 ae 84 8f 3c 2c 57 f8 bc 44 c2 2c bc de e9 e7 3c
       0.017519321 -0.030315004 -0.010544363 0.028309759
000210 eb b5 e1 bd 39 9d 23 3d 98 a0 34 bc b8 67 c8 3c
       -0.11021026 0.03994486 -0.011024617 0.02446352
000220 e9 88 1a 3c 40 63 5e bd 32 12 07 3d fd f1 c2 3d
       0.009432056 -0.05429387 0.032976337 0.09518812
000230 fa 0b 38 3c 61 68 91 be e8 e4 f3 3d 81 72 3e 3c
       0.011233324 -0.28399947 0.11908895 0.01162398
000240 20 f2 f5 3c 25 20 d8 3b 8b 26 c5 3c de 23 ad 3c
       0.03002268 0.006595629 0.02406623 0.021135267
000250 4a 6d 19 3d 0b 40 bb 3c ea 30 64 3d a7 2d e3 3c
       0.03745774 0.022857687 0.05571071 0.02773173
000260 54 87 52 3d 06 d2 c3 38 d5 e2 4e 3d cb bd 30 be
       0.05139859 9.3374445e-05 0.050509293 -0.172599
000270 65 35 23 bd c8 a0 7c be 3b fc 92 bc 94 4b a2 3d
       -0.039845843 -0.24670708 -0.017942538 0.07924572
000280 f3 f7 9c 3d 3e 11 d0 3c 33 61 d8 bc 7c bb 40 3d
       0.0766448 0.025398847 -0.026413536 0.0470538
000290 29 04 47 3d bb 32 86 3c 91 36 c2 3d b9 b1 3f 3d
       0.04858795 0.016381612 0.09483064 0.04680035
0002a0 cf 18 a9 bb 1c c2 f6 bd 46 6c 00 3c b6 cc c6 3c
       -0.005160428 -0.12048742 0.007838314 0.024267536
0002b0 13 fe 7e 3d 1e 68 8e bc 4c 9c e6 3c 41 ae 66 3d
       0.062254023 -0.017383631 0.0281507 0.056318525
0002c0 07 85 eb bb 3f 0e ff 3b 6b 22 8a bd 43 70 a1 3c
       -0.007187489 0.0077836807 -0.06744846 0.01970685
0002d0 66 1a bb 3b 11 8e 19 bc 87 e1 17 3d 15 f5 45 bd
       0.005709934 -0.00937225 0.037080314 -0.04832943
0002e0 7f 60 1b bd 82 94 cb 3d 4e ba 2d 3b 44 33 e8 bb
       -0.037933823 0.09940435 0.0026508751 -0.0070861895
0002f0 5b 01 74 bc 5e fd 32 3e f8 33 b6 3c 5b 8c 2c bb
       -0.014892901 0.17479464 0.022241578 -0.0026328776
000300 0d 60 7d bc ed 31 62 be 07 3b 08 bd 09 67 6e 3c
       -0.015464795 -0.22089358 -0.033259418 0.014550933
000310 70 ca ff bb c3 45 35 3d 48 47 b4 3c 7a 94 1b 3d
       -0.007806115 0.044255983 0.022006646 0.037983395
000320 9c b4 7d 3e 8e ca 39 bd 67 5b 95 3a 08 d3 81 bb
       0.24775928 -0.045359187 0.0011395038 -0.0039619245
000330 6e 02 54 bd 45 15 d0 3d f7 99 af bd 49 f7 42 bd
       -0.05176013 0.10160307 -0.08574288 -0.04759911
000340 06 96 d2 bc 4c 24 05 bb 16 b1 06 3d 1f 1f 34 3c
       -0.025706302 -0.0020315824 0.032883726 0.010993748
000350 e0 6a 06 3d bb 4b 63 bd fd c7 b2 3c e3 d1 cc bd
       0.032816768 -0.055492144 0.021823877 -0.1000097
000360 13 87 62 3d df ec 15 3d e3 1e cb bd de 86 31 3c
       0.055304598 0.03660285 -0.099180005 0.0108353775
000370 9d 60 c0 bb cb f8 37 bd 1a 59 c3 bc 0e 0d 1e bb
       -0.005870892 -0.044915 -0.023846198 -0.0024116668
000380 10 78 51 3d 6a 13 71 3c eb fd 5c be c0 e4 0d bd
       0.05113989 0.014714101 -0.21581237 -0.03464198
000390 68 26 0f 3c 24 06 9a 3c 51 91 b1 3d f3 ad 53 3d
       0.008737184 0.018801756 0.08670295 0.051679563
0003a0 32 ef 36 3d a4 f0 d9 3c 3c 42 42 3c 9c 47 1f 3b
       0.04466171 0.026604004 0.011856612 0.0024304157
0003b0 2b 86 14 3a dc 61 20 3b 4f e2 c3 bb 0d ea 23 bd
       0.00056657445 0.0024472391 -0.005977906 -0.04001813
0003c0 42 a6 02 3d 4e 49 28 be 0e ad 1e 3d 97 e9 b3 3c
       0.031896837 -0.16434214 0.038739257 0.02196197
0003d0 59 56 64 3d 17 35 d6 3b f8 3f 6b bc 1b 90 8b bb
       0.05574641 0.0065370905 -0.014358513 -0.004259122
0003e0 e8 2d a1 bd 09 dd 2d bd 94 45 74 3d 65 87 2b 3c
       -0.07870084 -0.042447124 0.059636667 0.010469292
0003f0 65 90 bf bd b3 51 e9 3d 92 05 ab bc f6 11 7a bc
       -0.09353713 0.11392536 -0.02087668 -0.015263071

tcn.network.0.downsample.weight f4 [25, 16, 1]
000000 a3 4e df 3c 3c b8 98 bb 33 c0 cb 3d 71 d8 04 3b
       0.027259177 -0.0046606343 0.099487685 0.002027061
000010 dd 48 2d bd 8b cd 37 3c a4 60 fc 39 d1 6b be 3d
       -0.042305816 0.011218439 0.00048137188 0.09297908
000020 09 87 f5 bb ce 82 a9 bb 8f 6c 26 3e 22 10 9c bb
       -0.007492904 -0.005173064 0.1625235 -0.0047626654
000030 ba 45 c9 bd d8 23 9c bc 55 22 ee bb 3d 47 7d be
       -0.098277524 -0.01906006 -0.0072672763 -0.24734206
000040 20 63 b1 3d 55 93 fa 3a 9f 4c da 3c 57 bc d4 b9
       0.08661485 0.0019117395 0.026647864 -0.00040576115
000050 73 a3 2c bd 6e 37 2d be 54 00 8d ba 45 e6 51 b9
       -0.042148065 -0.16915676 -0.0010757544 -0.00020017575
000060 14 5b af 3e 25 b8 05 3a 28 16 c7 3d 20 ad c3 3a
       0.34249175 0.0005100987 0.09721023 0.0014928915
000070 47 ab 5a bd ae e3 fc be ac 30 e1 b9 a5 2a 0e 3f
       -0.053386 -0.49392456 -0.00042951608 0.5553382
000080 0f be 96 3d 96 f0 45 bb 72 1f 80 bd a5 49 f7 3b
       0.073604695 -0.0030203215 -0.06255998 0.007546621
000090 97 e0 b5 bd 9e 94 fe 3b 47 88 75 3b 88 9d b3 3c
       -0.08880728 0.0077691814 0.003746526 0.021925703
0000a0 0a 57 9e 3e c5 b0 1b bb 29 9b dd bd 97 5d c8 3b
       0.3092578 -0.0023756486 -0.1082061 0.0061146724
0000b0 ad 01 6b bd 60 7b 83 3e 6d d9 38 3c 88 ce 99 bd
       -0.057374645 0.25680065 0.011282307 -0.07510096
0000c0 16 59 4a bc f5 fd 1a 3b 0e 85 77 3d 32 ec bf ba
       -0.012350341 0.0023649905 0.060429625 -0.0014642535
0000d0 14 0c c7 3b 43 fd 1c bd 02 4e c1 3a d5 8d 9f bd
       0.006074438 -0.038327467 0.001474798 -0.07790724
0000e0 4c bd 1b be 8f 3c 45 3b d3 7c 59 3e 0d 90 2a bb
       -0.1520893 0.003009591 0.21239023 -0.0026025802
0000f0 ee 2b dc 3c 56 9a 60 be e2 65 50 ba 65 0e 12 be
       0.026876416 -0.21933874 -0.0007949752 -0.14263304
000100 b0 8e 11 3d 10 12 94 3b 97 3b 21 bd d8 3d 09 bb
       0.035536468 0.004518755 -0.03936347 -0.0020941403
000110 99 be a2 3c 35 e0 12 be 45 a1 b4 ba ce 74 04 3e
       0.019866275 -0.1434334 -0.0013780972 0.12935182
000120 84 cc 35 3e 2a b7 c4 3b b3 98 86 be e6 90 2c ba
       0.17753798 0.00600328 -0.26288375 -0.0006582871
000130 1d 38 14 bc d0 57 b7 be 08 4d 20 3b 5d ee bd be
       -0.009046582 -0.35809183 0.0024459977 -0.3709592
000140 3c 5e 93 3c 4e c8 d1 ba 1d 46 fa 3d 1d e1 7b bb
       0.01798927 -0.001600513 0.12220404 -0.0038433739
000150 e5 01 e5 3c 9c 97 15 be a7 91 3c 39 ee 28 cb 3d
       0.027955005 -0.14608616 0.00017983337 0.09919916
000160 48 0b 06 3e 59 79 e9 ba 50 0c 92 3e cf ba 8e 3a
       0.13090241 -0.0017812654 0.2852502 0.0010889414
000170 3c 2c d7 3c f4 8e 8b be e1 b8 fa 39 59 c4 31 3f
       0.02626621 -0.27257502 0.0004782146 0.6944023
000180 09 48 15 bd a7 09 4b 3a 60 04 5e bb 12 56 6f ba
       -0.03644565 0.0007745274 -0.003387712 -0.0009129952
000190 99 f2 81 bc 4c 3b 19 3d 7c 78 01 bb dc 68 38 3e
       -0.01586275 0.037410066 -0.0019755652 0.1800875
0001a0 b2 61 81 bd 41 e4 c5 3a 08 53 11 3c a5 8d 6e bb
       -0.06317462 0.0015097932 0.008869894 -0.0036400345
0001b0 f8 68 ed bc 0b 29 2e 3e 4e 00 af bb 88 b0 66 3f
       -0.028980717 0.17007844 -0.0053406125 0.90113115
0001c0 9e 0c b0 3d c5 5b 06 bb eb 21 d2 bd 97 04 57 3b
       0.085961565 -0.0020501476 -0.102603756 0.0032809132
0001d0 c6 08 37 bd 18 2a c5 3c 45 fd 8d 3b 19 c3 e8 3d
       -0.0446861 0.024067923 0.0043331706 0.11365337
0001e0 91 69 5f 3e 63 46 8b bb 9b 58 87 be 05 aa e9 ba
       0.21817614 -0.004250334 -0.26434788 -0.0017827159
0001f0 a9 59 14 3d 85 85 d2 3d db 30 f4 3b b9 38 ea be
       0.03621832 0.10279373 0.007452113 -0.457464
000200 96 7e 5c 3c cf c9 a0 b9 e8 33 46 be e8 9d ba bb
       0.013457915 -0.00030667937 -0.19355738 -0.0056950934
000210 bb ee 07 bd 40 8c af 3d cc b6 a9 bb 8a ec 36 3c
       -0.033186655 0.085716724 -0.005179262 0.011164794
000220 55 c6 7e 3c e8 41 39 3b cd 6c 9f be e4 53 2c bb
       0.015550216 0.0028268043 -0.31137696 -0.002629512
000230 20 5a a2 bc 3d bb c0 3e 4a e6 5b bb ed 28 df bd
       -0.019818366 0.3764285 -0.003355401 -0.10896478
000240 13 d1 c3 bd 5e 3d ea ba 5e 24 53 bd f7 bc c8 3b
       -0.09561362 -0.0017871072 -0.051548354 0.006126042
000250 99 3f 1e bd 70 db 5d 3d 0a e2 11 b8 33 a4 8e 3d
       -0.03863487 0.05416435 -3.478121e-05 0.06964912
000260 01 fa 96 be 52 44 0a bb 95 86 94 bd ce 35 f6 3b
       -0.29487613 -0.002109785 -0.07252232 0.0075137382
000270 38 9a ce bd 9f d7 db 3d 88 ca f6 3b a7 fb 08 bd
       -0.10088009 0.10734486 0.007531468 -0.03344312
000280 bb cb 12 bd a2 9c 66 3b 65 1f 0c 3d dc d5 b6 ba
       -0.035838824 0.0035188575 0.034209628 -0.0013949233
000290 a6 83 61 bd 3f c6 05 3d 0e 5f 53 ba ef 4f 24 ba
       -0.05505719 0.032659765 -0.00080631755 -0.00062680145
0002a0 8d f9 76 be 8a f4 34 3b 5b 97 ba 3d a8 44 1e 3a
       -0.24118634 0.0027611577 0.091109 0.0006037452
0002b0 5b 2b 9d bd 95 3a 48 3c 64 82 d3 ba fc c5 08 bf
       -0.07674285 0.012220998 -0.0016136882 -0.534271
0002c0 86 78 69 39 91 63 e2 bb e1 d4 e0 bd 49 e8 a0 39
       0.0002226551 -0.006908842 -0.109781034 0.00030690644
0002d0 56 ab f0 3a 3b dc 22 bb e2 64 1d 3b 1c ca e6 bd
       0.0018361609 -0.0024850506 0.002401643 -0.11269018
0002e0 ab b7 69 3d 49 4d 92 bb b4 ea 93 be 1b 5d 01 bb
       0.057059925 -0.0044647795 -0.28890002 -0.0019739333
0002f0 17 1e f8 bc b2 7f e8 3c df f6 bb bb 59 3a 24 bf
       -0.030287785 0.028381202 -0.0057362164 -0.6415153
000300 2f d7 5a 3c 15 0e 5d ba 50 17 a4 3c 9d cd 50 ba
       0.013356968 -0.00084325793 0.020030648 -0.0007965209
000310 22 62 f6 bb 7a 2c 34 bb 94 39 cc 3a 1d a0 95 bd
       -0.0075190226 -0.002749233 0.0015581124 -0.0730593
000320 43 f9 00 be 34 cf 98 bb 29 88 df 3d bf a5 ea 3a
       -0.12595086 -0.0046633724 0.10914642 0.0017902179
000330 3e f7 1e 3c 4c 99 0c be 4d d9 2a 3b ba ad e9 3e
       0.009702502 -0.13730353 0.0026069463 0.45640355
000340 a8 82 5d ba f9 85 09 b8 fc 12 c5 3d b0 fb 00 bb
       -0.000844995 -3.2788117e-05 0.096227616 -0.0019681267
000350 1e 3c 00 bc 5e 29 11 3c a6 3d 02 ba 87 66 50 bd
       -0.007826833 0.00885996 -0.0004968293 -0.050879028
000360 dd 65 2f 3d ce fa 08 ba 6b 08 5a 3e f5 dd 2f bb
       0.042821754 -0.0005225361 0.21292274 -0.0026835178
000370 4e f5 98 3c 13 5f 1e 3e ce 74 1c bb 7c 55 c8 3e
       0.018671658 0.15465955 -0.0023873332 0.3912772
000380 d9 0b e7 bc a8 3d f7 3b 8e 3b d2 bd 88 8d 7c b9
       -0.028203892 0.007545192 -0.102652654 -0.00024085317
000390 0f ef 15 3d 7c 8c 4b bc e1 a9 c4 ba 1d 17 8e bc
       0.036604937 -0.012423631 -0.0015004241 -0.017345006
0003a0 fc 6a 7e be 0b ba 0e 3c 3f 19 a6 be aa d9 d3 3a
       -0.24845499 0.008711348 -0.32441136 0.0016162891
0003b0 a1 06 97 bd 2a 61 57 3d a8 88 a5 bb 58 73 44 ba
       -0.07374311 0.052582897 -0.005051691 -0.0007493994
0003c0 85 1b d1 bd ab ce 99 ba 73 72 41 bd 4a c0 3a bb
       -0.10210327 -0.0011734565 -0.047228288 -0.002849596
0003d0 f1 ed fc 3b 0b fb 2d 3e f5 a7 28 3b 74 71 93 bd
       0.0077187945 0.16990297 0.0025734876 -0.07199374
0003e0 01 5b ab be e4 17 86 ba c2 6f 7c bd a9 cd 59 bb
       -0.33467868 -0.0010230509 -0.061630018 -0.0033234155
0003f0 0a 88 f1 3d 2a be 14 3f 44 25 c1 3b a5 4e 2e bf
       0.117935255 0.5810267 0.005894335 -0.6808875

tcn.network.0.downsample.bias f4 [25]
000000 1f d3 c2 3e 7a 28 6b bd 4b 3d 29 3f 5d 3c 19 3f
       0.38051698 -0.05741165 0.6610915 0.5985773
000010 d6 8b 28 3f b5 8f 1c 3e e9 d4 70 3e 4b 94 d4 3e
       0.6583837 0.15289195 0.23518719 0.4151939
000020 c5 2b 5d 3e 3f 2b d8 3e b5 76 48 3e b9 90 30 be
       0.21598728 0.42220494 0.19576533 -0.17242707
000030 32 0e 09 3f f6 82 e3 3e f1 10 10 3f c9 ec ee 3d
       0.53537285 0.44435853 0.5627585 0.11666257
000040 65 00 31 3f cf bf 65 3f e2 95 4b 3f 20 71 d3 3e
       0.69141227 0.897458 0.7952558 0.41297245
000050 fb a3 1e 3f 47 89 bd 3e 17 7c b1 3d 43 b2 9b 3e
       0.61968964 0.37018797 0.086662464 0.3040944
000060 10 d3 9e 3d
       0.07755101

tcn.network.1.conv1.bias f4 [25]
000000 2b 6e d6 3c 6f c7 87 3d 37 a2 be bd 0b 67 ef bd
       0.026175579 0.06629836 -0.09308284 -0.11689576
000010 7c e6 81 bc 4b f7 fb 3c e1 75 ad bc ec 20 8d bd
       -0.015856974 0.030757567 -0.021174373 -0.06891045
000020 13 79 d5 3d a3 ff 3a 3d 75 76 92 bd 49 60 1f bd
       0.10423484 0.04565395 -0.071515 -0.038910184
000030 bc cd 02 3d 8c 10 1d be f9 f2 54 3d c4 fe 75 3d
       0.031934485 -0.15338343 0.05198953 0.060057417
000040 71 5e ea 3d 5c 37 d9 bc 78 e4 55 3d e1 a9 95 3d
       0.114437945 -0.026515655 0.052219838 0.073077925
000050 24 57 c5 3c 1b db 1e be 4b 95 97 bd 63 7f 3d 3d
       0.024089403 -0.1551327 -0.07401522 0.046264064
000060 4e 91 b3 3c
       0.021919873

tcn.network.1.conv1.weight_g f4 [25, 1, 1]
000000 8b ef 42 3f fb d2 4d 3f cc 3e 2f 3f 40 65 18 3f
       0.76146764 0.80400056 0.68455195 0.59529495
000010 98 16 44 3f d9 aa 21 3f 06 3f 34 3f c2 e0 26 3f
       0.76596975 0.6315132 0.70408666 0.65186703
000020 ed 6c 24 3f cb 82 52 3f 3e c7 27 3f 11 b7 29 3f
       0.6422871 0.82230824 0.65538394 0.6629496
000030 12 6a 2a 3f 0f 03 31 3f 33 c9 54 3f e3 95 4c 3f
       0.665681 0.6914529 0.83119506 0.7991621
000040 8e 59 47 3f 79 f8 26 3f 4a a7 41 3f 1e 83 16 3f
       0.77871025 0.6522289 0.7564589 0.5879382
000050 be 22 46 3f db 0f 43 3f b5 a8 3e 3f 31 53 43 3f
       0.7739676 0.7619607 0.74476177 0.76298815
000060 54 e9 28 3f
       0.6598103
